checkpoints_cartpole/model_final.pth (torch, 851098 bytes, 20 tensors)

qpos_encoder.weight f4 [144, 2]
-0.012898458 -0.07318696 -0.26541874 0.14589277 0.328007 -0.10692426 -0.038129978 0.34730327
-0.1467452 -0.10641755 -0.15341866 -0.053876877 -0.1788086 -0.23933345 -0.2478861 -0.29857984
0.0068467506 -0.050002992 -0.17348966 -0.038074598 0.08194637 0.14949024 -0.0839411 -0.11978224
0.01638286 -0.047926698 0.1274897 0.031882614 -0.106706336 0.26161674 -0.24759619 -0.36456633
0.097896546 -0.13624954 -0.008593047 -0.187802 0.19172819 -0.4069444 -0.3099481 -0.3966053
-0.28588572 -0.16351265 0.2484059 0.042317692 0.17051062 0.13634299 0.061816685 0.11316784
0.0772362 0.28841928 0.12032033 0.11520454 0.054602332 0.20580226 -0.10461485 -0.14693563
0.08309611 -0.08956069 0.1462019 0.10338827 -0.29622948 0.27483505 -0.026939267 0.11690297
0.31874213 -0.17927055 0.1254067 0.036560494 0.0852078 -0.07033528 0.32998005 -0.21206048
0.19872226 -0.27536172 0.38309738 -0.23029637 0.26066098 -0.18404506 0.12941885 -0.0015612028
0.09275877 0.25766948 -0.020983554 -0.23140271 -0.08726334 0.10735869 0.303033 0.046570536
-0.11862479 0.04192554 -0.21020333 0.09372535 -0.08690837 -0.05323387 0.2551063 0.23762594
0.27487338 -0.041325707 -0.286053 -0.18846251 -0.023754017 0.073416255 0.0789851 0.06488616
-0.23597233 -0.3730079 0.051479228 -0.25283635 0.338486 0.160376 0.17928411 0.76831824
-0.26700807 0.10065063 -0.38563415 0.06105923 0.3319215 -0.012604516 0.122251004 0.32173574
0.13659137 -0.4156382 -0.08812722 0.27504167 -0.068045326 0.010393617 -0.11420897 -0.17176054
0.035481773 -0.15279354 -0.06722585 -0.32866764 0.36187688 -0.36493662 -0.36866787 0.26057798
-0.025345244 -0.089836724 -0.0053581633 -0.3171637 0.17430316 -0.040851757 -0.020404149 -0.20778929
-0.09684282 0.058343764 -0.110593654 -0.12504205 -0.046620738 -0.012230224 -0.059206657 0.18988131
-0.25508928 -0.067378215 -0.11615994 -0.15277222 -0.10649096 0.3559142 0.040105443 -0.20661572
0.32666183 0.22133005 -0.044919144 -0.13523118 -0.01602911 -0.1220738 -0.29239967 0.024416588
0.003216172 -0.109644696 0.072395705 -0.08881694 -0.097817995 -0.015798043 0.06531983 -0.11525282
-0.056415536 0.24747516 0.08521576 0.006863925 0.08290298 -0.3480924 -0.12164831 -0.394738
-0.10106643 -0.10454136 -0.10935989 -0.1558087 -0.15683383 -0.298704 0.14076729 0.27722624
0.042387597 -0.688646 -0.07846269 -0.10628324 0.2298994 0.037080914 0.044471264 0.0053904657
0.13561195 -0.009420144 0.5054378 0.42545557 0.28305385 0.18651928 -0.13700165 -0.10696418
-0.104906484 -0.12439023 0.13977501 0.09895777 0.06700925 -0.076078914 0.1344789 0.32488102
0.048863657 -0.14765601 0.14374526 0.18067287 0.36638668 -0.22260547 0.106485106 0.38534144
-0.23087487 0.24987441 0.07442838 -0.013840167 -0.009595697 0.041561306 -0.24101646 -0.154238
-0.3723891 -0.3752953 -0.0030147156 -0.17283088 0.16217332 -0.28466266 0.092531756 0.2028314
-0.12924692 0.36895758 -0.266904 0.0815208 -0.3281327 -0.36107853 0.41960672 -0.23852584
0.106977716 0.08134102 0.18849358 0.38467073 -0.22212881 0.24415247 0.16772549 -0.29709628
00000000: 0e54 53bc 0be3 95bd f7e4 87be ea64 153e
00000010: 89f0 a73e 1bfb dabd 2e2e 1cbd bcd1 b13e
00000020: 6044 16be 72f1 d9bd c819 1dbe 00ae 5cbd
00000030: 9a19 37be d413 75be dbd5 7dbe 75df 98be
00000040: b55a e03b f0cf 4cbd 46a7 31be 1cf4 1bbd
00000050: 80d3 a73d f813 193e 50e9 abbd 6450 f5bd
00000060: 5935 863c c94e 44bd a98c 023e 5897 023d
00000070: da88 dabd a1f2 853e db89 7dbe 70a8 babe
00000080: fc7d c83d 0085 0bbe dac9 0cbc 2b4f 40be
00000090: 6554 443e 045b d0be 84b1 9ebe da0f cbbe
000000a0: 9d5f 92be dc6f 27be 1e5e 7e3e 5155 2d3d
000000b0: 569a 2e3e 7f9d 0b3e 7e33 7d3d 8ac4 e73d
000000c0: 032e 9e3d b1ab 933e 816a f63d 5cf0 eb3d
000000d0: b2a6 5f3d d4bd 523e 4f40 d6bd 4b76 16be
000000e0: 4b2e aa3d 986b b7bd f3b5 153e 3bbd d33d
000000f0: 64ab 97be 2eb7 8c3e bdaf dcbc d36a ef3d
00000100: 2b32 a33e b392 37be 9d6a 003e 75c0 153d
00000110: 6d81 ae3d f10b 90bd 25f3 a83e 6226 59be
00000120: d97d 4b3e 36fc 8cbe 5725 c43e d0d2 6bbe
00000130: 5b75 853e 4f76 3cbe 6086 043e 46a1 ccba
00000140: 4ff8 bd3d 41ed 833e b4e5 abbc d5f4 6cbe
00000150: 1fb7 b2bd dfde db3d 2427 9b3e bfc0 3e3d
00000160: 8ef1 f2bd 1dba 2b3d 8b3f 57be 14f3 bf3d
00000170: 04fd b1bd c20b 5abd 4b9d 823e 3754 733e
00000180: 34bc 8c3e 2545 29bd 8a75 92be 51fc 40be
00000190: c997 c2bc 435b 963d f1c2 a13d 09e3 843d
000001a0: bba2 71be e4fa bebe e2db 523d c473 81be
000001b0: 094e ad3e 9b39 243e 4196 373e 81b0 443f
000001c0: 48b5 88be eb21 ce3d d771 c5be 3e19 7a3d
000001d0: 9df1 a93e 2c83 4ebc bc5e fa3d 8cba a43e
000001e0: 9cde 0b3e 88ce d4be 0b7c b4bd 43d2 8c3e
000001f0: 595b 8bbd fd49 2a3c 64e6 e9bd ffe1 2fbe
00000200: 5655 113d e975 1cbe b5ad 89bd 2047 a8be
00000210: ed47 b93e f9d8 babe 09c2 bcbe 7a6a 853e
00000220: d4a0 cfbc 51fc b7bd 8893 afbb 4863 a2be
00000230: 877c 323e 2c54 27bd 9a26 a7bc b7c6 54be
00000240: 8755 c6bd dff9 6e3d ed7e e2bd 060b 00be
00000250: 63f5 3ebd 4761 48bc ae82 72bd 3f70 423e
00000260: 109b 82be 97fd 89bd 43e5 edbd 5270 1cbe
00000270: ef17 dabd 633a b63e 9b45 243d 1293 53be
00000280: 3840 a73e 58a4 623e 23fd 37bd 0b7a 0abe
00000290: 7b4f 83bc d401 fabd 69b5 95be 4c05 c83c
000002a0: 6ac6 523b 668d e0bd 3344 943d a8e5 b5bd
000002b0: cd54 c8bd e66a 81bc 67c6 853d ac09 ecbd
000002c0: fa13 67bd 216a 7d3e 9a85 ae3d c7ea e03b
000002d0: 0ac9 a93d 2b39 b2be c022 f9bd 191b cabe
000002e0: ebfb cebd c819 d6bd 14f8 dfbd 518c 1fbe
000002f0: 0c99 20be bbef 98be 4d25 103e 99f0 8d3e
00000300: 9e9e 2d3d 1b4b 30bf 0cb1 a0bd 07ab d9bd
00000310: c06a 6b3e 28e2 173d 8027 363d 81a2 b03b
00000320: dcdd 0a3e f356 1abc 5f64 013f 50d5 d93e
00000330: 6fec 903e e9fe 3e3e 294a 0cbe 0910 dbbd
00000340: 36d9 d6bd 4ec0 febd 2e21 0f3e 5faa ca3d
00000350: 253c 893d 43cf 9bbd d6b4 093e ce56 a63e
00000360: 4225 483d 2333 17be f531 133e 4f02 393e
00000370: 0997 bb3e b0f2 63be dd14 da3d 794b c53e
00000380: 766a 6cbe 14df 7f3e e86d 983d dec1 62bc
00000390: 4537 1dbc 303c 2a3d 05cd 76be 91f0 1dbe
000003a0: c9a9 bebe b526 c0be 8992 45bb 94fa 30be
000003b0: c310 263e 4ebf 91be 4a81 bd3d 09b3 4f3e
000003c0: 4e59 04be 02e8 bc3e a4a7 88be 61f4 a63d
000003d0: 0201 a8be 49df b8be b1d6 d63e 1e40 74be
000003e0: 2217 db3d 1f96 a63d 7604 413e 90f3 c43e
000003f0: bc75 63be 1b03 7a3e 3bc0 2b3e 011d 98be

qpos_encoder.bias f4 [144]
0.048974134 0.44726765 0.3183955 0.18864012 -0.55690587 0.19497465 0.6734948 0.030502124
0.31007752 -0.25387114 0.46717063 0.30095112 -0.1240531 -0.48581147 -0.24731252 0.6931411
0.52381366 0.5219685 0.55418813 -0.36182418 0.5509495 0.24195428 0.55043423 -0.66982716
-0.17799711 -0.49941704 -0.029287305 0.5514586 -0.36704415 0.14917877 0.28055453 -0.45245364
-0.44712994 0.24574883 -0.22768578 0.45358557 0.6256532 0.63739026 0.48796386 -0.39635447
-0.44139364 -0.63383037 -0.57135993 -0.048208315 -0.36459783 -0.12619449 -0.54761845 0.17944846
0.5095847 0.31309244 -0.18475996 0.41434494 0.5606006 0.27236333 -0.6702297 -0.0014292889
-0.3564089 -0.44171494 0.23007748 0.32050985 0.49965534 0.65797806 0.3963196 0.47452942
-0.44605038 0.37003574 -0.23953134 -0.18112747 0.46656284 0.5188427 -0.35009697 0.11130833
0.57019603 0.285699 -0.4540367 0.681154 0.14309166 -0.35692266 -0.1542323 0.39622596
0.11475403 -0.5658583 -0.06166995 -0.34903616 0.043748964 0.048838973 0.64936924 -0.57988876
-0.47390088 0.11086971 0.46372482 -0.28047356 0.23346052 0.46737143 -0.2925946 -0.555635
-0.015766202 0.22312446 -0.45068833 0.15226014 -0.5082366 -0.4873084 -0.21814317 -0.51368475
-0.5314583 -0.4747011 0.40605244 -0.28064236 -0.42572016 -0.43234628 0.24281853 0.20688012
0.546737 -0.667032 0.28788692 -0.4376079 -0.5902755 0.5606797 -0.009582118 -0.31548166
0.37445 -0.38375595 0.12627763 -0.52974796 -0.43055427 0.37794137 -0.49182197 -0.49684682
-0.47001487 -0.5434222 0.22646043 -0.42123428 0.61887807 -0.36170217 0.32888776 0.20975362
-0.048358843 -0.31449157 -0.33288777 0.33563855 0.5941513 0.059559774 -0.55590767 -0.08750904
00000000: 1a99 483d 4400 e53e bc04 a33e e02a 413e
00000010: 6291 0ebf 6fa7 473e 286a 2c3f 97df f93c
00000020: 7bc2 9e3e 66fb 81be fd30 ef3e 4416 9a3e
00000030: 8d0f febd 48bc f8be 7e3f 7dbe b271 313f
00000040: a718 063f ba9f 053f 46df 0d3f 0541 b9be
00000050: 070b 0d3f ddc2 773e 42e9 0c3f cb79 2bbf
00000060: e044 36be 97b3 ffbe eeeb efbc 642c 0d3f
00000070: 36ed bbbe 52c2 183e d8a4 8f3e 01a8 e7be
00000080: 37ee e4be 95a5 7b3e 7626 69be 5e3c e83e
00000090: cf2a 203f 022c 233f 66d6 f93e f9ee cabe
000000a0: 59fe e1be b542 22bf a544 12bf 1576 45bd
000000b0: 91ac babe 2139 01be b930 0cbf 56c1 373e
000000c0: 2574 023f a74d a03e b731 3dbe 0525 d43e
000000d0: 8583 0f3f 3573 8b3e 2c94 2bbf fa56 bbba
000000e0: 3a7b b6be 7628 e2be 6e99 6b3e de19 a43e
000000f0: d3d2 ff3e 4071 283f 67ea ca3e 85f5 f23e
00000100: b760 e4be 5375 bd3e b447 75be 7b79 39be
00000110: 53e1 ee3e e0d2 043f e93f b3be 9ff5 e33d
00000120: 5ef8 113f 2447 923e 8077 e8be 1c60 2e3f
00000130: 9f86 123e 91be b6be 12ef 1dbe 21de ca3e
00000140: 2904 eb3d 17dc 10bf a199 7cbd deb4 b2be
00000150: 1d32 333d 600b 483d 103d 263f 9773 14bf
00000160: 23a3 f2be a90f e33d 576d ed3e 3b9a 8fbe
00000170: 4610 6f3e 4f4b ef3e f6ce 95be 183e 0ebf
00000180: 1f28 81bc bd7a 643e 9fc0 e6be 15ea 1b3e
00000190: cb1b 02bf 7d80 f9be ec60 5fbe d880 03bf
000001a0: a70d 08bf 060c f3be 1be6 cf3e 5bb0 8fbe
000001b0: fef7 d9be 7e5c ddbe 6ca5 783e 62d8 533e
000001c0: f5f6 0b3f 9cc2 2abf ea65 933e 250e e0be
000001d0: 4c1c 17bf b488 0f3f 51fe 1cbc d086 a1be
000001e0: e9b7 bf3e a97b c4be ec4e 013e 909d 07bf
000001f0: 9c71 dcbe 8881 c13e 17d0 fbbe b562 febe
00000200: caa5 f0be b81d 0bbf 3ee5 673e 05ac d7be
00000210: cb6e 1e3f 0731 b9be fa63 a83e a7c9 563e
00000220: ec13 46bd 0a05 a1be 4470 aabe d1d8 ab3e
00000230: 4d1a 183f f3f4 733d f74f 0ebf f137 b3bd

qvel_encoder.weight f4 [144, 2]
0.036389526 0.17618169 0.3146795 -0.06501905 0.052854244 0.3986854 -0.4159362 0.57124037
0.4850666 -0.56307787 0.14290005 -0.28661746 0.024485044 -0.2153969 -0.43702796 0.42232892
0.0082043335 0.35660005 0.43352264 -0.07965371 0.44251087 -0.101032734 -0.12492643 0.4313118
0.23500744 0.4749239 -0.09449591 0.09986392 0.5661498 -0.07873875 -0.13622385 0.23837613
0.032906733 -0.41011375 -0.12813467 0.0064138207 -0.07174605 0.39288643 0.13520025 -0.33275715
-0.21910119 -0.2412675 0.20221141 0.24250197 0.12692 -0.35705626 0.47003806 -0.16866465
0.11901429 -0.44927755 0.038713124 0.54683334 -0.61931205 -0.61830086 0.014954434 0.43970418
0.1868116 0.048405915 0.015278514 -0.07840095 -0.4380371 -0.5801219 -0.021331638 -0.13365366
0.32738847 -0.5554624 0.07093764 -0.57989687 0.18028742 -0.4595968 0.14313847 -0.018062318
0.11376783 -0.638645 -0.015285659 0.1381524 0.39715368 -0.49565184 0.3312538 -0.62118196
-0.476339 0.25878787 -0.095267616 0.29743153 0.47817445 0.1521079 -0.46956748 0.5234643
0.3823444 0.58886284 0.5412206 -0.61380744 -0.048593383 0.10324007 -0.22151695 -0.34070513
-0.2604917 0.08396286 -0.348612 -0.20855178 -0.2485203 -0.5291815 0.5400389 -0.28437006
-0.2788583 -0.26696688 0.12371558 0.34394538 -0.29549196 0.33461505 0.53288156 -0.15544678
0.48185146 0.012419109 -0.33432123 -0.32692364 0.3416006 0.3658262 -0.40842018 0.45890662
-0.25256813 0.053240325 0.021765275 -0.23829976 0.4888723 0.18064022 0.3281914 0.009214097
0.10915437 0.3852314 -0.2339809 -0.011117414 0.26041847 -0.10076452 -0.15822843 -0.5231487
0.33285475 -0.26901552 0.06442523 -0.6255374 -0.57194996 0.4134016 -0.24536541 0.2681123
-0.1476399 0.0084474 -0.0018909515 -0.25723377 -0.032682054 -0.56318116 -0.0329212 -0.49044043
0.45283517 0.3670333 -0.12266331 -0.05242686 0.020241823 0.42307636 -0.36407787 0.29835573
-0.3233992 0.28551432 0.41322038 0.04002576 0.35065055 0.062105756 0.25558776 0.12317679
-0.34616494 0.027448151 0.42962512 -0.03177834 0.15268642 -0.43997014 -0.46993372 0.106366776
-0.50868225 0.0066640847 0.16129988 0.61844635 0.08798851 -0.6066829 0.40544623 0.012250295
0.05923111 -0.36517566 -0.43127775 -0.37626237 -0.53860587 -0.23141375 0.16438279 -0.1610411
0.2242351 -0.34041756 0.37675434 -0.6301059 -0.28462538 -0.29345235 -0.5021944 0.102110036
-0.5044664 -0.49053502 -0.09823861 0.12571803 0.3398782 -0.5392979 -0.027857503 0.3210216
0.29062763 -0.069986716 0.63441885 0.35740986 0.13630727 0.24726252 -0.43150133 -0.4310984
0.057949178 -0.17218232 0.13210616 -0.37125754 -0.27158755 0.18895012 0.15731885 0.2572541
0.59425086 0.55349815 0.3794047 -0.18259987 0.46090248 -0.29646635 0.4056643 -0.45620257
-0.493113 -0.14250708 0.26174232 0.3668849 -0.37048012 0.02672424 0.24261847 0.0641094
0.08098913 -0.011988339 0.2689974 -0.23288432 -0.39683992 0.5269017 0.071057506 0.10896353
-0.4825047 0.48054397 0.5299984 0.051917262 0.1344673 -0.49740785 -0.32833618 0.54612833
00000000: 2f0d 153d f968 343e ac1d a13e b528 85bd
00000010: b17d 583d 7e20 cc3e 97f5 d4be cf3c 123f
00000020: a65a f83e df25 10bf 6454 123e 86bf 92be
00000030: dc94 c83c 0191 5cbe 21c2 dfbe 7f3b d83e
00000040: 786b 063c 4894 b63e aef6 dd3e 7c21 a3bd
00000050: c990 e23e 40ea cebd 6ed9 ffbd e6d4 dc3e
00000060: caa5 703e 3a29 f33e 1287 c1bd 7485 cc3d
00000070: 31ef 103f c841 a1bd 447e 0bbe df18 743e
00000080: 36c9 063d 6efa d1be bc35 03be 072b d23b
00000090: 98ef 92bd 6928 c93e ef71 0a3e 255f aabe
000000a0: 105c 60be d40e 77be 8210 4f3e 7052 783e
000000b0: 51f7 013e 14d0 b6be d4a8 f03e 6db6 2cbe
000000c0: c4bd f33d b507 e6be a791 1e3d 45fd 0b3f
000000d0: 3c8b 1ebf f748 1ebf 7103 753c e820 e13e
000000e0: 8a4b 3f3e 4845 463d bb52 7a3c ad90 a0bd
000000f0: 6646 e0be de82 14bf b0bf aebc 81dc 08be
00000100: 769f a73e c932 0ebf c147 913d 1f74 14bf
00000110: 449d 383e 4650 ebbe e492 123e 6df7 93bc
00000120: 1cff e83d 3d7e 23bf b370 7abc d377 0d3e
00000130: ba57 cb3e 14c6 fdbe 199a a93e c805 1fbf
00000140: b5e2 f3be d87f 843e ab1b c3bd f248 983e
00000150: 48d3 f43e 2cc2 1b3e 266b f0be c201 063f
00000160: a5c2 c33e b7bf 163f 6f8d 0a3f 7c22 1dbf
00000170: db09 47bd 886f d33d 57d5 62be e770 aebe
00000180: 2b5f 85be b8f4 ab3d 467d b2be 998e 55be
00000190: 1b7c 7ebe 7078 07bf fd3f 0a3f f498 91be
000001a0: 84c6 8ebe e2af 88be 985e fd3d 9c19 b03e
000001b0: b94a 97be aa52 ab3e ed6a 083f 712d 1fbe
000001c0: 3cb5 f63e 8579 4b3c 272c abbe 8962 a7be
000001d0: 46e6 ae3e 924d bb3e 731c d1be cff5 ea3e
000001e0: 9c50 81be 8712 5a3d 174d b23c da04 74be
000001f0: 784d fa3e c0f9 383e b408 a83e b9f6 163c
00000200: 548c df3d 0d3d c53e b098 6fbe d025 36bc
00000210: 9255 853e a15d cebd a206 22be 13ed 05bf
00000220: f06b aa3e 67bc 89be 60f1 833d 3823 20bf
00000230: 506b 12bf 60a9 d33e 1241 7bbe 0446 893e
00000240: ea2e 17be f766 0a3c ced9 f7ba 25b4 83be
00000250: 9edd 05bd a42c 10bf 61d8 06bd 021b fbbe
00000260: 03da e73e caeb bb3e e736 fbbd 8cbd 56bd
00000270: 2ed2 a53c 779d d83e 6a68 babe 15c2 983e
00000280: 9494 a5be ef2e 923e 9f91 d33e 0df2 233d
00000290: 7888 b33e 9b62 7e3d 66dc 823e 1d44 fc3d
000002a0: 883c b1be f2da e03c d3f7 db3e 012a 02bd
000002b0: d459 1c3e c443 e1be 279b f0be d3d6 d93d
000002c0: 0039 02bf 655e da3b cc2b 253e 8052 1e3f
000002d0: 5233 b43d 924f 1bbf a696 cf3e 76b5 483c
000002e0: 529c 723d 4ef8 babe 70d0 dcbe 76a5 c0be
000002f0: 13e2 09bf baf7 6cbe f653 283e f5e7 24be
00000300: e39d 653e 364b aebe f2e5 c03e 9f4e 21bf
00000310: 6bba 91be 633f 96be d08f 00bf 111f d13d
00000320: b624 01bf 6827 fbbe 5331 c9bd 3abc 003e
00000330: 8404 ae3e 6d0f 0abf 6b35 e4bc f15c a43e
00000340: 25cd 943e 3255 8fbd 4669 223f 6dfe b63e
00000350: 2294 0b3e 6332 7d3e beed dcbe eeb8 dcbe
00000360: 1e5c 6d3d 9050 30be d646 073e 7815 bebe
00000370: 860d 8bbe 247c 413e 3118 213e cfb6 833e
00000380: d320 183f 0eb2 0d3f 5541 c23e 76fb 3abe
00000390: 69fb eb3e 70ca 97be 3bb3 cf3e 6293 e9be
000003a0: 4f79 fcbe 60ed 11be 1703 863e 56d8 bb3e
000003b0: 92af bdbe cbec da3c fa70 783e ca4b 833d
000003c0: a1dd a53d bd6a 44bc 07ba 893e 3a79 6ebe
000003d0: 9a2e cbbe 08e3 063f 9986 913d 4528 df3d
000003e0: db0a f7be dc09 f63e faad 073f 32a7 543d
000003f0: ccb1 093e 3eac febe ae1b a8be 11cf 0b3f

qvel_encoder.bias f4 [144]
-0.39211303 -0.5699333 0.67575914 0.5418452 0.4774997 0.45880753 -0.029885076 -0.39231074
0.29498714 -0.14813824 0.37953657 -0.2842158 0.20991372 0.26493698 0.42761597 -0.114239804
0.4004965 -0.5844257 -0.6443071 -0.28652662 -0.023834711 -0.12380333 -0.6158898 -0.40947893
0.1267315 0.034726832 0.46589005 -0.23348445 -0.060278315 0.47325066 0.15815715 -0.29911706
-0.52106357 0.37310752 0.6088465 0.5109063 0.15622893 0.053434733 0.44304523 -0.52474
0.65240294 0.4631589 -0.30601564 -0.026364684 0.2516675 -0.6563867 0.05767249 -0.647599
-0.36644027 -0.08812482 0.23231435 0.05246608 0.52767044 -0.001845598 0.022939218 0.6642518
0.18920997 -0.16249745 -0.04709425 -0.0043429043 0.13266012 -0.28941682 0.22303176 0.26936346
-0.5648196 0.39170086 -0.1674253 0.24672037 -0.17165679 -0.12344751 -0.52995104 -0.34882858
-0.0758184 0.010431908 -0.32350475 -0.34451246 -0.5612503 -0.09254517 -0.5282167 -0.040366516
0.16222133 0.36914256 0.005165826 0.2647269 0.5464478 0.006785571 -0.6340897 0.36416668
0.05864369 -0.1921906 -0.14153759 -0.41340593 -0.096228376 0.527985 0.6730642 0.59160984
-0.11413468 -0.1737262 0.5217083 0.555873 -0.2279471 -0.49632242 0.41565225 0.45710415
-0.41325504 0.035915405 -0.55161434 -0.15917046 -0.42027482 -0.66349405 -0.24542378 0.28852183
0.6073765 -0.02383423 -0.45290378 -0.4264647 -0.45605382 0.4330519 0.41426656 0.19685316
-0.07894333 -0.15515265 0.2915782 -0.56111413 -0.21194744 0.3338062 0.6823818 0.06888013
-0.22474855 -0.31426162 -0.54923654 0.12695491 -0.65007 -0.64808965 0.17530535 0.046557643
0.0747115 0.18504412 0.4909428 -0.061569948 0.35627148 -0.2304642 -0.30798906 0.39647648
00000000: 0ac3 c8be 26e7 11bf 8dfe 2c3f 5eb6 0a3f
00000010: d77a f43e d2e8 ea3e 8cd1 f4bc f4dc c8be
00000020: 8e08 973e 8db1 17be 9e52 c23e bc84 91be
00000030: 9ff3 563e d2a5 873e 7bf0 da3e 8ff6 e9bd
00000040: e10d cd3e ec9c 15bf 4ff1 24bf 9eb3 92be
00000050: 0341 c3bc 9a8c fdbd f4aa 1dbf 39a7 d1be
00000060: e7c5 013e b93d 0e3d 2489 ee3e 8c16 6fbe
00000070: 65e6 76bd e94d f23e f3f3 213e df25 99be
00000080: 6c64 05bf f307 bf3e 5ddd 1b3f c1ca 023f
00000090: 7afa 1f3e 61de 5a3d d3d6 e23e 5c55 06bf
000000a0: e103 273f 2a23 ed3e 15ae 9cbe c0fa d7bc
000000b0: 90da 803e f508 28bf fd39 6c3d 0cc9 25bf
000000c0: 0f9e bbbe c97a b4bd d0e3 6d3e ace6 563d
000000d0: 6915 073f fee7 f1ba 07eb bb3c 680c 2a3f
000000e0: 42c0 413e bb65 26be e6e5 40bd ec4e 8ebb
000000f0: 0ed8 073e 712e 94be 7062 643e 02ea 893e
00000100: 0498 10bf 048d c83e 8a71 2bbe 44a4 7c3e
00000110: ccc6 2fbe 0cd2 fcbd dfaa 07bf a999 b2be
00000120: ad46 9bbd 98ea 2a3c 6aa2 a5be f063 b0be
00000130: 1aae 0fbf 5288 bdbd 3639 07bf 5c57 25bd
00000140: 591d 263e 4100 bd3e 1746 a93b 498a 873e
00000150: 01e4 0b3f 7f59 de3b b453 22bf 0e74 ba3e
00000160: 5e34 703d 9dcd 44be 3bef 10be f1a9 d3be
00000170: 6213 c5bd 062a 073f ef4d 2c3f be73 173f
00000180: 71bf e9bd 48e5 31be ad8e 053f b14d 0e3f
00000190: f76a 69be f91d febe 5fd0 d43e 8e09 ea3e
000001a0: 2a96 d3be 081c 133d 9936 0dbf 95fd 22be
000001b0: 432e d7be bfda 29bf 5f50 7bbe 22b9 933e
000001c0: 077d 1b3f 0140 c3bc 01e3 e7be 9559 dabe
000001d0: e37f e9be fbb8 dd3e bf1a d43e e093 493e
000001e0: 0aad a1bd 56e0 1ebe bd49 953e 2da5 0fbf
000001f0: c008 59be a5e8 aa3e 93b0 2e3f 0711 8d3d
00000200: 7c24 66be e6e6 a0be c49a 0cbf 7800 023e
00000210: fd6a 26bf 34e9 25bf 3f83 333e 3ab3 3e3d
00000220: 5802 993d 357c 3d3e db5c fb3e c530 7cbd
00000230: 3769 b63e cffe 6bbe beb0 9dbe f7fe ca3e

action_encoder.weight f4 [144, 1]
0.97974515 -0.7765156 0.35874546 -0.98229456 0.40928686 0.38147163 -0.28340912 -0.24692214
-0.39599693 0.46107948 -0.9148849 0.12077153 -0.78727734 0.89542794 -0.15099931 -0.35322058
-0.92675173 -0.17364848 -0.0006210804 0.4304006 -0.81469584 0.11392963 0.42962587 -0.21858156
0.25087965 -0.7824997 -0.9699007 -0.010599017 -0.1024946 -0.20624733 0.6432347 -0.82548237
-0.8693644 -0.5017295 0.72614014 0.031321526 -0.18963146 0.76537454 0.06863499 -0.79411435
-0.42801607 0.44482028 -0.6168872 -0.30818534 0.02555561 -0.77580357 -0.53363967 -0.080070615
-0.8765086 0.1379751 -0.5799842 -0.8927593 -0.34454834 0.42652762 -0.5294225 0.9382142
0.44007325 -0.65837574 -0.73276365 0.24790823 0.52262866 0.79554844 0.5180794 0.9244387
0.49874997 -0.5147866 -0.95141256 -0.8943994 0.7813264 0.52861273 -0.34388793 0.655174
0.1032244 -0.13899338 -0.7176597 0.34920907 0.49716055 0.1911143 0.10333645 0.3713224
-0.95378006 0.056882262 0.09399581 -0.48300648 -0.48268294 -0.9609138 -0.23170006 0.76454926
0.5309442 -0.5498582 -0.34226167 0.7171384 -0.11642063 0.28133154 -0.3700161 -0.6014328
-0.8774431 0.31853867 -0.7751739 0.75679886 -0.14988732 -0.43501186 0.44899416 -0.73930335
-0.32304204 0.42062163 -0.695719 0.5565314 0.33637464 -0.03606224 -0.40870047 -0.9043591
0.87907386 0.25745642 0.85921156 -0.01931715 0.910537 -0.8354355 -0.8354249 -0.5038849
-0.81000495 -0.9374999 0.87144315 -0.9804599 0.37313545 0.2078408 -0.9019979 -0.32834184
-0.21470487 0.7387639 0.9368005 -0.47858298 -0.36620367 -0.88767385 0.14102352 0.7870854
0.6364907 -0.52035046 0.4542582 0.67094254 -0.8369163 -0.49882817 -0.61338496 -0.7736119
00000000: 94d0 7a3f bac9 46bf 7cad b73e a877 7bbf
00000010: 0c8e d13e 4050 c33e 001b 91be 28d9 7cbe
00000020: 1cc0 cabe 9c12 ec3e e635 6abf 1057 f73d
00000030: 028b 49bf c43a 653f 909f 1abe 54d9 b4be
00000040: 9a3f 6dbf e8d0 31be 00d0 22ba 785d dc3e
00000050: e88f 50bf f053 e93d ecf7 db3e d8d3 5fbe
00000060: 4c73 803e e651 48bf 6a4b 78bf 80a7 2dbc
00000070: b0e8 d1bd 8032 53be 08ab 243f d052 53bf
00000080: aa8e 5ebf 5871 00bf 52e4 393f 004b 003d
00000090: c02e 42be 96ef 433f 8090 8c3d 144b 4bbf
000000a0: ec24 dbbe 7cbf e33e 52ec 1dbf 78ca 9dbe
000000b0: 005a d13c 109b 46bf 9c9c 08bf 10fc a3bd
000000c0: de62 60bf 5849 0d3e d879 14bf e08b 64bf
000000d0: a468 b0be d461 da3e 3c88 07bf ce2e 703f
000000e0: 4851 e13e 508b 28bf 6696 3bbf a8db 7d3e
000000f0: feca 053f 10a9 4b3f daa0 043f 04a8 6c3f
00000100: 285c ff3e 0ec9 03bf c68f 73bf 5cf7 64bf
00000110: 0205 483f 2a53 073f 1412 b0be 7cb9 273f
00000120: 5067 d33d 4854 0ebe 8cb8 37bf 88cb b23e
00000130: d48b fe3e 78b3 433e 10a2 d33d f81d be3e
00000140: ee2a 74bf 60fd 683d e080 c03d a04c f7be
00000150: 3822 f7be 72fe 75bf c842 6dbe 80b9 433f
00000160: f6eb 073f 82c3 0cbf ec3c afbe 6296 373f
00000170: f06d eebd b00a 903e c072 bdbe 80f7 19bf
00000180: 1ca0 60bf 8017 a33e cc71 46bf 92bd 413f
00000190: 107c 19be e0b9 debe 90e2 e53e fc42 3dbf
000001a0: c465 a5be b85b d73e a41a 32bf d878 0e3f
000001b0: 4c39 ac3e 00b6 13bd 3041 d1be 1484 67bf
000001c0: fc0a 613f 54d1 833e 4af5 5b3f 003f 9ebc
000001d0: f418 693f 1adf 55bf 68de 55bf 9afe 00bf
000001e0: 7c5c 4fbf feff 6fbf e616 5f3f 6cff 7abf
000001f0: 9c0b bf3e 38d4 543e 56e9 66bf 6c1c a8be
00000200: 98db 5bbe a21f 3d3f 28d2 6f3f d408 f5be
00000210: 0c7f bbbe 983e 63bf 7868 103e 6e7e 493f
00000220: 0ef1 223f b035 05bf 8894 e83e e4c2 2b3f
00000230: 2640 56bf 6866 ffbe cc06 1dbf 6e0b 46bf

action_encoder.bias f4 [144]
0.29932308 0.29715216 -0.37513757 -0.16968477 -0.031182528 0.48801255 0.51125014 0.004770756
-0.6272627 0.5182371 -0.688045 -0.30646288 -0.6353003 0.7242011 -0.3577584 0.012560964
-0.90024793 -0.90525293 0.75647306 -0.83697903 -0.34290123 -0.9472971 -0.17621088 0.9046937
-0.7685051 0.9951651 0.42954636 0.24638486 -0.021534085 -0.52249 0.36666095 0.12947714
-0.7567102 0.35961354 0.73680794 -0.36363375 0.25926888 0.3674568 0.091816306 0.55660117
0.8392081 -0.06835556 -0.65635395 0.6992521 -0.13675213 -0.7547941 0.29154837 -0.6478218
0.18703747 -0.45768583 0.8769294 0.8184968 0.75481415 -0.5052297 0.24566853 0.18776524
-0.28704083 -0.4281485 -0.101237535 0.27277005 -0.13188016 -0.8433317 -0.276456 0.54021037
0.5079299 0.5501405 -0.15793896 -0.5704156 0.6306238 -0.23232043 0.6830834 -0.08507395
-0.9182786 0.6170174 0.8335353 0.6508925 0.3471259 -0.49255002 -0.1864394 -0.11341846
-0.80938935 0.8441553 0.42753947 -0.5718702 -0.18165612 -0.074205756 -0.43317366 -0.5215566
-0.9227545 -0.55838597 0.42735612 -0.39618158 -0.9162978 0.52267516 0.9745314 0.08336556
-0.46775186 0.34379172 -0.16090548 0.2668891 -0.4135877 0.8980701 0.91879904 0.24450266
-0.5491979 0.9795563 0.9515536 -0.9863008 -0.11920166 -0.8327799 -0.81700766 0.31403947
-0.8338649 0.32589328 -0.22656941 -0.79652584 -0.728776 -0.92685616 -0.037970662 -0.5154946
-0.84588957 -0.029328942 0.85389507 0.29566085 0.18154085 -0.114228964 0.4912492 -0.62625587
-0.11327124 0.19925475 -0.9853982 -0.48704028 0.0964638 -0.55346954 -0.9889028 0.21318257
0.7604587 -0.85373974 -0.10964739 -0.9308392 -0.103239655 -0.14013445 -0.23806989 -0.07853699
00000000: e040 993e 5424 983e 0812 c0be d8c1 2dbe
00000010: 8072 ffbc c8dc f93e 4ae1 023f 0054 9c3b
00000020: 4a94 20bf 30ab 043f b823 30bf b4e8 9cbe
00000030: 0aa3 22bf 3e65 393f 1c2c b7be 80cc 4d3c
00000040: a676 66bf a8be 67bf 38a8 413f 4244 56bf
00000050: c090 afbe 1082 72bf a070 34be 029a 673f
00000060: c0bc 44bf 24c3 7e3f 80ed db3e 504c 7c3e
00000070: 4068 b0bc e8c1 05bf fcba bb3e a895 043e
00000080: c2b7 41bf 441f b83e 729f 3c3f 342e babe
00000090: e4be 843e 4c23 bc3e 300a bc3d 6a7d 0e3f
000000a0: 58d6 563f 00fe 8bbd d006 28bf 3002 333f
000000b0: c008 0cbe 303a 41bf d445 953e a6d7 25bf
000000c0: c086 3f3e cc55 eabe 727e 603f 0289 513f
000000d0: 803b 413f bc56 01bf 8890 7b3e 8845 403e
000000e0: 04f7 92be 4836 dbbe a055 cfbd 84a8 8b3e
000000f0: 980b 07be 96e4 57bf a48b 8dbe 3a4b 0a3f
00000100: b207 023f 02d6 0c3f c0ba 21be c206 12bf
00000110: 9070 213f 68e5 6dbe 8ede 2e3f 403b aebd
00000120: 4e14 6bbf daf4 1d3f 9262 553f e4a0 263f
00000130: 7cba b13e 842f fcbe f8e9 3ebe f047 e8bd
00000140: 2434 4fbf 901a 583f 74e6 da3e 1666 12bf
00000150: 1004 3abe 30f9 97bd f0c8 ddbe bc84 05bf
00000160: a439 6cbf 62f2 0ebf 6cce da3e 50d8 cabe
00000170: 7e92 6abf 0ace 053f e47a 793f 90bb aa3d
00000180: 2c7d efbe 7805 b03e 68c4 24be b0a5 883e
00000190: c4c1 d3be ece7 653f 6a36 6b3f e85e 7a3e
000001a0: 3c98 0cbf 34c4 7a3f 0499 733f 367e 7cbf
000001b0: 0020 f4bd 1031 55bf 6a27 51bf c8c9 a03e
000001c0: 2c78 55bf 7cdb a63e d001 68be 1ee9 4bbf
000001d0: 1091 3abf 7246 6dbf 2087 1bbd 74f7 03bf
000001e0: 388c 58bf 4043 f0bc de98 5a3f dc60 973e
000001f0: d8e5 393e e0f0 e9bd 0485 fb3e 4e52 20bf
00000200: c0fa e7bd 7009 4c3e 0e43 7cbf 585d f9be
00000210: d08e c53d 2eb0 0dbf bc28 7dbf 884c 5a3e
00000220: 6cad 423f b08e 5abf d08e e0bd 7a4b 6ebf
00000230: 506f d3bd 687f 0fbe 98c8 73be 00d8 a0bd

attn_qpos_to_qvel.in_proj_weight f4 [432, 144]
-2.2105418e-21 -4.9147e-40 -1.24184166e-29 -4.90648e-40 2.889181e-34 6.512638e-38 5.3756766e-13 -5.02878e-40
1.11245885e-13 2.7210758e-12 3.6341857e-14 -2.3095303e-13 -4.93295e-40 4.90993e-40 2.1586054e-14 4.93478e-40
-4.94307e-40 -4.94259e-40 4.93117e-40 5.8962515e-35 -1.120164e-17 -4.92053e-40 4.92907e-40 -4.94406e-40
4.4968503e-16 1.3692501e-21 -9.164086e-14 8.299639e-39 9.5034086e-26 -1.8408419e-15 4.91512e-40 4.9932e-40
4.3863386e-18 1.8306852e-16 -5.1109135e-14 -9.575748e-19 -4.94901e-40 4.96306e-40 -7.795325e-20 -2.182054e-17
6.3789454e-24 4.93024e-40 4.91033e-40 -2.4921353e-22 -5.1799815e-33 1.5905348e-14 -4.98452e-40 1.2535153e-22
1.7058887e-30 -6.4441155e-16 1.5533697e-15 -4.93498e-40 -3.7291683e-20 4.93614e-40 4.944e-40 -4.90949e-40
-1.777149e-20 4.90548e-40 -3.141347e-14 -2.9429584e-19 4.91493e-40 4.3429716e-20 -4.92433e-40 1.99951e-32
-4.94782e-40 4.94856e-40 4.279329e-28 -5.0081e-40 9.45376e-26 -3.8478995e-18 7.904122e-25 4.8278303e-20
-4.93663e-40 -8.979257e-21 4.92825e-40 6.602911e-13 -2.8077338e-15 -1.5666289e-31 -5.5946874e-18 2.371613e-30
-4.93394e-40 -1.9734887e-15 -9.0490733e-13 1.5157849e-20 -5.65987e-40 4.90782e-40 -1.673271e-15 -1.9049905e-12
-5.48241e-25 4.3574837e-26 -4.92276e-40 -4.927e-40 5.0426567e-35 4.92223e-40 4.93705e-40 3.3054735e-21
4.9218e-40 4.92017e-40 -4.1423215e-15 4.1110277e-18 4.9283e-40 -9.7940013e-20 -2.1548463e-15 4.4366726e-25
4.91626e-40 -7.3203135e-13 3.717926e-21 2.9970442e-21 -1.2065727e-17 -8.802957e-14 3.6044216e-22 1.5819453e-22
4.9328e-40 3.7212045e-26 -2.0728764e-26 4.93333e-40 -4.95592e-40 2.530829e-19 -1.618437e-20 4.95617e-40
-4.91081e-40 -4.9321e-40 -4.92788e-40 -4.93338e-40 -1.6923672e-16 -4.93605e-40 4.94955e-40 2.6610685e-13
4.91545e-40 3.5981296e-13 2.6848936e-21 -4.95659e-40 2.651982e-27 4.3812466e-15 -4.93141e-40 -4.9223e-40
4.96669e-40 -6.873781e-25 4.91084e-40 4.9756e-40 -4.92933e-40 -1.1888669e-16 -3.2318808e-34 1.3973482e-28
4.94975e-40 7.031492e-17 4.91277e-40 4.93414e-40 4.93574e-40 -4.90959e-40 1.0233282e-12 4.95632e-40
2.62183e-40 -4.676646e-22 4.9449e-40 4.00594e-30 4.90516e-40 5.02825e-40 4.96329e-40 -4.90475e-40
-4.94717e-40 -5.01354e-40 1.52913e-39 4.92883e-40 -2.0392732e-35 1.4625375e-17 3.0952977e-23 4.95852e-40
-4.91466e-40 1.7129093e-26 4.0783848e-16 4.91493e-40 -4.9747e-40 4.9366e-40 4.9084e-40 -1.0131315e-20
1.0616346e-35 -8.267318e-28 -4.94522e-40 4.93948e-40 5.00816e-40 4.93123e-40 4.9373e-40 -5.7071864e-18
-5.54795e-40 5.4146647e-24 -7.9949784e-13 1.5041014e-37 5.01544e-40 -4.90918e-40 4.9428e-40 1.1598741e-16
-4.157839e-13 4.94769e-40 2.8825226e-15 9.155837e-24 -7.563073e-27 -1.15444e-18 4.93687e-40 -4.9206e-40
1.0016623e-13 -4.92929e-40 -1.7698193e-29 -6.1259966e-21 4.91966e-40 4.92481e-40 -4.6521235e-14 4.91571e-40
4.92251e-40 3.7814596e-15 -4.97003e-40 4.93875e-40 4.965e-40 4.92524e-40 -2.5426054e-14 -3.5919226e-18
-1.7841968e-19 -5.7809856e-21 6.1405323e-24 -4.93457e-40 2.049808e-24 -4.9792e-40 4.93368e-40 4.97545e-40
-3.8467112e-22 -4.90836e-40 4.95073e-40 -4.15112e-40 -4.93592e-40 4.91409e-40 -3.371086e-22 -4.937e-40
-4.93435e-40 3.616836e-26 4.92764e-40 3.6186425e-16 4.9295e-40 -6.2261016e-19 2.1889422e-12 3.2512e-22
4.95935e-40 -1.9946492e-16 4.94054e-40 -8.225001e-13 -1.05026156e-13 -4.90595e-40 -4.297235e-14 7.932019e-18
3.1001964e-19 4.95585e-40 -9.3754485e-35 1.52554e-17 4.90952e-40 1.0899404e-17 -4.91468e-40 -1.3180585e-35
00000000: 1906 279d 055a 0580 1be0 7b8f ba57 0580
00000010: de04 c007 764a b101 d54f 172b d279 0580
00000020: e380 fa29 8b7a 3f2c 4fab 2329 d703 82aa
00000030: 1b5f 0580 b058 0500 0d6e c228 9e5f 0500
00000040: ed61 0580 cb61 0580 9c5e 0500 cfbf 9c06
00000050: 40a2 4ea3 a55b 0580 065e 0500 3462 0580
00000060: e69c 0126 4cea ce1c 5c5b cea9 0460 5a00
00000070: 024b eb15 8aa5 04a7 235a 0500 e76f 0500
00000080: ccd3 a122 4a10 5325 d22c 66a9 2750 8da1
00000090: 9563 0580 8067 0500 d90f b89f 4b42 c9a3
000000a0: 04c6 f618 5a5e 0500 cd58 0500 eda3 969b
000000b0: 032b d789 3c43 8f28 7b6d 0580 6b8a 171b
000000c0: ec65 0a0e 2ebd 39a6 3add df26 ac5f 0580
000000d0: e11a 309f ff5f 0500 3062 0500 9158 0580
000000e0: d4d8 a79e 7357 0500 4479 0da9 bbb8 ada0
000000f0: 155a 0500 4e17 4d1f b45c 0580 18a4 cf0a
00000100: 4063 0580 7563 0500 0b9e 0712 0e74 0580
00000110: 5310 ea15 62f6 8da2 e89e 7417 e3fc 631f
00000120: 2260 0580 069d 299e cc5d 0500 fdda 392b
00000130: 8c51 4aa7 2d5c 4b8c 5468 cea2 7a68 400e
00000140: 625f 0580 7134 0ea7 72b5 7eab 6e29 8f1e
00000150: be29 0680 1a58 0500 ce24 f1a6 420d 06ac
00000160: 21ac 2997 abc5 5715 445c 0580 725d 0580
00000170: 8b0e 8606 1e5c 0500 4060 0500 28c1 791d
00000180: ff5b 0500 8b5b 0500 2c3e 95a7 8fab 9722
00000190: cf5d 0500 1b41 e79f e645 1ba7 f14e 0917
000001a0: 745a 0500 6b0c 4eab 9375 8c1d 4473 621d
000001b0: c992 5ea3 9839 c6a9 b9df d91b d63e 3f1b
000001c0: 105f 0500 df43 3815 a949 cd94 365f 0500
000001d0: 8265 0580 ce64 9520 68db 989e 9465 0500
000001e0: ef58 0580 de5e 0580 b15d 0580 3a5f 0580
000001f0: dd1d 43a5 f85f 0580 bc63 0500 0ace 952a
00000200: 3a5a 0500 838e ca2a 65dd 4a1d b265 0580
00000210: 961c 5213 ded9 9d27 ad5e 0580 235c 0580
00000220: 8368 0500 b4bb 5497 f158 0500 ff6a 0500
00000230: 195e 0580 2811 09a5 9acb d687 8b22 3111
00000240: ca63 0500 9a22 a224 7b59 0500 705f 0500
00000250: e25f 0500 9858 0580 4905 902b 9f65 0500
00000260: dcda 0200 cc57 0d9c 7062 0500 0f80 a20e
00000270: 5c57 0500 ac79 0500 9067 0500 3f57 0580
00000280: 1263 0580 9275 0580 98a6 1000 f55d 0500
00000290: 4cda d885 31e5 8623 eead 151a 3c66 0500
000002a0: 025a 0580 69a3 a914 561a eb25 155a 0500
000002b0: be6a 0580 2060 0500 4358 0500 0860 3f9e
000002c0: e3c8 6105 3a00 8392 8762 0580 ed60 0500
000002d0: 1274 0500 a05e 0500 5260 0500 da8e d2a2
000002e0: 8b0a 0680 3e78 d118 e409 61ab 49ba 4c02
000002f0: 1a76 0500 7b58 0580 da61 0500 71b9 0525
00000300: c610 eaaa 3763 0500 28b5 4f27 8219 3119
00000310: 56cd 1594 835d aaa1 3360 0500 aa5b 0580
00000320: e68d e129 165e 0580 237b b38f 016f e79d
00000330: 675b 0500 d65c 0500 5583 51a9 4d5a 0500
00000340: 325c 0500 cf3d 8827 7169 0580 b960 0500
00000350: 0a68 0500 f55c 0500 7d04 e5a8 c084 84a2
00000360: 0aa4 52a0 4366 da9d e38c ed18 8f5f 0580
00000370: a198 1e18 006c 0580 4f5f 0500 f46a 0500
00000380: f984 e89b 4058 0580 1064 0500 2a85 0480
00000390: ef5f 0580 d959 0500 07c5 cb9b 3c60 0580
000003a0: 7f5f 0580 d818 3315 a05d 0500 bd99 d025
000003b0: 255e 0500 18c3 37a1 7a08 1a2c e285 c41b
000003c0: 7766 0500 a7f7 65a5 3961 0500 6183 67ab
000003d0: 757f eca9 9457 0580 bf87 41a9 e751 1223
000003e0: d800 b720 7d65 0500 ff3d f986 cbb4 8c23
000003f0: 9358 0500 fb0e 4923 035a 0580 f728 8c85

attn_qpos_to_qvel.in_proj_bias f4 [432]
0.0 0.0 0.0 0.0 0.0 0.0 0.0 0.0
0.0 0.0 0.0 0.0 0.0 0.0 0.0 0.0
0.0 0.0 0.0 0.0 0.0 0.0 0.0 0.0
0.0 0.0 0.0 0.0 0.0 0.0 0.0 0.0
0.0 0.0 0.0 0.0 0.0 0.0 0.0 0.0
0.0 0.0 0.0 0.0 0.0 0.0 0.0 0.0
0.0 0.0 0.0 0.0 0.0 0.0 0.0 0.0
0.0 0.0 0.0 0.0 0.0 0.0 0.0 0.0
0.0 0.0 0.0 0.0 0.0 0.0 0.0 0.0
0.0 0.0 0.0 0.0 0.0 0.0 0.0 0.0
0.0 0.0 0.0 0.0 0.0 0.0 0.0 0.0
0.0 0.0 0.0 0.0 0.0 0.0 0.0 0.0
0.0 0.0 0.0 0.0 0.0 0.0 0.0 0.0
0.0 0.0 0.0 0.0 0.0 0.0 0.0 0.0
0.0 0.0 0.0 0.0 0.0 0.0 0.0 0.0
0.0 0.0 0.0 0.0 0.0 0.0 0.0 0.0
0.0 0.0 0.0 0.0 0.0 0.0 0.0 0.0
0.0 0.0 0.0 0.0 0.0 0.0 0.0 0.0
0.0 0.0 0.0 0.0 0.0 0.0 0.0 0.0
0.0 0.0 0.0 0.0 0.0 0.0 0.0 0.0
0.0 0.0 0.0 0.0 0.0 0.0 0.0 0.0
0.0 0.0 0.0 0.0 0.0 0.0 0.0 0.0
0.0 0.0 0.0 0.0 0.0 0.0 0.0 0.0
0.0 0.0 0.0 0.0 0.0 0.0 0.0 0.0
0.0 0.0 0.0 0.0 0.0 0.0 0.0 0.0
0.0 0.0 0.0 0.0 0.0 0.0 0.0 0.0
0.0 0.0 0.0 0.0 0.0 0.0 0.0 0.0
0.0 0.0 0.0 0.0 0.0 0.0 0.0 0.0
0.0 0.0 0.0 0.0 0.0 0.0 0.0 0.0
0.0 0.0 0.0 0.0 0.0 0.0 0.0 0.0
0.0 0.0 0.0 0.0 0.0 0.0 0.0 0.0
0.0 0.0 0.0 0.0 0.0 0.0 0.0 0.0
00000000: 0000 0000 0000 0000 0000 0000 0000 0000
00000010: 0000 0000 0000 0000 0000 0000 0000 0000
00000020: 0000 0000 0000 0000 0000 0000 0000 0000
00000030: 0000 0000 0000 0000 0000 0000 0000 0000
00000040: 0000 0000 0000 0000 0000 0000 0000 0000
00000050: 0000 0000 0000 0000 0000 0000 0000 0000
00000060: 0000 0000 0000 0000 0000 0000 0000 0000
00000070: 0000 0000 0000 0000 0000 0000 0000 0000
00000080: 0000 0000 0000 0000 0000 0000 0000 0000
00000090: 0000 0000 0000 0000 0000 0000 0000 0000
000000a0: 0000 0000 0000 0000 0000 0000 0000 0000
000000b0: 0000 0000 0000 0000 0000 0000 0000 0000
000000c0: 0000 0000 0000 0000 0000 0000 0000 0000
000000d0: 0000 0000 0000 0000 0000 0000 0000 0000
000000e0: 0000 0000 0000 0000 0000 0000 0000 0000
000000f0: 0000 0000 0000 0000 0000 0000 0000 0000
00000100: 0000 0000 0000 0000 0000 0000 0000 0000
00000110: 0000 0000 0000 0000 0000 0000 0000 0000
00000120: 0000 0000 0000 0000 0000 0000 0000 0000
00000130: 0000 0000 0000 0000 0000 0000 0000 0000
00000140: 0000 0000 0000 0000 0000 0000 0000 0000
00000150: 0000 0000 0000 0000 0000 0000 0000 0000
00000160: 0000 0000 0000 0000 0000 0000 0000 0000
00000170: 0000 0000 0000 0000 0000 0000 0000 0000
00000180: 0000 0000 0000 0000 0000 0000 0000 0000
00000190: 0000 0000 0000 0000 0000 0000 0000 0000
000001a0: 0000 0000 0000 0000 0000 0000 0000 0000
000001b0: 0000 0000 0000 0000 0000 0000 0000 0000
000001c0: 0000 0000 0000 0000 0000 0000 0000 0000
000001d0: 0000 0000 0000 0000 0000 0000 0000 0000
000001e0: 0000 0000 0000 0000 0000 0000 0000 0000
000001f0: 0000 0000 0000 0000 0000 0000 0000 0000
00000200: 0000 0000 0000 0000 0000 0000 0000 0000
00000210: 0000 0000 0000 0000 0000 0000 0000 0000
00000220: 0000 0000 0000 0000 0000 0000 0000 0000
00000230: 0000 0000 0000 0000 0000 0000 0000 0000
00000240: 0000 0000 0000 0000 0000 0000 0000 0000
00000250: 0000 0000 0000 0000 0000 0000 0000 0000
00000260: 0000 0000 0000 0000 0000 0000 0000 0000
00000270: 0000 0000 0000 0000 0000 0000 0000 0000
00000280: 0000 0000 0000 0000 0000 0000 0000 0000
00000290: 0000 0000 0000 0000 0000 0000 0000 0000
000002a0: 0000 0000 0000 0000 0000 0000 0000 0000
000002b0: 0000 0000 0000 0000 0000 0000 0000 0000
000002c0: 0000 0000 0000 0000 0000 0000 0000 0000
000002d0: 0000 0000 0000 0000 0000 0000 0000 0000
000002e0: 0000 0000 0000 0000 0000 0000 0000 0000
000002f0: 0000 0000 0000 0000 0000 0000 0000 0000
00000300: 0000 0000 0000 0000 0000 0000 0000 0000
00000310: 0000 0000 0000 0000 0000 0000 0000 0000
00000320: 0000 0000 0000 0000 0000 0000 0000 0000
00000330: 0000 0000 0000 0000 0000 0000 0000 0000
00000340: 0000 0000 0000 0000 0000 0000 0000 0000
00000350: 0000 0000 0000 0000 0000 0000 0000 0000
00000360: 0000 0000 0000 0000 0000 0000 0000 0000
00000370: 0000 0000 0000 0000 0000 0000 0000 0000
00000380: 0000 0000 0000 0000 0000 0000 0000 0000
00000390: 0000 0000 0000 0000 0000 0000 0000 0000
000003a0: 0000 0000 0000 0000 0000 0000 0000 0000
000003b0: 0000 0000 0000 0000 0000 0000 0000 0000
000003c0: 0000 0000 0000 0000 0000 0000 0000 0000
000003d0: 0000 0000 0000 0000 0000 0000 0000 0000
000003e0: 0000 0000 0000 0000 0000 0000 0000 0000
000003f0: 0000 0000 0000 0000 0000 0000 0000 0000

attn_qpos_to_qvel.out_proj.weight f4 [144, 144]
0.040461253 -0.043996755 0.06471919 0.00020708179 0.015660048 0.042154383 0.055167135 0.0571881
0.01880533 -0.052124053 -0.014755487 0.055073425 -0.04853073 -0.03177722 -0.009753888 -0.00921747
0.035674807 -0.023330292 0.048258077 -0.039187197 0.049217388 -0.073244154 -0.032107927 -0.030299705
0.07431802 0.071699485 -0.04084774 0.06464582 -0.072979935 0.03340444 0.061015237 0.053356424
0.073410496 0.026525445 -0.046991397 -0.061087668 0.022016104 0.032443162 0.06346943 -0.054138273
0.036399603 -0.0647139 0.017525293 0.017051972 0.0015588689 -0.049008593 0.02002293 0.027726796
-0.020211179 -0.011954007 -0.036689304 0.041634362 -0.033018682 -0.002038825 0.020984061 -0.02729356
-0.06102829 0.0032168904 0.071903266 0.008131549 -0.023083286 0.015355105 0.042379554 0.07109207
-0.06653188 0.0113946395 -0.036847237 -0.049419247 -0.0057194917 -0.023384186 0.01356547 -0.029887918
-0.0012724879 0.05093095 0.05334294 0.035497304 -0.062105354 -0.05495839 0.035416752 0.03157629
0.054167006 0.07549682 0.0040073767 0.057665195 0.015952975 -0.05874614 -0.077708416 0.047432344
-0.041730613 0.05879627 0.06812962 -0.019000739 -0.06806863 -0.0404283 0.055449404 0.048823092
-0.042027835 0.07856927 -0.04739885 -0.050139077 -0.07293786 0.0556752 -0.040714994 0.027454227
-0.014970758 0.06271709 -0.046380837 -0.07095305 -0.0361701 0.02965221 -0.061772503 -0.047490403
0.07798282 0.0695434 0.039649438 0.048475992 -0.02352757 -0.025669254 0.041312855 0.009203518
-0.0042692022 -0.06942786 -0.061014716 0.03700083 0.058219694 0.0066112783 -0.059799176 -0.03634384
0.048974715 -0.008462397 -0.0097337095 -0.0015069806 0.046583764 0.0425095 0.013495488 0.008890469
-0.024952188 -0.008677716 0.011092368 -0.0037933302 0.0005304634 -0.04820881 0.026499087 -0.010666045
0.05709955 -0.042440385 -0.03465064 0.0010834606 0.036919955 -0.0006553528 -0.038397208 -0.0028904383
0.020414373 0.01869757 0.034102473 -0.040916603 -0.0047148415 -0.033985976 -0.054215576 -0.036095493
-0.025317423 -0.0549541 0.0375547 -0.015185774 0.01625355 0.014456373 0.04540184 0.03899829
-0.05984902 -0.02281522 0.02448032 -0.055166975 -0.02922252 -0.010970933 0.04975057 -0.014989511
-0.035706397 -0.018145569 0.05221461 -0.045426473 0.0016308264 0.06583283 0.0067991344 -0.025020236
0.023548685 -0.0451794 0.01939757 0.059885003 -0.04586355 -0.006461975 0.016866704 -0.014328981
-0.016001808 -0.012046371 -0.061622877 0.019679356 -0.046595942 0.0020221234 0.05346346 0.048762377
0.012184547 -0.052141476 -0.008505209 -0.029217307 -0.015612343 0.048914403 -0.0111782905 0.048103716
0.0023324694 -0.040370967 0.013394838 -0.023507569 -0.039047565 -0.019528156 -0.031814035 0.026330642
-0.0033648836 0.05794098 -0.0472887 -0.03641863 -0.007411413 -0.047044687 0.0010198087 0.034713306
0.0077876262 -0.05211176 -0.0346921 -0.009986581 0.02722804 -0.025436573 0.031968035 -0.012176712
0.048867725 -0.015497629 0.062061217 -0.00037275467 -0.03775768 -0.00059510645 -0.03348603 -0.02299426
0.013749925 -0.014569837 0.06516831 0.028640281 -0.049433067 -0.045266874 -0.004226605 0.0018468468
0.002902466 -0.033072934 -0.01630284 0.015048149 -0.012839383 -0.0042071813 -0.011947197 -0.00086775416
00000000: b3ba 253d f135 34bd 7f8b 843d 1824 5939
00000010: 8049 803c 13aa 2c3d eff6 613d 123e 6a3d
00000020: a30d 9a3c 0880 55bd 00c1 71bc ac94 613d
00000030: 29c8 46bd d528 02bd c5ce 1fbc df04 17bc
00000040: bf1f 123d 2b1f bfbc 43aa 453d c182 20bd
00000050: 2c98 493d 0801 96bd 9a83 03bd 1637 f8bc
00000060: 0c34 983d 2ed7 923d f64f 27bd 0765 843d
00000070: 8176 95bd 18d3 083d 1deb 793d 448c 5a3d
00000080: 3e58 963d e44b d93c 0d7a 40bd 1037 7abd
00000090: 1e5b b43c 1fe3 043d 43fc 813d 18c0 5dbd
000000a0: c017 153d b988 84bd 3491 8f3c 94b0 8b3c
000000b0: f652 cc3a 3cbd 48bd 2107 a43c 4e23 e33c
000000c0: ea91 a5bc bdda 43bc 8647 16bd cb88 2a3d
000000d0: 993e 07bd cf9d 05bb c4e6 ab3c be96 dfbc
000000e0: cdf8 79bd 77d2 523b 0542 933d 303a 053c
000000f0: 2919 bdbc fa93 7b3c 2f96 2d3d b898 913d
00000100: de41 88bd 95b0 3a3c 21ed 16bd d66b 4abd
00000110: 936a bbbb 3190 bfbc b541 5e3c 82d7 f4bc
00000120: 9cc9 a6ba f99c 503d 207e 5a3d 9f65 113d
00000130: 2f62 7ebd 0c1c 61bd 2811 113d 2456 013d
00000140: 39de 5d3d 149e 9a3d 5050 833b 5732 6c3d
00000150: d0af 823c cb9f 70bd 9725 9fbd 6b48 423d
00000160: b8ed 2abd 5cd4 703d 8b87 8b3d 70a7 9bbc
00000170: 9167 8bbd 2598 25bd ea1e 633d b9fa 473d
00000180: 6125 2cbd ede8 a03d 4c25 42bd a25e 4dbd
00000190: 7260 95bd ae0b 643d c4c4 26bd b0e7 e03c
000001a0: e947 75bc d171 803d d5f9 3dbd d54f 91bd
000001b0: 1927 14bd 31e9 f23c 2a05 7dbd 4c85 42bd
000001c0: 75b5 9f3d c56c 8e3d 7367 223d c38e 463d
000001d0: e4bc c0bc 5448 d2bc ab37 293d 5aca 163c
000001e0: aae4 8bbb 3230 8ebd 91ea 79bd 2f8e 173d
000001f0: c677 6e3d 6ca3 d83b fbef 74bd 47dd 14bd
00000200: b699 483d dea5 0abc 237a 1fbc e185 c5ba
00000210: 9ece 3e3d 711e 2e3d 2e1c 5d3c 54a9 113c
00000220: 8868 ccbc fb2c 0ebc c3bc 353c 8599 78bb
00000230: cc0e 0b3a 9a76 45bd 9d14 d93c a3c0 2ebc
00000240: 38e1 693d f8d5 2dbd d4ed 0dbd e802 8e3a
00000250: 6139 173d fbcb 2bba 6446 1dbd 826d 3dbb
00000260: 0b3c a73c a52b 993c 09af 0b3d 2b98 27bd
00000270: f57e 9abb e134 0bbd 2711 5ebd ded8 13bd
00000280: 7c66 cfbc 8d17 61bd f5d2 193d c1cd 78bc
00000290: 2a26 853c 6cda 6c3c 48f7 393d acbc 1f3d
000002a0: 3f24 75bd fce6 babc f48a c83c c4f6 61bd
000002b0: 1164 efbc 6ebf 33bc 41c7 4b3d 9196 75bc
000002c0: df40 12bd 04a6 94bc fdde 553d 1c11 3abd
000002d0: 74c1 d53a 5dd3 863d 46cb de3b 3df7 ccbc
000002e0: 2ce9 c03c 090e 39bd a7e7 9e3c fa49 753d
000002f0: 6bdb 3bbd fabe d3bb 0b2c 8a3c 1ac4 6abc
00000300: 3916 83bc 245e 45bc 4568 7cbd 9a36 a13c
00000310: 63db 3ebd 9a85 043b 80fc 5a3d 0fbb 473d
00000320: b2a1 473c 4d92 55bd 6f59 0bbc 2259 efbc
00000330: eaca 7fbc 785a 483d 2625 37bc 6708 453d
00000340: 58dc 183b 075c 25bd 0676 5b3c f292 c0bc
00000350: 57f0 1fbd 83f9 9fbc 6f4f 02bd 5cb3 d73c
00000360: 6185 5cbb 8553 6d3d ccb1 41bd b42b 15bd
00000370: 70db f2bb eeb1 40bd 1aab 853a 8a2f 0e3d
00000380: 582f ff3b 2473 55bd 4e19 0ebd c29e 23bc
00000390: 570d df3c 5c60 d0bc eaf0 023d d580 47bc
000003a0: 8629 483d c4e9 7dbc e733 7e3d 496e c3b9
000003b0: cca7 1abd eb00 1cba a628 09bd 755e bcbc
000003c0: 5e47 613c 53b6 6ebc f776 853d 069f ea3c
000003d0: 547a 4abd c269 39bd 557f 8abb e511 f23a
000003e0: 4d37 3e3b 7c77 07bd 898d 85bc 838c 763c
000003f0: 475c 52bc 65dc 89bb 2dbe 43bc ff79 63ba

attn_qpos_to_qvel.out_proj.bias f4 [144]
-0.0016197675 0.00038477298 0.002659195 -0.0014778705 0.000113511094 0.0034850757 0.0037976473 0.00011399671
-0.0017329345 -0.00060642016 -0.0014437063 0.000835278 -0.0016990165 0.0036327422 -0.0023160256 -0.008440163
-0.0012091644 -0.0011936221 -0.0029729581 0.0020310706 -0.0032403497 -0.006170161 -0.0028082023 0.0047653215
-0.0031311903 0.0012912365 -0.02792039 0.0014690614 -0.0008369511 -0.020625515 0.0006763661 -0.00086675526
0.0010979659 -0.039982293 -0.0006776928 -0.0048648966 5.021199e-05 0.0018808544 0.0014199152 -0.0005291023
0.0007645122 -0.00059595844 -0.0011088945 0.0012733479 0.0008322632 0.002041687 -0.0006067201 -0.0038787643
0.003201909 0.0015027941 -0.0006571122 0.0042897332 0.00024231571 0.0031850773 0.00029254187 -0.00012859608
0.0026762986 0.0008660571 0.0040763803 -0.0002543126 -0.04269644 0.002378656 -0.0020449192 0.0006167612
0.0008314135 0.0010287482 0.00089605706 0.005304771 -0.0024676747 0.0012146509 0.000626323 -0.00281052
-0.00016133604 0.0032938984 -0.00040815648 0.0027218787 -0.0028450862 0.00045061743 -0.00046437245 0.0022402848
0.00059885357 0.0025516916 0.00061832333 0.0028832334 0.0017885827 -0.0017705376 0.006451343 0.001607448
0.0006035627 0.0018119529 0.0021764045 0.0011978075 -0.00471525 -0.0019779718 -0.00080119906 7.384152e-05
0.00093317154 -0.0013607002 -0.0038038027 0.0024117022 -0.0009369955 0.0055513945 0.003103915 -2.328914e-05
0.002907042 -0.00038531006 -0.0032849612 -0.0011378002 0.0006743805 -0.0012288517 -0.00069762365 -0.0015340535
-0.0035216538 0.0010954965 0.0020952343 0.0011232472 0.001603585 -0.0007565402 -0.029471189 0.0031696272
-0.0018595777 -0.0041770395 -0.0016321492 0.001952213 -0.0017011149 0.0012587392 0.00053679995 0.0019381478
-0.00046963172 -0.0010559403 0.0006118843 -0.0031693983 -0.0011763269 -0.0105143795 0.0047628763 0.0017338995
-0.0036532762 0.0022884554 0.003059239 -0.00015682176 0.0020071345 0.0035220047 -0.00015643201 -0.028545115
00000000: 614e d4ba 5bbb c939 e445 2e3b 1bb5 c1ba
00000010: ce0c ee38 de65 643b f3e1 783b 8511 ef38
00000020: a223 e3ba 2bf8 1eba bf3a bdba 8ff6 5a3a
00000030: 89b1 deba 4d13 6e3b 76c8 17bb 9c48 0abc
00000040: d37c 9eba 5073 9cba f6d5 42bb b61b 053b
00000050: 0c5c 54bb 102f cabb d109 38bb 6a26 9c3b
00000060: a834 4dbb b53e a93a 4db9 e4bc 858d c03a
00000070: d666 5bba d7f6 a8bc 294e 313a f636 63ba
00000080: 9fe9 8f3a 79c4 23bd 32a7 31ba b669 9fbb
00000090: b79a 5238 0087 f63a 731c ba3a 74b3 0aba
000000a0: 8c69 483a 183a 1cba 5358 91ba 77e6 a63a
000000b0: 3d2c 5a3a d3cd 053b 4c0c 1fba de32 7ebb
000000c0: 1ed7 513b 67f9 c43a 0e42 2cba e490 8c3b
000000d0: 2116 7e39 bbbc 503b 4e60 9939 bfd7 06b9
000000e0: d764 2f3b 1c08 633a 2893 853b 4255 85b9
000000f0: 76e2 2ebd 3ae3 1b3b 0d04 06bb 25ae 213a
00000100: 37f3 593a 10d7 863a 5fe5 6a3a a5d3 ad3b
00000110: b6b8 21bb ec34 9f3a d32f 243a b330 38bb
00000120: 502c 29b9 72de 573b d6fd d5b9 8c61 323b
00000130: a074 3abb d940 ec39 0477 f3b9 bed1 123b
00000140: 62fc 1c3a 483a 273b fa16 223a a1f4 3c3b
00000150: e06e ea3a 6211 e8ba ca65 d33b 01b1 d23a
00000160: 6838 1e3a 0d7f ed3a 02a2 0e3b c0ff 9c3a
00000170: 6282 9abb dca0 01bb 8f07 52ba 5ddb 9a38
00000180: 15a0 743a 8659 b2ba 3849 79bb a60d 1e3b
00000190: b4a0 75ba 79e8 b53b 0d6b 4b3b 0c5d c3b7
000001a0: 1284 3e3b 7103 cab9 8148 57bb 3d22 95ba
000001b0: e9c8 303a 6c11 a1ba bbe0 36ba 4b12 c9ba
000001c0: 8ccb 66bb c396 8f3a 3350 093b ec39 933a
000001d0: 622f d23a 8e52 46ba 906d f1bc 85b9 4f3b
000001e0: 13bd f3ba 8cdf 88bb d7ed d5ba 66e1 ff3a
000001f0: f2f7 deba 47fc a43a 09b8 0c3a 7309 fe3a
00000200: e738 f6b9 7a67 8aba dc66 203a aeb5 4fbb
00000210: fb2e 9aba 8144 2cbc e711 9c3b 0344 e33a
00000220: ce6b 6fbb e9f9 153b 837d 483b 8570 24b9
00000230: 218a 033b 6fd1 663b e607 24b9 72d7 e9bc
