checkpoints_cartpole/model_final.pth (torch, 413573 bytes, 30 tensors)

pos_embedding f4 [1, 5, 64]
0	0x3ebaa282	0.3645211
1	0x3c796857	0.01522263
2	0xbe189600	-0.1490097
3	0x3ddeeecb	0.1088539
4	0xbd3482aa	-0.044069923
5	0xbdd75a3a	-0.10515256
6	0xbf07a71e	-0.52989376
7	0xbe434c69	-0.19072117
8	0x3ccf7179	0.025322663
9	0xbe811ec8	-0.25218797
10	0x3e04eb12	0.12980297
11	0xbe8ab89f	-0.2709398
12	0x3e3c1dee	0.18370792
13	0xbec449bf	-0.38337514
14	0x3dc0b359	0.09409208
15	0xbe6727bc	-0.22573751
16	0xbe64b1fe	-0.22333524
17	0x3d42b6a7	0.047537472
18	0xbdb3b2c7	-0.087743334
19	0xbe015473	-0.12629871
20	0xbe1876fd	-0.1488914
21	0xbdc1c539	-0.09461445
22	0xbe21f844	-0.15817362
23	0xbb598fe4	-0.0033197338
24	0x3d582ec3	0.05277897
25	0xbe250c20	-0.16117907
26	0x3d958b93	0.07302012
27	0xbe1a0825	-0.1504217
28	0x3d8bc1dc	0.06824085
29	0x3d12583a	0.03572867
30	0xbd714e77	-0.05891272
31	0x3e227608	0.15865338
32	0xbcd91c50	-0.026502758
33	0xbcbc8045	-0.023010382
34	0xbe4a40df	-0.19751309
35	0x3e261812	0.1622012
36	0xbdeb7290	-0.114964604
37	0xbe1c94b1	-0.15291096
38	0xbee69228	-0.45033383
39	0x3deb3772	0.11485185
40	0xbe16e5c4	-0.14736086
41	0x3bcec828	0.0063104816
42	0x3d6ad48e	0.057331614
43	0xbdaa2192	-0.08307184
44	0x3dce94c8	0.100869715
45	0xbeaa5230	-0.3326583
46	0xbe92289e	-0.28546613
47	0xbe1073b0	-0.14106631
48	0xbbbbbffd	-0.005729674
49	0xbe6ff1ec	-0.2343213
50	0xbd9ebbe8	-0.07750684
51	0xbe32913e	-0.17438218
52	0xbe5d3253	-0.21601228
53	0xbef85fbd	-0.48510543
54	0x3d19ff65	0.03759708
55	0x3de0bb4a	0.109732226
56	0xbea0a103	-0.31372842
57	0xbe831551	-0.256022
58	0x3cba204e	0.022720482
59	0x3db2d157	0.08731335
60	0xbcda632a	-0.026658613
61	0xbd4cfae8	-0.05004397
62	0xbdd7b1b6	-0.105319425
63	0xbe1857dc	-0.14877266
64	0x3ea67904	0.32514203
65	0x3de0bc72	0.10973443
66	0x3d8f317f	0.069918625
67	0xbd25e04d	-0.040497113
68	0x3dcf7e15	0.1013147
69	0xbe4a87fb	-0.19778435
70	0xbeff7888	-0.49896646
71	0x3d464200	0.048402786
72	0x3d87fd80	0.06640148
73	0xbcce7fb0	-0.02520737
74	0xbed73339	-0.42031267
75	0xbe20d05f	-0.15704487
76	0x3d697049	0.05699185
77	0xbd5ddf2a	-0.054167904
78	0xbd793e77	-0.060850587
79	0xbe643a9f	-0.22287987
80	0xbc810cab	-0.01575311
81	0xbe8c8e5b	-0.2745236
82	0x3e4704fc	0.19435495
83	0xbce85e3d	-0.028365249
84	0xbea67e93	-0.32518443
85	0x3bc6aad9	0.006062847
86	0x3dacc757	0.084364586
87	0x3e0162ee	0.12635395
88	0xbd73f883	-0.05956317
89	0xbdec3722	-0.11533953
90	0x3e92afe8	0.2864983
91	0xbcb72458	-0.022356197
92	0x3dc344c3	0.095346
93	0x3e03eff7	0.12884508
94	0xbcd58b72	-0.02606747
95	0xbdbc5897	-0.09196585
96	0x3daeca49	0.085346766
97	0xbca731cd	-0.020409489
98	0xbdc2c389	-0.095099516
99	0x3d450481	0.0481
100	0xbd92ce0f	-0.07168209
101	0x3de75ae3	0.11296632
102	0xbcd32873	-0.025776124
103	0x3e13098d	0.14359112
104	0xbe0a1cf4	-0.13487607
105	0x3c5e1e44	0.013557021
106	0xbb9913f2	-0.004671567
107	0x3e0906f9	0.13381566
108	0x3e398c73	0.18119983
109	0xbe825836	-0.25457925
110	0xb9931cf7	-0.00028059605
111	0xbdacea70	-0.08443153
112	0x3b082023	0.0020771108
113	0xbe79b266	-0.2438446
114	0x3c27ad26	0.010234153
115	0x3defd3d8	0.11710328
116	0xbe8aae7c	-0.27086246
117	0xbe8c9e15	-0.27464357
118	0xbc58a49a	-0.013222838
119	0xbdbea738	-0.09309238
120	0xbebc6bc3	-0.36800966
121	0xbdc36eb3	-0.095425986
122	0xbaef0c6a	-0.0018237953
123	0x3d603ec6	0.054747365
124	0x3b3e6f8d	0.0029058189
125	0xbe89d297	-0.2691848
126	0xbbf9ab22	-0.0076192776
127	0x3d19f27c	0.037584767
128	0x3eccdd8f	0.40012786
129	0xbd630bbd	-0.055431116
130	0xbb45666b	-0.003012086
131	0xbcad6150	-0.021164566
132	0xbefb8e8c	-0.49132192
133	0xbe495e7c	-0.19664949
134	0xbebb068d	-0.36528435
135	0xbe37c360	-0.17945623
136	0xbaf60dc2	-0.0018772411
137	0x3d356bc5	0.04429223
138	0x3ecd0d3a	0.40049154
139	0xbe701535	-0.2344559
140	0xbeba1b8c	-0.36349142
141	0xbeb314e5	-0.3497688
142	0xbe16e500	-0.14735794
143	0xbe372be3	-0.17887835
144	0xbd99cb2a	-0.075094536
145	0xbc72965a	-0.014806354
146	0xbda86a41	-0.08223391
147	0xbe4b8b5a	-0.19877377
148	0x3d1027cf	0.035194214
149	0x3da10bcd	0.07863579
150	0xbd60ed5b	-0.05491386
151	0x3daef749	0.0854326
152	0xbde48e7d	-0.1115999
153	0xbdfda16a	-0.12384303
154	0xbe9aade0	-0.3021078
155	0x3d7c5350	0.06160289
156	0xbd676f47	-0.056502607
157	0xbc08bf1e	-0.008346347
158	0xbc3e72db	-0.011624063
159	0x3d477c29	0.048702393
160	0xbd059597	-0.032613363
161	0x3db48501	0.08814431
162	0xbdc5acb7	-0.09652083
163	0xbe3937f7	-0.18087755
164	0xbe94ce01	-0.29063419
165	0xbdb932ca	-0.0904289
166	0xbe47173e	-0.1944246
167	0x3d199191	0.03749234
168	0xbe45d6b6	-0.19320187
169	0xbd774014	-0.060363844
170	0x3c85b1e4	0.016320176
171	0xbc2907fa	-0.010316843
172	0xbe8029de	-0.25031942
173	0xbe1aee5e	-0.15129992
174	0x3e7421fa	0.23841086
175	0xbf024fd7	-0.50903076
176	0xbb861256	-0.0040915413
177	0xbf188f2d	-0.5959347
178	0x3e385d10	0.1800425
179	0x3e541204	0.20709997
180	0xbe4a701d	-0.1976933
181	0x3ef36224	0.47535813
182	0xbdaad009	-0.08340461
183	0xbebb5098	-0.36584926
184	0xbd63cad4	-0.055613354
185	0xbe05afc5	-0.13055332
186	0x3d32f385	0.04368927
187	0xbdf57c4a	-0.11986597
188	0x3d7e8ce5	0.062146086
189	0x3e9d2220	0.30690098
190	0xbe126d2b	-0.14299457
191	0xbdb57ee1	-0.08862091
192	0xbf694a02	-0.9112855
193	0xbbbfa4e1	-0.0058485125
194	0x3dbebe98	0.093136966
195	0x3d5dd04c	0.054153726
196	0xbe4a656a	-0.19765249
197	0xbeb10ee3	-0.3458167
198	0x3eee03f9	0.46487406
199	0x3d386368	0.045016676
200	0xbe7830c9	-0.2423736
201	0xbe0673b3	-0.13130073
202	0xbb2c979f	-0.002633549
203	0xbe3d4baf	-0.18485902
204	0xbe89a439	-0.26883104
205	0xbd90b332	-0.07065429
206	0x3e1e570d	0.15462895
207	0xbe05d41d	-0.13069196
208	0xbdd9a483	-0.10627081
209	0xbe851da3	-0.25999174
210	0x3d1323eb	0.035922926
211	0x3d946deb	0.07247528
212	0x3df85dd1	0.12127269
213	0x3db283a9	0.087165184
214	0x3d16eefb	0.036849003
215	0x3dcee22a	0.10101731
216	0xbe7c422f	-0.24634622
217	0xbe398f44	-0.18121058
218	0xbec8caca	-0.39217216
219	0xbe6e3497	-0.23262249
220	0xbce5f42c	-0.028070532
221	0x3cf45c87	0.029829277
222	0x3b8698b4	0.004107559
223	0x3d1b5fa4	0.037933007
224	0xbd59a392	-0.05313451
225	0xbce8d1b6	-0.02842031
226	0xbd8a4953	-0.06752267
227	0xbe1203ad	-0.14259215
228	0xbd7699b4	-0.060205176
229	0x3e229947	0.15878783
230	0x3dd7232c	0.105047554
231	0xbdd44272	-0.10364236
232	0x3e357514	0.17720443
233	0x3d4389ac	0.047738716
234	0x3d57edd5	0.05271705
235	0xbd2a6356	-0.04159864
236	0x3d4f7570	0.050649107
237	0xbde4c974	-0.11171237
238	0xbe41c54d	-0.1892292
239	0xbcb3107e	-0.02185845
240	0x3dadf49d	0.08493922
241	0x3eb4676c	0.35235155
242	0xbc93640c	-0.017992042
243	0xbe0ecfec	-0.13946503
244	0xbe722d32	-0.23650053
245	0x3e90357c	0.28165805
246	0x3ddf7b81	0.109122284
247	0xbe5d51ed	-0.21613283
248	0x3ea75225	0.3267986
249	0xbe45cbbf	-0.19316004
250	0x3d73c596	0.059514605
251	0x3d3fceab	0.046827953
252	0x3d2eefcd	0.04270916
253	0xbf2bfe8b	-0.67185277
254	0xbce125cc	-0.027483843
255	0xbda12c15	-0.07869736

feature_encoding.0.weight f4 [64, 1]
0	0x3ec78c86	0.38974398
1	0xbf998118	-1.1992521
2	0x3f02b235	0.5105317
3	0x3f2b8418	0.66998434
4	0x3c910c2e	0.017706003
5	0x3d453a1a	0.048151113
6	0x3deb67cc	0.11494407
7	0x3f0bcc0b	0.5460822
8	0xbe307470	-0.17231917
9	0xbd4c564b	-0.049886983
10	0x3e8636f3	0.26213798
11	0xbe0ceeec	-0.13763016
12	0xbe7b13e4	-0.24519306
13	0x3f0656a0	0.5247593
14	0x3f2e461c	0.6807573
15	0x3e4f1a37	0.20224844
16	0x3f8791bb	1.0591348
17	0x3deac61e	0.11463569
18	0x3e04304b	0.12909047
19	0xbe9e1e34	-0.30882418
20	0xbf425b70	-0.7592077
21	0x3d27d79f	0.040977117
22	0xbf0f4f75	-0.55980617
23	0x3e7855c9	0.24251474
24	0xbf030a18	-0.51187277
25	0x3e706b9e	0.23478553
26	0x3f031841	0.51208884
27	0x3ed0f4a2	0.4081164
28	0x3f27361b	0.65316933
29	0xbf858b16	-1.0433071
30	0x3b354960	0.0027662143
31	0xbe47fc1d	-0.19529767
32	0xbe33f729	-0.17574753
33	0xbf281272	-0.65653145
34	0x3ec6d91b	0.38837513
35	0xbf545f89	-0.82958275
36	0x3cc9b60b	0.024622938
37	0xbdcc3f21	-0.099729784
38	0x3b97a7cf	0.0046281586
39	0xbf297ada	-0.6620308
40	0x3f431928	0.7621026
41	0xbecb7d66	-0.3974411
42	0xbd90e348	-0.070746005
43	0x3f5c2daa	0.8600718
44	0x3c4a3d3b	0.0123437
45	0xbe37794f	-0.1791737
46	0xbf3c7325	-0.73613197
47	0x3e98b592	0.29826027
48	0x3e96fde4	0.29490578
49	0xbe519de3	-0.20470385
50	0xbec90f27	-0.39269373
51	0x3f373b73	0.7157509
52	0xbed3a5c3	-0.41337404
53	0xbe39d018	-0.18145788
54	0x3dc6720d	0.09689722
55	0x3ecf7bab	0.4052404
56	0x3f2ca12e	0.6743344
57	0x3e29b96f	0.16574644
58	0x3f818de3	1.0121425
59	0x3df3d1ab	0.11905225
60	0x3eac735f	0.3368177
61	0x3ed4334b	0.41445383
62	0xbf000cf9	-0.50019795
63	0xbf8d30f6	-1.1030567

feature_encoding.0.bias f4 [64]
0	0xbe7bd9ad	-0.24594755
1	0xbf8f43a9	-1.1192523
2	0xbda2f026	-0.07955961
3	0xbf6948c6	-0.9112667
4	0x3e648197	0.2231506
5	0x3f7c861f	0.9864215
6	0x3f455eb4	0.7709763
7	0x3e321875	0.17392142
8	0xbfb136dc	-1.3844867
9	0x3e1a84ee	0.15089771
10	0x3fa77ec6	1.3085563
11	0x3eaffde3	0.34373388
12	0x3e08abed	0.13346834
13	0x3f5b8dd0	0.85763264
14	0xbe758c8a	-0.23979393
15	0x3f33059a	0.6993042
16	0x3d49f04e	0.049301438
17	0x3ead8926	0.33893698
18	0x3e54e2d1	0.20789649
19	0x3ea51cfe	0.32248682
20	0x3f6f7de1	0.9355145
21	0x3d4c6d8d	0.049909163
22	0xbfab6e43	-1.3393024
23	0xbf09314a	-0.53590834
24	0x3e99494e	0.2993874
25	0x3ed8db0c	0.4235462
26	0xbe53531d	-0.20637174
27	0x3e8c7318	0.2743156
28	0xbf60cbab	-0.8781077
29	0xbf9e8210	-1.2383442
30	0x3d8e7dcb	0.06957587
31	0xbfa8fe4d	-1.3202606
32	0xbd14fa4b	-0.03637151
33	0x3d0f52ea	0.034991182
34	0x3ebbe1b5	0.36695638
35	0xbec37d29	-0.38181427
36	0x3ea05fa3	0.31322965
37	0xbf904ab4	-1.1272798
38	0x3ed1eac6	0.4099943
39	0xbf10ea8d	-0.56607896
40	0x3f6b62b4	0.91947484
41	0xbd707cfa	-0.058712937
42	0xbfa70986	-1.3049781
43	0xbf2b7596	-0.66976297
44	0x3b44818b	0.002998444
45	0x3f1d7aa5	0.61515266
46	0xbebafd3b	-0.36521325
47	0x3efbf7fd	0.49212638
48	0xbfa9dbee	-1.3270242
49	0x3f023999	0.5086914
50	0x3c41af10	0.011821523
51	0xbf4f651e	-0.8101367
52	0x3f85b70d	1.0446488
53	0xbf9aadbe	-1.2084272
54	0x3df381d0	0.11889994
55	0x3f511b10	0.8168192
56	0x3f521857	0.8206839
57	0x3f23f7bc	0.6404989
58	0xbef37e3c	-0.47557247
59	0x3d862ae9	0.06551153
60	0x3d1eb604	0.038747802
61	0x3f2ed409	0.6829229
62	0x3e333a5a	0.17502728
63	0x3d921d31	0.07134474

feature_encoding.1.weight f4 [64]
0	0x3f8aaa42	1.0833209
1	0x3fbb2d55	1.4623209
2	0x3f8bcc9f	1.092182
3	0x3f6f7277	0.93534034
4	0x3f516f20	0.8181019
5	0x3f0f8c16	0.5607313
6	0x3f4378ca	0.76356184
7	0x3f5a4e98	0.85276175
8	0x3f7f73a3	0.9978582
9	0x3f6470e8	0.8923478
10	0x3f753edd	0.95799047
11	0x3f51fcf2	0.8202659
12	0x3f461ab3	0.7738449
13	0x3f1c54d3	0.6106693
14	0x3fa150a3	1.2602733
15	0x3f253778	0.64537764
16	0x3f929763	1.145245
17	0x3f423c05	0.7587283
18	0x3f66f46f	0.90216726
19	0x3f3c599b	0.7357423
20	0x3f566e6c	0.8376224
21	0x3f7521f7	0.9575495
22	0x3f8d1ca7	1.1024369
23	0x3f536a50	0.82584095
24	0x3f44be4d	0.76852876
25	0x3f3db6eb	0.74107236
26	0x3f7b05a0	0.9805546
27	0x3f4bd607	0.79623455
28	0x3f6e47f0	0.9307852
29	0x3f9ef0ae	1.24172
30	0x3f4dfbdd	0.8046244
31	0x3f76656c	0.9624851
32	0x3f5fbf38	0.8740115
33	0x3f7e8ef0	0.99436855
34	0x3f3a20b2	0.7270614
35	0x3f8f5c0d	1.1199967
36	0x3f4bce9a	0.79612124
37	0x3f7def71	0.99193484
38	0x3f347aa1	0.70499617
39	0x3f9428e8	1.1574984
40	0x3f6e39cd	0.93056947
41	0x3f8913c3	1.0709156
42	0x3f52e49a	0.8238007
43	0x3fa357d0	1.2761173
44	0x3f8e7ce8	1.1131868
45	0x3f34ab1c	0.7057359
46	0x3f943cc6	1.1581047
47	0x3f3863db	0.7202737
48	0x3f1fcf3e	0.624256
49	0x3f3d22fa	0.73881495
50	0x3f45a321	0.7720204
51	0x3f8ae631	1.0851499
52	0x3f03219f	0.51223177
53	0x3f50bd04	0.81538415
54	0x3f43e3a1	0.7651921
55	0x3f123ac1	0.571209
56	0x3f3a5a21	0.72793776
57	0x3f207947	0.62685055
58	0x3faa0ebf	1.328575
59	0x3f51b4da	0.8191658
60	0x3f707211	0.9392405
61	0x3f36f30d	0.71464616
62	0x3f571800	0.84020996
63	0x3f8ed6bf	1.1159285

feature_encoding.1.bias f4 [64]
0	0xbdebcb0e	-0.11513339
1	0x3e982b9e	0.29720777
2	0xbd543a90	-0.051813662
3	0x3e80e16b	0.2517198
4	0xbe33d976	-0.17563424
5	0xbedc7d63	-0.43064412
6	0xbe61346b	-0.21992652
7	0xbe01402d	-0.12622137
8	0xbce9765b	-0.02849882
9	0xbd9fe6ae	-0.078076705
10	0xbaeed395	-0.0018221015
11	0xbe2b6036	-0.1673592
12	0xbd572a2b	-0.05253045
13	0xbe97b79d	-0.29632273
14	0x3c0f57a9	0.008748927
15	0xbea91c33	-0.33029327
16	0x3bd2a5e5	0.0064284676
17	0xbe3663e6	-0.17811546
18	0xbea3ae1e	-0.31968778
19	0xbe77986e	-0.24179241
20	0xbdfbfea3	-0.123044275
21	0xbdcea3bc	-0.100898236
22	0x3e0eca5c	0.13944381
23	0xbd597a50	-0.053095162
24	0xbe0f76f5	-0.14010222
25	0xbe734301	-0.23756029
26	0xbdfd38b7	-0.12364333
27	0xbe3ee3cb	-0.18641584
28	0x3e5fc422	0.21852162
29	0x3e41d0a1	0.18927242
30	0xbe2c0ae6	-0.16801032
31	0xbe186603	-0.14882664
32	0xbe45330c	-0.19257754
33	0xbe0c4568	-0.13698351
34	0xbe68cb40	-0.22733784
35	0xbd93976e	-0.07206617
36	0xbe4effb2	-0.20214728
37	0xbd22fe5c	-0.039793357
38	0xbe82964b	-0.2550529
39	0xbdd07a04	-0.10179523
40	0xbd49107d	-0.04908799
41	0xbdf2734d	-0.11838398
42	0xbe021a77	-0.12705408
43	0x3e021590	0.12703538
44	0xbdf145e3	-0.11780908
45	0xbea154ce	-0.31510013
46	0xbe41858b	-0.18898599
47	0xbe5f8e5e	-0.21831653
48	0x3e8bfcbe	0.27341264
49	0xbe65195a	-0.22372952
50	0xbdf6e420	-0.1205523
51	0x3d9bf738	0.076155126
52	0xbeaad7d1	-0.3336778
53	0xbe35aacd	-0.17740937
54	0xbe2b8316	-0.16749224
55	0xbea9b74e	-0.33147663
56	0xbe286b3f	-0.16447161
57	0xbebe6060	-0.37182903
58	0xbcd2cec4	-0.02573336
59	0xbe23b297	-0.15986095
60	0xbe55ca3b	-0.20877926
61	0xbe9131e8	-0.28358388
62	0xbde59d29	-0.112116165
63	0xbc7fb9b7	-0.015608243

layers.0.norm1.weight f4 [64]
0	0x3f29dc4f	0.6635179
1	0x3f2e69be	0.681301
2	0x3f30c2f0	0.6904745
3	0x3f246dc2	0.6422998
4	0x3f8e2cbb	1.1107401
5	0x3f12711b	0.57203835
6	0x3ef53162	0.4788924
7	0x3f1f2071	0.62158877
8	0x3efe0b39	0.49617937
9	0x3f2325e7	0.6372971
10	0x3eb33cd7	0.35007355
11	0x3f2633bc	0.6492269
12	0x3f21884a	0.63098586
13	0x3f1dae01	0.61593634
14	0x3f5297ae	0.82262695
15	0x3ef516e3	0.47869024
16	0x3f15a2e8	0.584517
17	0x3f3c42ac	0.73539233
18	0x3f2d424d	0.6767929
19	0x3f0d4f8e	0.55199516
20	0x3f27adef	0.65499777
21	0x3f2a73a6	0.66582716
22	0x3f044a6b	0.5167605
23	0x3f482d35	0.7819398
24	0x3f24afba	0.6433064
25	0x3f2421cc	0.6411407
26	0x3f38313f	0.71950144
27	0x3f562834	0.83655095
28	0x3f354936	0.70814836
29	0x3f721fb6	0.9457964
30	0x3f250cc2	0.6447259
31	0x3f1eaa8c	0.61978984
32	0x3f2e16fe	0.68003833
33	0x3f485101	0.782486
34	0x3f25f728	0.64830256
35	0x3f59290e	0.8482827
36	0x3f11fa12	0.570222
37	0x3f283725	0.65709144
38	0x3f1e1ede	0.6176585
39	0x3f5fecb5	0.8747056
40	0x3ec356ad	0.38152066
41	0x3f2a8d2e	0.66621673
42	0x3f54531a	0.829393
43	0x3f35278c	0.7076347
44	0x3f3bef47	0.73411983
45	0x3f1fd7a3	0.6243841
46	0x3f4004b1	0.7500716
47	0x3f2c8f0d	0.6740578
48	0x3f39d3d5	0.72588855
49	0x3f21b93c	0.6317327
50	0x3f344717	0.70420974
51	0x3f4cd17c	0.8000715
52	0x3f1decf6	0.616897
53	0x3f1ca4d6	0.6118902
54	0x3f279d5a	0.65474474
55	0x3f1197e2	0.5687238
56	0x3efa304c	0.48864973
57	0x3f037417	0.51349014
58	0x3f316c8c	0.69306254
59	0x3f41af9a	0.7565857
60	0x3f401198	0.75026846
61	0x3f0a3457	0.53986114
62	0x3f1f4d4b	0.62227315
63	0x3f235fb2	0.63817894

layers.0.norm1.bias f4 [64]
0	0xbce971e0	-0.028496683
1	0x3dfc71d0	0.123263955
2	0x3e17fc85	0.14842422
3	0x3e4010cc	0.18756407
4	0x3d6c98ed	0.05776303
5	0xbdf7777f	-0.12083339
6	0xbe80c7bc	-0.25152385
7	0x3da5ebd3	0.081016205
8	0x3eac2c50	0.33627558
9	0x3e184cbf	0.14873026
10	0xbf155876	-0.58338106
11	0x3ba9e618	0.0051849
12	0x3d9938fa	0.074815705
13	0xbe5e91b5	-0.2173527
14	0x3e09a0f7	0.1344031
15	0xbd86134a	-0.06546648
16	0xbcbe1877	-0.023205025
17	0x3c42b986	0.011885053
18	0x3e818d95	0.2530333
19	0x3df078a7	0.117417626
20	0xbe76e5c6	-0.24111089
21	0x3e810a07	0.25202963
22	0x3eb0bd5b	0.34519467
23	0x3e46a439	0.19398583
24	0xbdab861d	-0.083751895
25	0xbb007f3c	-0.0019607088
26	0x3e005954	0.12534076
27	0x3d7a165e	0.061056487
28	0x3e14941e	0.14509627
29	0x3e116198	0.14197385
30	0x3e640b5e	0.22269961
31	0x3e899bc5	0.26876655
32	0x3e49d453	0.19709902
33	0x3e4ed7d2	0.20199516
34	0x3e1645e4	0.14675099
35	0x3e2279c1	0.15866758
36	0xbd172e9c	-0.036909685
37	0x3ea406b9	0.3203638
38	0x3e215a5a	0.15757123
39	0x3df6e2b7	0.12054961
40	0xbf0705d4	-0.5274327
41	0x3e6f697e	0.23380086
42	0x3e1bade0	0.15203047
43	0x3e56b6c1	0.20968153
44	0x3e7bfe52	0.24608734
45	0xbcaf9601	-0.021433832
46	0x3e36784f	0.17819332
47	0xbdb93fc0	-0.090453625
48	0x3e689458	0.22712839
49	0xbd1f036d	-0.038821626
50	0x3e4866a4	0.19570404
51	0x3e199b82	0.15000728
52	0xbe3f8f87	-0.18707095
53	0x3e54e59f	0.20790718
54	0x3e7e5777	0.24838053
55	0xbe768039	-0.2407235
56	0xbead589b	-0.33856663
57	0xbbb2d774	-0.005457813
58	0x3d9899fa	0.07451244
59	0x3e616b1d	0.22013517
60	0x3e252f91	0.16131426
61	0xbe8d5678	-0.27605033
62	0xbc8c2001	-0.017105104
63	0xbcb9bb90	-0.022672445

layers.0.attention.in_proj_weight f4 [192, 64]
0	0xbe6bc8de	-0.23025844
1	0xbe2b53ac	-0.16731137
2	0xbe19ae88	-0.15007985
3	0xbe84b420	-0.25918674
4	0xbdda5693	-0.10661044
5	0x3e02744c	0.12739676
6	0x3e04f712	0.12984875
7	0xbdcb8c1f	-0.09938835
8	0xbe699bd1	-0.22813345
9	0xbdbccea2	-0.092190996
10	0x3a4adc55	0.00077385205
11	0x3d6903a5	0.05688824
12	0xbe38e031	-0.18054272
13	0x3dc8bc1e	0.098015055
14	0xbcd397dc	-0.025829248
15	0x3ddcc1ef	0.107791774
16	0xbd924545	-0.07142118
17	0xbdaf0c02	-0.08547212
18	0xbdc68858	-0.09693974
19	0x3e647bb1	0.2231281
20	0x3eb3de22	0.3513041
21	0x3df691c5	0.12039522
22	0x3e2a4f4a	0.16631809
23	0xbea74859	-0.32672384
24	0x3dd24af2	0.10268201
25	0xbdddc182	-0.10827924
26	0xbd94ffb7	-0.07275336
27	0xbe497c74	-0.19676381
28	0x3beec33b	0.007286457
29	0xbe317187	-0.17328463
30	0xbe621343	-0.2207766
31	0xbe0ba0c1	-0.13635541
32	0xbe0a23d6	-0.13490233
33	0x3df128f4	0.11775389
34	0xbe9d2aec	-0.3069681
35	0xbdd3f0a8	-0.10348636
36	0x3d079bd0	0.03310758
37	0x3dd55396	0.104163334
38	0x3d733464	0.059376135
39	0x3c81c93a	0.015843023
40	0x3d335ed3	0.043791603
41	0xbd877682	-0.066144004
42	0xbe4f5338	-0.20246589
43	0xbe33019e	-0.17481086
44	0xbe87cda2	-0.26524073
45	0x3e3b2740	0.18276691
46	0xbd14eaa1	-0.036356572
47	0x3caf8376	0.02142499
48	0xbe4d80e7	-0.20068704
49	0x3d9f118a	0.07767017
50	0xbd849a2b	-0.06474718
51	0xbde3cb31	-0.1112274
52	0x3da20255	0.07910601
53	0xbe5a561e	-0.21321914
54	0x3d951c78	0.072808206
55	0x3c30040c	0.010743152
56	0x3cc83ba3	0.0244425
57	0xbd8b6442	-0.06806232
58	0xbc92c17f	-0.017914532
59	0xbde17cb3	-0.110101126
60	0xbe85c573	-0.26127204
61	0xbdfcf479	-0.12351317
62	0x3d5e7aa5	0.05431618
63	0xbe3454ff	-0.17610548
64	0x3dc6917c	0.09695718
65	0x3c7c8d97	0.015414617
66	0x3cd08c33	0.025457477
67	0xbd9d9ef6	-0.07696335
68	0xbe122395	-0.14271386
69	0xbcb46888	-0.0220225
70	0xbc5acb2d	-0.013354105
71	0x3d08eded	0.03343003
72	0xbd64fc0d	-0.055904437
73	0x3e2ef038	0.17083824
74	0xbab6dae0	-0.0013950728
75	0x3d09deaf	0.033659633
76	0x3ca353b7	0.01993738
77	0x3b03175e	0.0020002942
78	0xbc36f314	-0.011166353
79	0xbce4fcde	-0.027952608
80	0x3e853740	0.26018715
81	0xbe1bf41a	-0.15229836
82	0xbd3e5c52	-0.046474762
83	0x3dc43e1b	0.09582158
84	0x3e5fa91a	0.21841851
85	0xbe396a8e	-0.18107054
86	0x3db0a3f3	0.08625021
87	0xbe09eec9	-0.13469996
88	0x3e73e659	0.2381834
89	0xbd75c734	-0.060004428
90	0x3c79dc9c	0.015250351
91	0xbe494bfc	-0.19657892
92	0x3d7a1053	0.061050724
93	0xbe1c9779	-0.15292157
94	0xbe2f10f7	-0.17096315
95	0xbe2c8cd6	-0.168506
96	0xbdcbc560	-0.09949756
97	0x3e83b048	0.2572043
98	0xbe469ff6	-0.19396958
99	0x3b98f9a0	0.0046684295
100	0x3d569425	0.052387375
101	0xbd4a8eb8	-0.049452513
102	0xbdb351e2	-0.08755852
103	0x3d07caeb	0.033152502
104	0x3e498988	0.1968137
105	0x3be0a6c9	0.00685582
106	0xbdbead22	-0.09310366
107	0x3d2bd3c1	0.04194999
108	0xbe6f4f44	-0.23370081
109	0x3e396164	0.18103558
110	0x3ddce79e	0.10786365
111	0xbcb63690	-0.022242814
112	0xbe2e239a	-0.17005768
113	0xbd1186fb	-0.035529118
114	0x3e2c22f6	0.16810212
115	0xbe125f68	-0.14294207
116	0x3e039046	0.12848005
117	0xbe2ab31f	-0.16669892
118	0x3e08e916	0.13370165
119	0x3ccba4c5	0.024858842
120	0x3d18a612	0.037267752
121	0xbd3adf7c	-0.045623288
122	0xbcc5b60e	-0.024134662
123	0xbe382d60	-0.17986059
124	0x3daa3a1e	0.08311866
125	0x3e3bd706	0.18343744
126	0x3dd5b6fa	0.10435291
127	0x3e13086c	0.14358681
128	0x3e0c24a7	0.13685857
129	0x3d2782cb	0.04089622
130	0xbdc6c833	-0.09706154
131	0xbcafc7ce	-0.021457579
132	0x3e286229	0.16443695
133	0x3df80133	0.12109604
134	0xbd22ec27	-0.039775994
135	0x3d98cfa6	0.07461481
136	0xbc90f87f	-0.017696617
137	0x3e021256	0.12702307
138	0xbd55d872	-0.05220837
139	0xbe033e55	-0.12816747
140	0xbd8b404c	-0.06799373
141	0x3d96472b	0.07337793
142	0x3df90ce3	0.12160661
143	0xbb7a038c	-0.0038149087
144	0x3e6fac49	0.23405565
145	0x3ea36a1d	0.31916896
146	0xbe19798c	-0.14987773
147	0xbe4a5e73	-0.19762592
148	0xbe0aa890	-0.13540864
149	0xbdb45f70	-0.08807266
150	0xbc3fd25a	-0.011707867
151	0xbd3cd005	-0.04609682
152	0xbda68221	-0.08130289
153	0x3e31374f	0.17306255
154	0x3e1f3aa9	0.15549721
155	0x3e37084c	0.17874259
156	0x3d8dd92d	0.069261886
157	0xbe339bc7	-0.17539893
158	0xbd8f1d9b	-0.06988069
159	0x3dd35069	0.103180714
160	0x3d9b0f67	0.07571297
161	0xbd82834c	-0.06372699
162	0x3de8b330	0.11362302
163	0x3def9c97	0.11699789
164	0xbd00da3e	-0.031458132
165	0xbea266da	-0.31719095
166	0xbd2dfa99	-0.042475317
167	0x3e15dc46	0.14634809
168	0x3e3cb963	0.18430094
169	0xbe371fb4	-0.17883188
170	0xbaa0e6b1	-0.0012275783
171	0x3c14671d	0.009057787
172	0xbe88109b	-0.2657517
173	0xbdd006fd	-0.10157583
174	0x3e3e9f1b	0.18615381
175	0x3ce0a1ac	0.027420841
176	0xbcccf6d3	-0.025020039
177	0xbea9911a	-0.33118516
178	0x3e0264b6	0.1273373
179	0x3e0e3e09	0.13890852
180	0xbe379c98	-0.1793083
181	0x3c96303f	0.018333552
182	0xbd8cace3	-0.06868913
183	0x3e148b18	0.14506185
184	0xbcbd88f7	-0.023136599
185	0x3d6b8604	0.057500854
186	0x3ca41fc2	0.020034675
187	0xbe9a8816	-0.3018195
188	0x3e8016f8	0.25017524
189	0x3e5daf32	0.21648863
190	0xbda02a2a	-0.07820542
191	0xbd4bfe45	-0.049803037
192	0xbd409554	-0.04701741
193	0x3e084910	0.13309121
194	0xbe019f1f	-0.12658356
195	0xbd9c979f	-0.07646107
196	0x3f102f9d	0.5632265
197	0x3dbf8180	0.09350872
198	0x3e2c1fb1	0.16808964
199	0xbdbc41db	-0.091922484
200	0xbdab589e	-0.08366512
201	0x3db3884a	0.087662295
202	0xbdda7ec1	-0.10668708
203	0x3e539775	0.20663245
204	0x3aa3ede8	0.0012506815
205	0x3df7baae	0.12096153
206	0xbda26477	-0.079293184
207	0x3e0d6d36	0.13811192
208	0xbe11383c	-0.14181608
209	0xbd3c1398	-0.045917124
210	0xbe1c708d	-0.1527731
211	0x3e07a43d	0.13246246
212	0x3e8888bb	0.26666817
213	0xbe1fa01b	-0.15588419
214	0x3e032e24	0.1281057
215	0xbe5643a0	-0.20924234
216	0x3cf8f927	0.030392243
217	0x3d74e21e	0.059785955
218	0x3c8488a6	0.01617844
219	0xbea06ec0	-0.31334496
220	0x3ceee7b6	0.029163223
221	0x3d4ebdbf	0.050473925
222	0x3d2dae48	0.042402536
223	0xbd6a310b	-0.057175677
224	0xbe31b259	-0.1735319
225	0x3e168835	0.14700396
226	0xbe8a6bd4	-0.2703539
227	0xbd711dbe	-0.058866255
228	0x3e38c10b	0.1804239
229	0x3cf84de1	0.030310573
230	0xbd77faf6	-0.06054207
231	0x3d0ef83e	0.03490471
232	0xbe02b4d9	-0.127643
233	0x3e62af39	0.22137155
234	0x3decae62	0.115566984
235	0x3e1289ec	0.14310426
236	0xb85c66f5	-5.2547974e-05
237	0x3e3d48f0	0.18484855
238	0xbdea28d1	-0.11433566
239	0x3e0fcf62	0.14043954
240	0xbdab464b	-0.08363017
241	0x3e7a0090	0.24414277
242	0xbdd6332b	-0.10458978
243	0x3ce1ff07	0.027587427
244	0x3e49926f	0.19684766
245	0xb9c1046c	-0.00036815123
246	0x3dfee21e	0.12445472
247	0x3dc8d6e3	0.098066114
248	0xbdb542c3	-0.088506244
249	0xbdf8054b	-0.121103846
250	0xbdef0fd6	-0.11672942
251	0x3bf9865a	0.007614893
252	0xbc607e5b	-0.0137020005
253	0xbdb2db7d	-0.0873327
254	0x3db86cbe	0.09005116
255	0x3c5a885c	0.013338175

layers.0.attention.in_proj_bias f4 [192]
0	0x3e1d4a9c	0.15360492
1	0x3e108997	0.14114986
2	0x3d4cea20	0.050027966
3	0x3d3d4ce9	0.046215925
4	0xbe16117a	-0.14655104
5	0x3c614121	0.013748438
6	0xbe0c2462	-0.13685754
7	0x3c0e87bd	0.008699355
8	0x3e81163c	0.25212276
9	0xbd417ada	-0.0472363
10	0xbd090001	-0.03344727
11	0xbd36c4e9	-0.044621382
12	0x3e5474b5	0.20747645
13	0x3c203a1e	0.009779481
14	0xbccd1146	-0.02503265
15	0x3e48a47f	0.19594
16	0xbb8028b4	-0.003911102
17	0xbdc23f53	-0.094847344
18	0xbe5a108a	-0.21295372
19	0xbd31e9ad	-0.04343574
20	0x3e01b493	0.1266654
21	0x3e451b39	0.19248666
22	0xbcd61dc0	-0.026137233
23	0x3c52c733	0.012864876
24	0xbd9fb3f6	-0.07797997
25	0xbe55270b	-0.20815675
26	0xbe89dcdb	-0.26926312
27	0xbcdc4c51	-0.02689186
28	0xbe2237e3	-0.15841632
29	0x3de55935	0.111986555
30	0xbdf7108d	-0.12063704
31	0x3dd87a7e	0.105702385
32	0xbd81e216	-0.063419506
33	0x3dde6082	0.10858251
34	0xbd0a92af	-0.033831295
35	0xbd4e1bfa	-0.05031965
36	0xbc2ae052	-0.010429459
37	0xbd93f0f6	-0.07223694
38	0xbe0a7ad7	-0.13523422
39	0xbdda16e6	-0.10648899
40	0xbe3cd076	-0.18438897
41	0xbe08a631	-0.13344647
42	0x3db1bc48	0.0867849
43	0xbd6572db	-0.056017738
44	0xbd18a54e	-0.03726702
45	0x3adb4d25	0.0016731365
46	0x3d94f423	0.07273128
47	0xbbf5cdf2	-0.0075013572
48	0xbd8a940b	-0.06766518
49	0xbe21588d	-0.15756436
50	0xbe106771	-0.1410196
51	0xbc88e0d9	-0.016708778
52	0x3d351801	0.044212345
53	0xbd21b8b3	-0.039482784
54	0x3d47fc0d	0.04882436
55	0xbccbc14e	-0.024872448
56	0xbd5ebbfa	-0.054378487
57	0xbd56a93e	-0.052407496
58	0x3c0ded9f	0.00866261
59	0x3c2d6511	0.010583178
60	0x3de0af2a	0.1097091
61	0x3d136bb6	0.035991393
62	0xbe02aa9b	-0.12760393
63	0x3dbcb603	0.092144035
64	0xb7122b7a	-8.712401e-06
65	0x3584eaac	9.903065e-07
66	0x374ef1df	1.2334872e-05
67	0x384ea63b	4.926904e-05
68	0xb8651762	-5.461963e-05
69	0x36fd372b	7.54641e-06
70	0xb70b2519	-8.293683e-06
71	0x38568336	5.1143776e-05
72	0x375dea8d	1.3227237e-05
73	0xb75faa6b	-1.3331514e-05
74	0xb81d9d01	-3.757794e-05
75	0x366cd60f	3.529134e-06
76	0xb7790d31	-1.4844628e-05
77	0xb7d3c9d1	-2.5247138e-05
78	0x38366289	4.348395e-05
79	0xb7485f31	-1.1943092e-05
80	0x391df13f	0.00015062558
81	0xb87da274	-6.0471197e-05
82	0xb998f384	-0.00029173132
83	0xb965eea8	-0.00021928048
84	0x3831d408	4.2397558e-05
85	0x3871a5ef	5.7613415e-05
86	0x3815ebdf	3.574404e-05
87	0xb857f3a3	-5.14869e-05
88	0xb601ed79	-1.9360725e-06
89	0x38063852	3.2000542e-05
90	0x37a9534f	2.0185164e-05
91	0xb7863ecc	-1.6003287e-05
92	0xb8ca22e3	-9.638609e-05
93	0x38696ad0	5.5651006e-05
94	0xb724cdb7	-9.8230585e-06
95	0x381c15aa	3.7213475e-05
96	0xb71be51d	-9.2920645e-06
97	0x36c29c30	5.799833e-06
98	0x38372d17	4.3672593e-05
99	0xb83a31a9	-4.4392105e-05
100	0x385ca498	5.2605377e-05
101	0x37cf3a8b	2.4703584e-05
102	0xb82efe91	-4.1721916e-05
103	0x3886f746	6.435676e-05
104	0x37f2653f	2.8895794e-05
105	0xb6e9b214	-6.964672e-06
106	0x37876c13	1.614358e-05
107	0xb8654dcf	-5.467032e-05
108	0x378a3592	1.6475828e-05
109	0x375f6875	1.3316157e-05
110	0x3611d6be	2.173168e-06
111	0xb80177a1	-3.086741e-05
112	0xb9047f94	-0.00012636028
113	0x37b5303b	2.159934e-05
114	0xb90c7c6f	-0.00013397796
115	0x380a054e	3.2906704e-05
116	0x381d06c7	3.743803e-05
117	0x390671ac	0.00012821582
118	0xb905b68b	-0.00012751871
119	0x38b6a092	8.708345e-05
120	0xb8fa5751	-0.00011937193
121	0x36d5fc43	6.377262e-06
122	0x38cb464f	9.69289e-05
123	0x38a4dd2a	7.8613244e-05
124	0xb929f7a8	-0.00016209355
125	0xb8d759cf	-0.00010268727
126	0x39205032	0.00015288664
127	0xb9117e00	-0.00013875216
128	0x3d0cf7de	0.034416072
129	0xbcf9e95d	-0.030506784
130	0xbb500234	-0.0031739594
131	0xbca7cc1f	-0.020483075
132	0x3cc12840	0.023578763
133	0xbcebbe34	-0.02877722
134	0xbcbaa239	-0.022782432
135	0xbd2519b5	-0.04030772
136	0xbb35dbc9	-0.002774941
137	0xbc3c6607	-0.011498935
138	0x3ca9acfe	0.020712372
139	0xbc919a5c	-0.0177738
140	0xbc1b2a2d	-0.009470505
141	0x3d529400	0.051410675
142	0x3d315df1	0.04330248
143	0x3c514f59	0.012775266
144	0xbd0f8a80	-0.035044193
145	0xbd863811	-0.065536626
146	0x3b103a6f	0.0022007485
147	0x3c096a5b	0.0083871735
148	0xbd366d75	-0.04453798
149	0x3cd16878	0.02556251
150	0xbbc448bc	-0.005990116
151	0x3cc052f3	0.023477053
152	0x3a68f7c0	0.0008887015
153	0xba47ce73	-0.0007622011
154	0x3d1adb5e	0.03780686
155	0x3b7c91ac	0.0038538976
156	0xbd0866d4	-0.03330119
157	0x3c7675cc	0.015042733
158	0x3cb7f338	0.022454843
159	0xbc271fd7	-0.010200462
160	0xbc135622	-0.008992704
161	0xbca63b9e	-0.0202921
162	0xbc35cad9	-0.011095726
163	0xbbee2c05	-0.007268431
164	0x3bcdb8c4	0.0062781293
165	0xbd4a39c3	-0.049371492
166	0xbc4227c4	-0.011850301
167	0x3d62ba51	0.055353466
168	0xbc801a61	-0.015637578
169	0x3c0f16f0	0.008733496
170	0xbce690c4	-0.028145202
171	0xbcfd9747	-0.030955924
172	0xbc0609f0	-0.00818108
173	0x3cd7ca40	0.026341558
174	0x3cdd439c	0.027009778
175	0x3c760da2	0.015017899
176	0x3c2f4134	0.010696698
177	0xbd09ec36	-0.033672534
178	0xbd3a52f1	-0.045489255
179	0x3c2c8c16	0.010531446
180	0x3d70bca8	0.058773667
181	0xbcea3a7a	-0.028592337
182	0x3d91bc89	0.07116038
183	0xbcc273be	-0.02373683
184	0x3c4c7154	0.012478191
185	0x3ca88f88	0.020576254
186	0x3a2ebf8a	0.0006666115
187	0x3c9cf87c	0.019161455
188	0x3d677892	0.05651147
189	0x3d33e88f	0.043922957
190	0xbd0556a6	-0.032553338
191	0xbd72fd42	-0.059323557

layers.0.attention.out_proj.weight f4 [64, 64]
0	0x3b8f0dc1	0.0043656533
1	0x3b67003b	0.003524794
2	0x3b138487	0.0022509412
3	0xbc52b9e5	-0.0128617035
4	0xbb9008f5	-0.004395599
5	0xbc2c2d66	-0.010508871
6	0x3b6f7280	0.0036536753
7	0x3b385a74	0.0028130086
8	0xbb4a463e	-0.0030864622
9	0xba763290	-0.00093916897
10	0xbc9b77f8	-0.018978104
11	0x3b8fc79f	0.0043878104
12	0xbc51975c	-0.012792435
13	0xbafc191d	-0.0019233559
14	0xbc1152d5	-0.008869846
15	0x3c1fc66d	0.009751898
16	0xbab72c91	-0.0013975074
17	0xbca05b24	-0.01957471
18	0x3c8e25a6	0.017351937
19	0x3c2bd298	0.010487221
20	0x3c01d496	0.00792422
21	0x3b4f34f3	0.0031617254
22	0xbc093060	-0.00837335
23	0xbc26797a	-0.010160798
24	0x38910748	6.915495e-05
25	0xbc4e351a	-0.012585903
26	0xba237eb9	-0.00062368397
27	0xbb1f10e5	-0.0024271545
28	0xbadccc53	-0.0016845561
29	0xbb789c8e	-0.003793511
30	0xbb98f942	-0.0046683857
31	0xbc286b1b	-0.010279442
32	0xba08346f	-0.00051958015
33	0x3c522077	0.012825123
34	0xbc1ab3ca	-0.009442279
35	0xbc16e6a3	-0.0092102615
36	0x3c5db60a	0.013532171
37	0xbc6ddb1c	-0.014517572
38	0x3bade672	0.0053070122
39	0xbc9118ca	-0.017712016
40	0x3bbff3d0	0.005857922
41	0xbb6a8db6	-0.0035790033
42	0xbba94775	-0.005165989
43	0x3b3cf83c	0.0028834483
44	0x3b804600	0.0039145947
45	0xbcb346bb	-0.021884313
46	0xbc4d39f4	-0.012526024
47	0xbc11cc8f	-0.008898868
48	0xbcabf3ef	-0.02099034
49	0x3c64982d	0.013952297
50	0xbae642a9	-0.0017567474
51	0x3bbf2fbb	0.0058345473
52	0xbcab95eb	-0.02094551
53	0xbc90086e	-0.017582145
54	0xbc4dae8d	-0.012553823
55	0x3ba508c8	0.005036447
56	0xbbf9297f	-0.0076038237
57	0x3c21a752	0.009866552
58	0x3b27cf22	0.0025605639
59	0x3a7ad5cf	0.0009568603
60	0xbaaac986	-0.0013030029
61	0x3b0e9b3b	0.0021760005
62	0xbb857467	-0.004072714
63	0xbbace4e8	-0.005276311
64	0xbcf6fdf7	-0.030150397
65	0xbc09f1e6	-0.0084194895
66	0xbb63a7c3	-0.0034737445
67	0xbdadbdc5	-0.08483461
68	0x3c4d54a6	0.012532389
69	0x3c5664db	0.013085569
70	0x3b7ab6f0	0.0038256012
71	0x3b79c446	0.0038111373
72	0xbb462366	-0.0030233501
73	0x3b4aef9d	0.0030965575
74	0xbcf44ea5	-0.029822657
75	0x3c111af9	0.008856528
76	0x3c70833d	0.014679727
77	0xbc813313	-0.015771424
78	0x3d408361	0.047000293
79	0xbd8d4bbe	-0.06899212
80	0x3c4a155e	0.012334196
81	0x3c4505c4	0.0120253
82	0x3b8b3d07	0.0042492184
83	0xbd8aaa3d	-0.067707516
84	0xbc989215	-0.018624345
85	0xbcaa882d	-0.020816887
86	0x3d83be92	0.06432833
87	0xbc235626	-0.00996927
88	0xbd2155f5	-0.039388616
89	0x3c5c2eca	0.01343889
90	0xbd39d046	-0.04536464
91	0xbca33f9f	-0.019927798
92	0xbb859429	-0.0040765
93	0xbd1c7326	-0.03819575
94	0x3d322d77	0.04350039
95	0xbb815fe8	-0.0039482005
96	0xbd637d03	-0.055539142
97	0x3d2e8edc	0.04261671
98	0xbd81a135	-0.06329576
99	0xbb4f9926	-0.0031676977
100	0x3d3cc113	0.046082567
101	0x3d0cb441	0.03435159
102	0x3bb28f69	0.0054492247
103	0xbd21ac25	-0.03947081
104	0xbcd2c2bb	-0.02572762
105	0x3c94cfd5	0.018165508
106	0xbd72bec6	-0.059263967
107	0x3b4cdfd4	0.0031261342
108	0xbbf06e24	-0.0073373485
109	0xbca0a28d	-0.01960876
110	0xbd888e58	-0.06667775
111	0xbc96a505	-0.018389234
112	0xbd17ad96	-0.03703078
113	0x3b225573	0.002477017
114	0xbbd88b20	-0.006608382
115	0xbccd14b7	-0.025034292
116	0xbdcf96ff	-0.10136222
117	0xbd249c3e	-0.040188067
118	0x3d49437f	0.049136635
119	0x3be53ff6	0.00699615
120	0x3de8a234	0.11359063
121	0x3d0535f1	0.032522146
122	0x3af1db42	0.0018452185
123	0xbcad4195	-0.021149436
124	0xbcac66f0	-0.021045178
125	0xb9508157	-0.00019884609
126	0x3d2ed1f5	0.0426807
127	0x3cedf5bd	0.029047841
128	0x3bdffd7a	0.0068356367
129	0x3c81f4ce	0.015863802
130	0x3b878687	0.00413591
131	0xbccb94ad	-0.024851168
132	0x3d18b339	0.037280295
133	0xbcca8ec8	-0.024726287
134	0x3ce17822	0.027523104
135	0x3ce9c3d8	0.028535768
136	0x3cdbb99b	0.026821902
137	0x3d22819c	0.039674386
138	0xbd67c9fa	-0.056589104
139	0x3c7f93a8	0.015599169
140	0x3c11d7e6	0.008901572
141	0xbd35a9c6	-0.04435136
142	0x3df3da16	0.11906831
143	0xbccaac59	-0.024740385
144	0x3c6f1ee4	0.014594767
145	0xbce5754a	-0.02801003
146	0x3cb14a5d	0.021641904
147	0xbd922b12	-0.07137121
148	0xbdbaf63e	-0.09128998
149	0xbc98101b	-0.018562367
150	0x3d7b40a3	0.06134094
151	0xba8d3ed2	-0.0010776168
152	0xbaadf447	-0.0013271653
153	0x3a89281d	0.0010464225
154	0x3c84b00b	0.016197225
155	0xbd93b854	-0.07212892
156	0x3c16df20	0.009208471
157	0xbcb62df6	-0.022238713
158	0x3cba08df	0.022709308
159	0x3d48c279	0.04901359
160	0xbc3a0bb3	-0.011355328
161	0x3cd1bfba	0.025604118
162	0x3d86316f	0.065523975
163	0xbcea0751	-0.028567942
164	0xbdc04594	-0.09388271
165	0xbd523bd7	-0.0513266
166	0xbc627ce2	-0.01382372
167	0x3d0b8744	0.034064546
168	0xbdc64be4	-0.09682444
169	0xbd33fcff	-0.043942448
170	0x3e1cfbc5	0.15330417
171	0xbc739c11	-0.014868752
172	0xbdce7284	-0.10080436
173	0xbcfd2615	-0.030901948
174	0x3df37d89	0.11889178
175	0x3ccd1567	0.02503462
176	0xbe1b4a6d	-0.1516511
177	0xbceb581c	-0.028728537
178	0x3b5f6176	0.003408519
179	0xbab538e6	-0.0013826161
180	0x3c00f329	0.007870474
181	0xbcd1a1de	-0.02558988
182	0x3dcd7fd2	0.100341454
183	0xbb78f334	-0.0037986757
184	0x3d888d7b	0.0666761
185	0xbc848bd3	-0.016179955
186	0xbc514031	-0.012771652
187	0x3b1713b5	0.0023052518
188	0x3afcb630	0.001928037
189	0xbbea8523	-0.0071569844
190	0xbd3ab818	-0.04558572
191	0xbc35f5ec	-0.011105996
192	0x3c268606	0.01016379
193	0x3cad5446	0.021158349
194	0x3b582b2c	0.0032984717
195	0xbd9e4db7	-0.07729667
196	0xbb1fc61e	-0.0024379562
197	0xbc249945	-0.010046308
198	0x3ca387dc	0.019962244
199	0xbce7566e	-0.028239455
200	0x3c31fe8d	0.010863912
201	0x3d287b5c	0.04113327
202	0x3d17b162	0.0370344
203	0x3db3f350	0.087866426
204	0x3a7ee364	0.0009723215
205	0xbcfc1aec	-0.030774556
206	0x3cc1feab	0.023681005
207	0x3db1b29a	0.08676644
208	0x3bb6d833	0.005579972
209	0x3cc58b1f	0.02411419
210	0xbc976277	-0.018479569
211	0xbda5c815	-0.08094803
212	0xbd7b4cbf	-0.061352488
213	0xbca71baa	-0.020398933
214	0xbcfff211	-0.031243356
215	0x3df64371	0.12024582
216	0xbbc12e8e	-0.0058954423
217	0x3b22d0e8	0.0024843756
218	0xbd80f444	-0.0629659
219	0xbd328869	-0.043587122
220	0x3d679eff	0.056548115
221	0xbdaf7670	-0.08567512
222	0xbd3a92c0	-0.045550108
223	0x3bc40c8e	0.005982942
224	0xbbb7fa26	-0.005614537
225	0x3d4b488e	0.04962974
226	0x3d8c424e	0.06848584
227	0x3debe53e	0.11518334
228	0xbd399d28	-0.04531589
229	0xbd38db37	-0.045130935
230	0xbc16bec6	-0.009200757
231	0x3c97094a	0.018437047
232	0xbbeac4c8	-0.0071645714
233	0xbc3814ba	-0.01123541
234	0xbdb36635	-0.08759729
235	0xbb1b9913	-0.0023742362
236	0xbca9ebc0	-0.020742297
237	0xbda37baf	-0.07982575
238	0xbc8619b4	-0.016369678
239	0xbcfc529e	-0.030801114
240	0xbd85a268	-0.06525117
241	0xbb94dbe8	-0.0045428164
242	0x3b993196	0.0046751006
243	0xbcb11f1c	-0.02162128
244	0x3c781656	0.015142044
245	0xbc034ee5	-0.008014415
246	0x3dde3087	0.108490996
247	0xbc8ac916	-0.016941588
248	0x3c09fe99	0.008422517
249	0x3c861566	0.016367625
250	0xbc447a10	-0.011991993
251	0xbcac81cb	-0.021057984
252	0x3c17acdf	0.009257524
253	0x3cb050fb	0.02152299
254	0x3cfc0058	0.030761883
255	0x3ceae13f	0.028671859

layers.0.attention.out_proj.bias f4 [64]
0	0xbacb8c83	-0.0015529547
1	0xbd0b1e74	-0.03396459
2	0x3acff7f9	0.0015866748
3	0xbc93d942	-0.018047933
4	0xbae2b12e	-0.0017295235
5	0xbbe8b1ae	-0.007101259
6	0x3b2dd372	0.0026523736
7	0x3b62bf45	0.0034598869
8	0xbbf211c7	-0.007387373
9	0x3cfb943e	0.030710336
10	0xbb3aa23f	-0.0028478054
11	0x3bea34e8	0.00714742
12	0xbc1bdb8e	-0.009512795
13	0x3b03c233	0.0020104765
14	0x3c1b867e	0.009492515
15	0x3bde2b91	0.006780096
16	0x3b4ff89e	0.003173388
17	0xbbc7ad47	-0.0060936543
18	0xbb7d3daa	-0.003864149
19	0x3a8f3ebb	0.0010928729
20	0x3b7bc20d	0.0038415224
21	0x3b7ddc6c	0.0038736118
22	0xbc67f2bd	-0.014156994
23	0x3c4bbb52	0.012434797
24	0x3a70914a	0.0009176923
25	0x3d1108f9	0.035408948
26	0xba763794	-0.0009392437
27	0x3c58c674	0.013230909
28	0xbc0d0890	-0.0086079985
29	0xbc6ccf0c	-0.014453661
30	0x3cc66b1a	0.024220992
31	0x3c029454	0.0079699345
32	0xbbf71dc9	-0.0075413925
33	0x3b743645	0.0037263792
34	0x3d4ca3aa	0.04996077
35	0xbcd3c765	-0.025851915
36	0xbb8dd431	-0.0043282737
37	0xbb031df4	-0.0020006867
38	0x3ca6943a	0.020334352
39	0x3a86bb71	0.001027925
40	0xbaaa9127	-0.001301323
41	0xbb6ffa09	-0.0036617538
42	0x3c86353c	0.016382806
43	0xbb83798c	-0.0040122923
44	0x3aa21bb5	0.0012367876
45	0x3be1e794	0.0068940613
46	0xbc673343	-0.014111343
47	0xbb516de5	-0.0031956371
48	0x3d321bff	0.04348373
49	0xbb1d9ca6	-0.0024049669
50	0x3bc52e68	0.006017495
51	0xbbe161b8	-0.006878104
52	0xbbbe69b0	-0.005810939
53	0x3c25c297	0.010117195
54	0xbc6062e1	-0.01369545
55	0xbc43b8ad	-0.011945886
56	0xbbc3d0d6	-0.005975823
57	0x3c6c5651	0.014424876
58	0x3b829a0e	0.00398565
59	0xbd17f3da	-0.03709779
60	0x3c6388c7	0.013887591
61	0xbc0bb3c9	-0.008526751
62	0x3bac004f	0.00524906
63	0x3b18cb19	0.0023314415

layers.0.norm2.weight f4 [64]
0	0x3f6dc2b7	0.92875236
1	0x3f909e2c	1.129827
2	0x3f38fa3e	0.7225684
3	0x3f666222	0.8999349
4	0x3f5ac01d	0.8544939
5	0x3f2f8a7e	0.685707
6	0x3f4fd21c	0.81179976
7	0x3f3a60f4	0.7280419
8	0x3f47329a	0.77811587
9	0x3f7aeef3	0.9802086
10	0x3ef6ebe7	0.48226854
11	0x3f55e04e	0.83545387
12	0x3f4bfb31	0.7968016
13	0x3f1283fe	0.57232654
14	0x3f40e032	0.75342095
15	0x3f221178	0.63307905
16	0x3f5f4df7	0.8722834
17	0x3f54aff9	0.8308101
18	0x3f38eba9	0.7223459
19	0x3f3ffe6a	0.7499758
20	0x3f3582e7	0.70902866
21	0x3f7ea656	0.9947256
22	0x3f6cf861	0.92566496
23	0x3f6e2ebd	0.93040067
24	0x3f481cef	0.7816915
25	0x3f92623e	1.1436231
26	0x3f424889	0.7589193
27	0x3f56d037	0.8391146
28	0x3f5d9424	0.8655417
29	0x3f72f2f9	0.94901997
30	0x3f831a67	1.0242432
31	0x3f5b6435	0.8569978
32	0x3f65e3b9	0.898006
33	0x3f48897d	0.7833479
34	0x3f7b2cfb	0.9811551
35	0x3f75d0d6	0.96021783
36	0x3f6e92a1	0.9319249
37	0x3f6f86f3	0.9356529
38	0x3f5b0106	0.85548437
39	0x3f527a51	0.8221789
40	0x3f1354f7	0.5755152
41	0x3f68adf6	0.90890443
42	0x3f5046a7	0.81357807
43	0x3f5dd96a	0.8665987
44	0x3f51a88d	0.81897813
45	0x3f5a581b	0.8529069
46	0x3f670b5d	0.90251714
47	0x3f41d9ce	0.7572297
48	0x3f828080	1.0195465
49	0x3f056977	0.5211405
50	0x3f3dc3bd	0.741268
51	0x3f3eb34a	0.74492323
52	0x3f473f97	0.77831405
53	0x3f4999fd	0.7875059
54	0x3f255de1	0.6459637
55	0x3f5f54b0	0.872386
56	0x3f1beb96	0.6090635
57	0x3f62525f	0.8840694
58	0x3f4f3ad3	0.80949134
59	0x3f4b86ae	0.7950238
60	0x3f48db8f	0.7846002
61	0x3f385491	0.7200404
62	0x3f1f49f8	0.6222224
63	0x3f6b7a41	0.9198342

layers.0.norm2.bias f4 [64]
0	0xbd1e618e	-0.038667254
1	0x3e7506f6	0.23928437
2	0x3c932520	0.017962039
3	0x3e35968b	0.17733209
4	0xbd3e563e	-0.046468966
5	0x3cd2aae6	0.025716256
6	0xbe8b64c3	-0.27225313
7	0xbd9b4169	-0.07580835
8	0x3e4801ca	0.19531932
9	0xbcad7446	-0.021173608
10	0xbebb7f32	-0.3662048
11	0xbd5d520a	-0.054033317
12	0x3dc9e4f4	0.098581225
13	0xbe7f2e3c	-0.24919981
14	0x3ccc67d8	0.02495186
15	0xbd36fe49	-0.0446761
16	0x3dd2c56a	0.1029156
17	0x3eb1754c	0.34659803
18	0x3e388963	0.18021159
19	0xbd988014	-0.07446304
20	0xbe4615af	-0.19344209
21	0x3cebfbad	0.028806532
22	0x3db1a1a8	0.086734116
23	0x3d9fee86	0.078091666
24	0x3c49fe1d	0.012328652
25	0xbe345f8b	-0.17614572
26	0xbdbda621	-0.09260202
27	0x3d093dd8	0.033506244
28	0x3e1eb093	0.15497045
29	0x3e136e30	0.14397502
30	0x3c9f78c8	0.019466773
31	0x3e3eb1f6	0.18622574
32	0x3e5cb5e1	0.21553756
33	0x3daacbeb	0.083396755
34	0xbde5fd16	-0.11229913
35	0x3ec1c549	0.3784583
36	0x3d1cf34e	0.03831797
37	0x3be8ca87	0.0071042213
38	0xbe2a2f7e	-0.1661968
39	0x3e27aac6	0.16373739
40	0xbe624238	-0.22095573
41	0x3cea1c00	0.028577805
42	0x3d66ee41	0.05637956
43	0x3e2a4401	0.16627504
44	0x3ddb14db	0.10697337
45	0xbdbce8e9	-0.092241116
46	0x3d92d31a	0.07169171
47	0x3d707d48	0.058713228
48	0x3b288858	0.0025716033
49	0xbd8522cd	-0.06500778
50	0x3e069399	0.13142242
51	0x3e38aba8	0.18034232
52	0xbd8f339c	-0.069922656
53	0xbdf52d71	-0.11971558
54	0x3e17f49c	0.14839405
55	0x3d15bcde	0.03655707
56	0xbe185225	-0.14875086
57	0x3c268ad6	0.010164937
58	0x3df3ec1f	0.11910271
59	0x3ea03489	0.3129008
60	0x3dae8971	0.085223086
61	0x3de4ef3a	0.11178441
62	0xbd47c8f3	-0.048775624
63	0xbc807af2	-0.015683625

layers.0.ffn.0.weight f4 [256, 64]
0	0x3dd7f947	0.10545593
1	0xbe88a66f	-0.2668948
2	0x3e1af92a	0.15134111
3	0xbcdf498c	-0.02725675
4	0x3eaa1ea9	0.33226517
5	0x3c09a17c	0.008400317
6	0x3d485487	0.048908737
7	0xbe06e889	-0.13174643
8	0x3e05e534	0.13075715
9	0x3e46f63b	0.19429867
10	0xbdb13254	-0.086521775
11	0x3e7d2d02	0.247242
12	0x3e867ab6	0.26265496
13	0xbdf0cbde	-0.117576346
14	0xbdcbd07d	-0.09951875
15	0x3d6014f9	0.0547075
16	0xbc183e99	-0.009292268
17	0x3d98063e	0.074230656
18	0xbd1fe967	-0.03904095
19	0x3dc8c4cc	0.09803161
20	0xbdfa25bc	-0.122142285
21	0x3ba9ba33	0.0051796674
22	0x3e033caa	0.1281611
23	0xbe571542	-0.21004203
24	0x3dc778b7	0.097398214
25	0xbd607bde	-0.05480563
26	0x3e51df03	0.20495228
27	0xbe8babc9	-0.272795
28	0x3e06d89a	0.13168564
29	0x3e2ecaa2	0.17069486
30	0x3d9c4a28	0.07631332
31	0x3d64cae7	0.055857565
32	0x3ca33c97	0.019926352
33	0xbd9b5023	-0.07583644
34	0xbd2227ec	-0.039588854
35	0xbe006179	-0.12537183
36	0x3e088921	0.1333356
37	0x3d8ef8ae	0.06981026
38	0x3d846b9c	0.06465837
39	0x3dec73bf	0.11545514
40	0xbe134623	-0.14382224
41	0x3cdfce42	0.027320031
42	0x3e7bff52	0.24609116
43	0x3d65e5c4	0.056127325
44	0xbbeb1227	-0.007173795
45	0x3d638a61	0.05555189
46	0xbd64656a	-0.05576078
47	0xbe0e6081	-0.13904001
48	0x3e1352c8	0.14387047
49	0x3d1b9819	0.03798685
50	0x3d7cfb82	0.061763294
51	0x3c9351d2	0.01798335
52	0x3bc8ae79	0.0061243144
53	0xbdc32bc0	-0.09529829
54	0xbb9c10f8	-0.004762765
55	0xbd0a1da2	-0.033719666
56	0xbe203be0	-0.1564784
57	0xbd3d33d4	-0.046192005
58	0xbd5b1690	-0.053488314
59	0xbd68eab9	-0.056864474
60	0x3dc35e05	0.09539417
61	0x3cda5782	0.026653055
62	0xbd21b424	-0.039478436
63	0x3d34a368	0.04410115
64	0x3f3bfc60	0.7343197
65	0xbc683d8b	-0.014174829
66	0x3e72534c	0.23664588
67	0xbe25c9c6	-0.16190252
68	0xbbd891b9	-0.0066091684
69	0xbe8f1e30	-0.2795272
70	0xbd94d345	-0.07266859
71	0x3dab1e0d	0.08355341
72	0x3e2258eb	0.15854232
73	0x3dbcbe0e	0.092159376
74	0xbe3d9e3b	-0.18517391
75	0xbe22c738	-0.15896308
76	0x3da77843	0.08177235
77	0x3be45429	0.0069680405
78	0x3eccc4a4	0.39993775
79	0xbd0bb1b0	-0.034105003
80	0xbc9f0428	-0.019411162
81	0xbd5cb4fc	-0.053883538
82	0x3e1e335d	0.15449281
83	0xbc964a44	-0.01834596
84	0xbf451e04	-0.76998925
85	0x3db2e960	0.08735919
86	0x3cedd3fc	0.029031746
87	0x3e58f46c	0.2118699
88	0x3cef09c8	0.029179469
89	0x3d98e373	0.074652575
90	0x3ebd34f3	0.3695446
91	0x3dbe2d4f	0.09285986
92	0xbde3139e	-0.11087726
93	0x3de778db	0.11302348
94	0x3dde0038	0.108398855
95	0x3e1aa54c	0.15102118
96	0x3d218794	0.039435938
97	0x3e2e478a	0.17019477
98	0xbe3ac6e3	-0.18239932
99	0x3e839d91	0.2570615
100	0xbe340ef5	-0.1758383
101	0x3d7c11e5	0.061540503
102	0xbb2b660d	-0.0026153356
103	0xbc8b92c0	-0.01703775
104	0xbe4efd07	-0.2021371
105	0x3d62a332	0.055331416
106	0x3d92621f	0.07147621
107	0x3f3006f4	0.6876061
108	0x3e4b4a31	0.1985252
109	0xbe4588b3	-0.19290428
110	0x3ccac938	0.024754152
111	0xbcef1cfa	-0.029188622
112	0x3c307a9c	0.01077142
113	0xbef41fbe	-0.47680467
114	0x3dff5b6e	0.12468611
115	0xbe34e0fa	-0.17663947
116	0xbf0164c3	-0.50544375
117	0x3ce23755	0.027614275
118	0x3e1232b0	0.14277148
119	0xbd25f943	-0.040520918
120	0xbde70a7c	-0.112812966
121	0xbe0722ca	-0.13196865
122	0x3ed19cda	0.4093998
123	0x3e36e9be	0.17862603
124	0x3e84566a	0.2584718
125	0xbdf34100	-0.11877632
126	0x3e2d61b4	0.16931802
127	0xbdeb0eba	-0.11477418
128	0x3d7a9edf	0.061186668
129	0x3d8e4bb9	0.06948037
130	0x3e200e0f	0.15630363
131	0x3d96adfe	0.07357405
132	0x3dd8e377	0.105902605
133	0x3df64ffe	0.12026976
134	0xbda63a06	-0.08116536
135	0xbd62a0dd	-0.055329192
136	0xbd14cbc0	-0.036327124
137	0x3dab8f3d	0.0837693
138	0xbd883f04	-0.06652644
139	0x3de398fd	0.111131646
140	0x3d840e47	0.06448036
141	0xbdbb8c08	-0.09157568
142	0xbcf34c85	-0.029699573
143	0x3b8fdeff	0.004390597
144	0xbe21cb8e	-0.15800306
145	0xbd51d93c	-0.05123256
146	0x3dbf66d7	0.09345787
147	0x3c4b9a0c	0.012426864
148	0x3d826422	0.06366755
149	0x3c425f58	0.011863552
150	0xbb8dc81c	-0.0043268334
151	0xbd0afcc4	-0.033932462
152	0x3d86dba5	0.065848626
153	0x3da42205	0.08014301
154	0x3e407cfc	0.18797678
155	0xbe3d9b1a	-0.18516198
156	0x3e04fae4	0.12986332
157	0xbcfc77cb	-0.03081884
158	0x3d08b11c	0.03337203
159	0x3b8562e3	0.004070626
160	0x3d64c91d	0.05585586
161	0xbd9317b8	-0.07182258
162	0x3dda4186	0.10657029
163	0xbe2bc99d	-0.16776128
164	0x3de69d66	0.1126049
165	0x3d8c223f	0.068424694
166	0xbd582e95	-0.0527788
167	0xbbada87d	-0.0052996264
168	0xbd6009c7	-0.054696824
169	0xbda5f3e5	-0.0810316
170	0x3d9fc0c6	0.078004405
171	0xbd42437e	-0.047427647
172	0x3d8ad6d8	0.067792594
173	0x3e18928a	0.1489965
174	0x3e139f9b	0.14416353
175	0xbd8974e7	-0.067117505
176	0xbc79c404	-0.015244488
177	0x3cbdc953	0.023167288
178	0xbdffe0c9	-0.12494046
179	0x3e20fce2	0.15721467
180	0x3c8fe8ce	0.017567065
181	0xbd67fd73	-0.056638192
182	0x3e56628b	0.20936029
183	0xbbd307bb	-0.0064401305
184	0x3d922966	0.071368024
185	0x3d7c8adb	0.06165586
186	0x3d685c83	0.05672885
187	0x3c984d9b	0.018591693
188	0x3c6299d1	0.013830618
189	0x3d0733c6	0.03300836
190	0x3cf12da5	0.02944071
191	0x3d2a755e	0.041615836
192	0xbe0fd59e	-0.14046332
193	0xbd953990	-0.0728637
194	0xbd566739	-0.052344535
195	0xbe428b3a	-0.18998423
196	0xbd6919ea	-0.05690948
197	0xbde19480	-0.11014652
198	0x3dccdedc	0.100034446
199	0x3e2d2233	0.16907577
200	0x3cd9037f	0.026490925
201	0x3e3bb892	0.18332127
202	0xbcc5ba35	-0.024136642
203	0x3e210950	0.15726209
204	0x3d8199dd	0.06328175
205	0x3d65ea4d	0.05613165
206	0x3a86dcfb	0.0010289246
207	0x3ac85cbf	0.001528643
208	0x3d73a7e6	0.059486292
209	0xbd97390b	-0.07383927
210	0xbd332d6e	-0.043744497
211	0x3cdbfeb9	0.02685486
212	0x3d982793	0.07429423
213	0xbd9c5afe	-0.07634543
214	0xbd72db5b	-0.059291225
215	0x3cc4af93	0.024009502
216	0xbe1a71a8	-0.15082419
217	0x3df0ed12	0.117639676
218	0x3d96eb05	0.07369045
219	0x3d88f47d	0.066872574
220	0x3c6b260e	0.014352335
221	0xbdea08b2	-0.1142744
222	0x3e951432	0.2911697
223	0xbc89d6a6	-0.016825985
224	0x3d864a9a	0.06557198
225	0xbe00ed84	-0.12590605
226	0x3e65fc1c	0.22459453
227	0xbe590e0f	-0.21196769
228	0x3d78090b	0.0605555
229	0x3df1e9de	0.11812185
230	0x3ca2ce19	0.019873666
231	0xbee917bc	-0.4552592
232	0x3c999490	0.018747598
233	0x3d042791	0.032264296
234	0x3d19cbc4	0.03754784
235	0xbd672530	-0.05643195
236	0x3ccd36cf	0.025050549
237	0x3c80c5c0	0.015719295
238	0xbd674c9b	-0.05646954
239	0xbda12428	-0.078682244
240	0x3e5c36f9	0.21505345
241	0xbd4c1d61	-0.049832705
242	0x3d07e292	0.03317506
243	0x3cd2fb89	0.025754707
244	0x3db9648d	0.09052382
245	0x3e16afa1	0.14715435
246	0x3d5092f5	0.0509214
247	0xbd812b54	-0.06307092
248	0xbcb6c2eb	-0.022309741
249	0x3e18b27a	0.14911833
250	0x3d678837	0.05652639
251	0xbe36c8a3	-0.17849974
252	0x3e28b0e6	0.16473731
253	0xbd9b4e9b	-0.07583352
254	0x3dcb85ca	0.099376276
255	0x3dc7d8dc	0.097581595
