checkpoints_cartpole/model_best.pth (torch, 413538 bytes, 30 tensors)

pos_embedding f4 [1, 5, 64]
00000000: 1d57 cd3d b2d6 09be b076 013e 9295 e53d
00000010: d953 16be 188e 8abe 80d6 bdbb f6e7 873d
00000020: f659 693c d8ba e3bc 0df3 403e d262 0cbe
00000030: 1531 5fbe c2e2 ce3b 3d81 acbd 55d2 073e
00000040: 3cf4 1bbd 5aa3 7a3d b9c7 2f3e 0477 85bd
00000050: 8d97 f63d ad27 be3d 9583 95bd 113a 67bd
00000060: 767b 08be b35b a13d 15e7 e4bd e43d 7ebe
00000070: 2588 803e 34d7 c5bd 9fe1 f5bd d3c1 3bbe
00000080: 2281 c53d 8302 98be 0fda 91be efe2 2a3e
00000090: a659 543e 0401 103e 1236 843e b63b 03be
000000a0: 6ae5 0d3e 4acc acbd 9f4c 11be 13dd 40be
000000b0: 0d0e 903c 90ce 59bd b95c aebd 12e3 1c3e
000000c0: 719a d63c 62be 9e3d a8f2 3d3d 90c5 debd
000000d0: d5b1 753d 8122 e53d 288a 8dbd 8293 9b3d
000000e0: e104 3e3d 7d12 973d 931f c7bd ad36 a73c
000000f0: b389 d43d 7899 5fbe 046f a33d 77f4 1cbd
00000100: 51a1 24bd 8671 8dbe b3c1 fb3c fbe1 b4bd
00000110: a7bc 2ebe 571a 143e 3223 193e 463e 913d
00000120: cea1 ad3d e992 5abc 0621 42bb 6358 e6bd
00000130: d792 093e 3e11 73be 20b2 be3d 1c4a d13d
00000140: e298 7dbe b1ba 273e b3e2 5abd 0063 6cbe
00000150: 4f57 903d 0744 97be 6f76 683e 1e8b 07be
00000160: 379f 7e3d 114d c9bd 3273 493e 97c5 583e
00000170: 0c9b 3c3e a0a2 75be 518a 94bd 5768 573e
00000180: 522f efbd 557f bfbd 4a67 513d be81 0f3e
00000190: 1a89 03be 2181 1d3e 2e7d a6bd 8a4d d8bc
000001a0: 49ca 6b3d a7e6 e93d 618e f0bd 978d f4bd
000001b0: cc7f 9c3d 5177 52bb d445 263e 886f 55be
000001c0: efd3 d8bd 4450 323e 3bc2 333e 8dda d73d
000001d0: c8a2 e4bd e28e a2bb b45b a83e ed4e e5bd
000001e0: 18a5 8ebe 3593 92be 313f 583c 2712 6cbe
000001f0: de7e 993d 9672 d3bd 61a1 993d b783 413c
00000200: b89c 8e3e f00f 3cbe c2f9 5bbe 5e69 093d
00000210: ce06 853c 163d 7c3e 0fde 97be 76ef 303d
00000220: d2d3 b9be 49a2 c33e c057 22be 05f0 b9bc
00000230: b73c 70be 726d ed3d 870d ed3d 4594 923d
00000240: c85a 0a3e 7186 2f3e b19c 36bd 40db 11be
00000250: f8d3 743d 9dcc edbd d974 e03d a6d1 d0bd
00000260: 30bb 46bd 9253 473b f66a 69be 7b21 75bc
00000270: 7d89 0abf 743d 7c3d 9e96 193e 6b9b 93be
00000280: 159e 94be e283 efbd d95c f43e fdfe 423e
00000290: 773b 09be b366 95bd a816 5bbe 24d4 333e
000002a0: 1227 4e3e 1dd1 a83d eaa6 5bbe bc50 ee3e
000002b0: 8494 783e 49d1 1dbe 64b8 4dbe ea17 283d
000002c0: 8c2e aabe 8814 b6be 9d21 51bd 4622 513e
000002d0: 59d8 af3e 404e 213e fc4f d63d 80b4 5e3d
000002e0: 3610 7fbe 0e2b 413d 99a3 e1bc 2b50 6e3d
000002f0: dbd2 8cbe c422 d03e d54b 2a3e 3f9e 0c3d
00000300: 52a0 2ebf d931 0c3f 6a5e 05bd f3cd 2dbe
00000310: 96b4 c23e 50cd 123e c906 593d d63d 52bd
00000320: 0a3d eabd 6ee2 97bd dfe5 f1be 5787 47bd
00000330: d6bb 463e c6e0 c33e 003e c3bd 177e 92bd
00000340: 5053 e53d 9977 a73d 6f2e 00bf b77d 983d
00000350: 85a0 253e 1286 3abe f2ff babe 0db5 81bd
00000360: 888d a93d fd4d 173f 2b73 5cbe dadc c2bd
00000370: 58fe 6cbe 1949 9c3e abe6 9f3d 08f5 973e
00000380: de9c 5fbe 45c5 003e 52b9 b8bd e45f a7bc
00000390: 2db8 58be 63a8 afbe b867 c7be 84ce 833e
000003a0: aca7 99be e508 e9bb f567 113e e3f4 a2bd
000003b0: 4d99 923d c019 0dbe 1419 863e 48cb 4c3b
000003c0: 3071 193f 414c fa3d 62df b8be 5c20 84be
000003d0: 88bb 0a3e 75ed b9bc 8b94 d7be 070a fcbe
000003e0: 8bae 023f 8357 5bbd 0c2a 903d 46ca 653e
000003f0: ebdb 80bd 9cdd 5f3e 239e 44be 68df d03d
0.10026381 -0.13460806 0.12642932 0.11210169 -0.14680423 -0.27061534 -0.0057933927 0.0663604
0.01424264 -0.027799055 0.18842717 -0.13709572 -0.21796067 0.0063136527 -0.08423088 0.13263829
-0.038074717 0.06119094 0.17166032 -0.06516841 0.12040625 0.09284911 -0.07300488 -0.05645186
-0.13328347 0.07878818 -0.11176888 -0.24828297 0.2510387 -0.09660187 -0.120059244 -0.18335657
0.09643771 -0.29689416 -0.28486678 0.16688131 0.20737323 0.14062887 0.25822502 -0.12815747
0.13857046 -0.084374025 -0.14189385 -0.18834333 0.017584825 -0.05317551 -0.08513779 0.15320995
0.02619669 0.077511564 0.046373993 -0.10877526 0.059984047 0.11188222 -0.06911117 0.07596494
0.04639137 0.07376573 -0.09722819 0.020411814 0.103778265 -0.21835887 0.07980159 -0.038319077
-0.040192906 -0.27625674 0.030732011 -0.08832165 -0.17064153 0.14463173 0.14954832 0.07091956
0.084781274 -0.01334069 -0.0029621734 -0.11247327 0.13434921 -0.23737046 0.093113184 0.10219213
-0.24765351 0.16379811 -0.053438853 -0.2308464 0.07047903 -0.29544088 0.22701429 -0.13236663
0.062163558 -0.098291524 0.1967285 0.21169125 0.1841852 -0.23987818 -0.07252944 0.21035896
-0.116789475 -0.093504585 0.051123895 0.14014336 -0.12845269 0.1538129 -0.08129345 -0.026404161
0.05756596 0.114209466 -0.117459066 -0.119410686 0.07641563 -0.0032114575 0.16237575 -0.20843327
-0.10587298 0.17413431 0.17554562 0.10539732 -0.111638606 -0.0049608806 0.32882464 -0.111966945
-0.27860332 -0.28627935 0.01319866 -0.230538 0.07494901 -0.1032459 0.07501484 0.011811188
0.27853942 -0.18365455 -0.21481994 0.03354775 0.016238596 0.24632677 -0.29661605 0.043197118
-0.3629442 0.3820975 -0.15853786 -0.022697458 -0.23460661 0.11593141 0.11574846 0.071571864
0.13511193 0.17141129 -0.044583026 -0.14243793 0.05977246 -0.116112925 0.10959787 -0.10196237
-0.04851836 0.0030414802 -0.22794709 -0.014961596 -0.5411604 0.061582044 0.14998862 -0.28829512
-0.29026857 -0.116950765 0.47727087 0.19042583 -0.1340159 -0.07294979 -0.21395361 0.17561394
0.20132092 0.0824301 -0.21450391 0.4654597 0.24275404 -0.15411867 -0.2008987 0.04103843
-0.33238637 -0.3556254 -0.051057447 0.2042323 0.34344748 0.15752506 0.104644746 0.054371357
-0.24908528 0.0471602 -0.02754383 0.058181923 -0.2750462 0.40651524 0.1663049 0.034330603
-0.6821338 0.5476356 -0.032560743 -0.16973095 0.380284 0.14336133 0.052984986 -0.051328503
-0.114374235 -0.07416235 -0.4724569 -0.048713055 0.19407591 0.38257426 -0.0953331 -0.07152956
0.11197531 0.08177108 -0.5007085 0.07445853 0.16174515 -0.18215206 -0.36523396 -0.06333361
0.08278948 0.59103376 -0.21528308 -0.0951478 -0.231439 0.3052452 0.07807668 0.29679132
-0.21837184 0.12575252 -0.09019722 -0.020431466 -0.21164007 -0.34308156 -0.3894632 0.25743496
-0.30010736 -0.007111656 0.14199813 -0.07956865 0.07158146 -0.13779354 0.26191008 0.0031249095
0.59938335 0.122215755 -0.36107928 -0.25805938 0.135481 -0.022696236 -0.42105517 -0.492264
0.5104758 -0.053550255 0.0703927 0.22440442 -0.06291946 0.21861881 -0.1920095 0.10198861

feature_encoding.0.weight f4 [64, 1]
00000000: 273a febe 3c78 0abf d97b f4be 8a14 90be
00000010: 4a5d bcbe 4c9a d53d 300b 383f 98e7 d3be
00000020: eb4e 9d3e e7fd a0be a79b 813e 40cb 653f
00000030: 72d4 823e 4d11 063f f0ec 79bf eb69 ed3e
00000040: 2f8e 043f e1b9 793f 8138 c9bd 3c64 60bf
00000050: ab56 22bf 60f5 a53e 6a6c a43e 9aac 103e
00000060: 7474 41bf 2573 1a3f 01bb 56bf 31ce b4be
00000070: d12c 8dbd fe22 003f 02fa 563f 0003 473f
00000080: 1ea1 58be b159 1b3f 2cf7 e53e f08b f1be
00000090: 1df0 3c3f 90a3 383e 30cf d53e 0c7a 1cbf
000000a0: 6e47 2bbf 22b3 b63e 4ac3 4cbf 4294 30bf
000000b0: 5bd5 343f d5c1 58bf 7abf e33e dbf2 223e
000000c0: cc6b 513f c727 3cbe 98bd 3abf 1ebd 2d3f
000000d0: 1ca2 98bd 227a cbbe 8912 303f b525 5dbf
000000e0: 27da 17bf b17b 713e 8345 26bf 0703 9dbe
000000f0: 835b 47bf c68d 84be c0d0 543f 6f94 193f
-0.49653742 -0.54089713 -0.47750738 -0.2814067 -0.36789924 0.104298204 0.7189207 -0.4138763
0.30724272 -0.31443712 0.25314066 0.8976326 0.25552708 0.5237015 -0.9762716 0.46369871
0.51779455 0.97549254 -0.098252304 -0.87652946 -0.63413495 0.3241377 0.32113963 0.14128342
-0.7556832 0.60331947 -0.83879095 -0.35313562 -0.06893314 0.50053394 0.8397523 0.7773895
-0.21155211 0.60683733 0.4491514 -0.47177076 0.73803884 0.18031144 0.41759634 -0.6112373
-0.6690587 0.35683542 -0.7998549 -0.68976223 0.70638055 -0.84670764 0.44482023 0.15912955
0.8180511 -0.18374549 -0.7294555 0.67866695 -0.07452795 -0.39741617 0.6877828 -0.8638566
-0.5931725 0.23582341 -0.64949816 -0.30666372 -0.7787401 -0.25889415 0.8313103 0.59992117

feature_encoding.0.bias f4 [64]
00000000: 888f 3fbf e436 493f 9962 6bbe 9aad 60bd
00000010: 640e a0be c372 393f 3a48 e1be a831 6f3f
00000020: 9a25 df3e cb61 633f 2c3c d1be cf9a b73d
00000030: 5135 00bf ad9a 9ebe 878b 3ebf ddb0 9abd
00000040: 7804 6fbf ca10 43be 3289 293e b3de bebe
00000050: 044c 7a3f ca61 2e3f 8e32 da3e deeb 593f
00000060: a80d 773f e6a3 7c3f 248b 1e3f 9b94 a63e
00000070: 2b79 bb3e 02c0 6c3f e8d4 0bbf 78c3 1d3f
00000080: b30b 8dbe c582 393f 80d2 1d3f 62a9 53bf
00000090: f6ce 6d3e 669b 0f3f 4673 1ebe bb99 cfbe
000000a0: 0e89 11bf 4a8d fe3e 93e3 8cbe 940a 753e
000000b0: 4ed7 f8be 0ec3 c83e d666 6e3f 65c6 ae3e
000000c0: ecb1 083f 6d28 e4be 731d d8bd f8b9 573f
000000d0: 41c2 813e 2813 833d b6a4 71be 8e13 1ebf
000000e0: 8137 273f 7bd1 683f 26e0 503f ff14 3c3f
000000f0: cc46 ed3d f99b 983e a8d5 033f 64e4 863e
-0.74828386 0.7859938 -0.22986831 -0.05485306 -0.3126098 0.7244074 -0.44000417 0.93435144
0.43583375 0.88821095 -0.4086622 0.08965074 -0.50081354 -0.30977383 -0.7443165 -0.07553265
-0.93366194 -0.19049373 0.16556242 -0.3727928 0.9777224 0.68117964 0.42616695 0.8512553
0.9650521 0.9868759 0.6193106 0.32535252 0.3661588 0.9248048 -0.54621744 0.61626387
-0.27547988 0.72465163 0.6164932 -0.8268033 0.2322348 0.56096494 -0.15473661 -0.40546975
-0.56849754 0.4971717 -0.27517375 0.23929816 -0.48601764 0.39211315 0.93125665 0.34135738
0.5339649 -0.44562092 -0.10552492 0.8426814 0.25343516 0.06400138 -0.23597988 -0.6174859
0.6531907 0.9094464 0.81592023 0.7346954 0.11585769 0.29806498 0.5149789 0.26346123

feature_encoding.1.weight f4 [64]
00000000: 1d11 8f3f 8c46 633f 65a9 973f 9675 833f
00000010: dec2 953f 8caf 7f3f ae2c b53f 7018 5d3f
00000020: 521b 6d3f 2748 723f a79b a03f 752e 783f
00000030: a1ff b63f 630c 8d3f 90ad a03f 0fa5 8c3f
00000040: 42d3 b83f cf33 8a3f e6c7 773f 53bb 883f
00000050: 0d1b 6e3f 52c7 5c3f 0cf0 613f 217b 693f
00000060: 8d3c 583f 9296 723f ee6c 463f 7ab2 713f
00000070: ad6e 693f b8c7 7c3f 0295 b53f c63f 573f
00000080: a1d4 733f c38d 5e3f 84c3 613f 0bb5 b93f
00000090: 9d88 713f 28bc 5c3f ed22 843f 35a3 a53f
000000a0: ecbf 943f 1083 6b3f 49e5 833f d1d5 6d3f
000000b0: 489c a83f f6e0 4a3f 005b 773f 2d04 763f
000000c0: eac6 643f 247c 423f 8cc4 7f3f 53f3 6a3f
000000d0: c01c 833f 658a 7f3f 775d 8f3f 0720 b93f
000000e0: e2c4 513f 46b5 5a3f 7330 4b3f 8699 6a3f
000000f0: f8cf 673f a3d0 7d3f 2b49 733f 1f6a 753f
1.1177098 0.8877952 1.184857 1.0270259 1.1700094 0.9987724 1.415426 0.86365414
0.9261981 0.94641346 1.2547501 0.9694589 1.4296762 1.1019405 1.2552967 1.0987872
1.4439471 1.0797061 0.96789396 1.0682167 0.93010026 0.8624164 0.8825691 0.91203505
0.84467393 0.94761 0.77509964 0.9441296 0.911845 0.98742247 1.4186099 0.84081686
0.9524632 0.8693506 0.8818896 1.4508375 0.9434908 0.86224604 1.0323159 1.2940432
1.162107 0.9199686 1.0304347 0.9290438 1.3172693 0.79249513 0.9662323 0.9610012
0.8936602 0.75970674 0.9990928 0.91777533 1.0243149 0.9982055 1.1200398 1.4462899
0.81941044 0.8543285 0.793708 0.9164051 0.9055171 0.9914648 0.9503352 0.9586505

feature_encoding.1.bias f4 [64]
00000000: 762b efbd 4a43 a5bd 7c7c 3fbd be94 55bd
00000010: 0ff6 3fbd 0595 e5bc 12f9 18bd 910c dabd
00000020: 652a 2dbd 948e 5dbd ffb7 d2bd 3d35 7b3d
00000030: b85c 86ba 9348 2abd 9769 9cbd 88b1 4abd
00000040: bbba 8f3c 9015 ddbd b4ec 4fbd 5ba2 b4bd
00000050: 7f7e 56bd 349e 0abe 5bed c8bc 7d40 ccbd
00000060: 20b8 afbd 94cc 9bbd 7658 3fbe bead 42bc
00000070: be02 80bd 002a 3ebd a6d4 07bd f18c 70bd
00000080: 5fbf 24be 2623 c2bd aecf bbbd e685 e13c
00000090: 752e adbd 4ba3 00be 200f cbbd e328 f9bc
000000a0: 2ad2 15bd de47 63bd ff1c 76bd 31c1 c6bd
000000b0: bd16 7abd 7d06 35be 0772 a0bd 3eef 3cbd
000000c0: 8637 acbd c383 43be e55c 5cbd fd39 14bd
000000d0: 6a6c 4a3c 77cb e4bc a4cb a3bd 3254 bebc
000000e0: 74ab 1cbe a21e 2dbe afd9 bcbd 1488 79bd
000000f0: d361 f4bc 5ae1 07ba 59a3 4fbd 4db7 bfbd
-0.116782114 -0.08069475 -0.046749577 -0.052143805 -0.04686552 -0.02802516 -0.037346907 -0.10646928
-0.04227676 -0.05409105 -0.10289001 0.06133007 -0.0010251021 -0.04157312 -0.07637327 -0.049485713
0.017545095 -0.10795128 -0.050762847 -0.08820029 -0.05236673 -0.13536912 -0.024527242 -0.09973238
-0.08580041 -0.076073796 -0.18686089 -0.011882244 -0.06250523 -0.046426773 -0.03316178 -0.058728162
-0.16088627 -0.0947936 -0.09170471 0.027529668 -0.084561266 -0.12562291 -0.09914994 -0.030415004
-0.03657738 -0.05548846 -0.060086247 -0.09704817 -0.06105684 -0.17678256 -0.07834249 -0.046126597
-0.08409028 -0.19093232 -0.05379953 -0.036188114 0.0123549495 -0.02792905 -0.07997826 -0.023233507
-0.15299779 -0.16906217 -0.09221207 -0.06092079 -0.029831802 -0.00051834213 -0.05069289 -0.09361134

layers.0.norm1.weight f4 [64]
00000000: 7006 5f3f cd4a 743f 50b3 8b3f d9f5 603f
00000010: f015 703f f272 953f abcd 923f 6703 683f
00000020: 2e45 863f 5cde 6f3f 71f6 7c3f 766b 7d3f
00000030: fedc 7a3f 8ba2 803f 47bc 833f 46ab 803f
00000040: 4db2 6d3f 8f92 813f dac8 783f d200 8f3f
00000050: f397 643f 8566 803f 1c69 7e3f d029 713f
00000060: 16dc 6c3f 8b1a 803f 3b90 783f 326b 713f
00000070: c2ea 8a3f aaae 823f 92f5 803f 65de 743f
00000080: 0c61 723f 3c1e 6e3f 0596 753f 7a1a 623f
00000090: 16cb 863f b64a 7b3f d21f 883f acf4 7f3f
000000a0: 2b62 5f3f 2c42 563f 5078 883f 4ce7 873f
000000b0: d2c8 7d3f a4fb 803f cf5a 843f 71d7 793f
000000c0: 9663 5c3f 9e91 703f 42b7 893f f8fa 6e3f
000000d0: da22 823f a646 8b3f 66bd 903f ca69 9a3f
000000e0: d2a3 623f 79ec 6f3f 4cae 6b3f 6d47 6d3f
000000f0: ab28 8b3f 96ad 873f e9f5 7d3f d840 7b3f
0.871192 0.95426637 1.0914097 0.87875134 0.93783474 1.1675704 1.1469015 0.9063019
1.0489862 0.9369867 0.9881354 0.989921 0.9799346 1.0049604 1.0291833 1.0052269
0.9285019 1.0122851 0.97181475 1.1172125 0.89294356 1.0031286 0.99379134 0.94204426
0.92523324 1.00081 0.9709508 0.9430419 1.0852892 1.0209553 1.0074942 0.9565185
0.9467933 0.93014884 0.95932037 0.8832165 1.0530727 0.98160875 1.0634711 0.99982715
0.8725917 0.8369472 1.0661716 1.0617461 0.9913455 1.0076795 1.0340213 0.9759436
0.86089456 0.93972194 1.0759051 0.933517 1.0166886 1.0880935 1.13078 1.2063534
0.8853122 0.93720204 0.9206283 0.9268711 1.0871786 1.0599849 0.99203354 0.9814582

layers.0.norm1.bias f4 [64]
00000000: e96c 9c3d e069 45bd 7277 7c3d c946 363e
00000010: d440 dd3d 0180 85bc 93b7 9c3d a566 61bd
00000020: dba2 ba3c c9da d8bd 8db5 5d3d 7170 823c
00000030: 07c7 9e3d 490e 5c3d 479c 113d 3570 753d
00000040: 5286 0f3e 5c7d 1b3d 019a 2d3d f5b5 ad3c
00000050: b5e9 88bd f38d 71bc d945 943c bce5 3ebd
00000060: a183 90bd 9ed3 14bd bdf6 25bd 6cb3 fe3c
00000070: 13fd 6aba 9512 5dbc cec8 553d 9bc8 87bc
00000080: 1f6b c53d 6882 d83b 7741 a1bb 685a c63d
00000090: 5bd7 753c 98b6 01bd 4dbd c13c def6 983d
000000a0: defd bc3d 2198 81bc 787a b83c 4b64 c13c
000000b0: 976f aa3d 8cca 17bd 4058 dfbc 106d 353d
000000c0: b94f 26bd 0273 be3d 8526 d23b 5fb7 5ebd
000000d0: 928a db3d 27c0 9a3c e1e7 7d3d 6a76 9c3c
000000e0: a27e 15bd 9634 92bd bc3c 9fbd 09e3 4fbd
000000f0: 9565 673c ad33 173d 8740 d5bc c1b6 273d
0.076379605 -0.048196673 0.06163735 0.1780044 0.108033806 -0.016296389 0.076522015 -0.05502953
0.022782734 -0.10588605 0.05412822 0.015922757 0.07752805 0.05372456 0.03554943 0.059921462
0.14016083 0.03796135 0.042383198 0.021204928 -0.06685201 -0.014743316 0.018099712 -0.04660581
-0.07056356 -0.036334626 -0.04051851 0.031091414 -0.00089641026 -0.0134932 0.052193455 -0.016575148
0.09639572 0.0066073425 -0.004921134 0.096852124 0.015004958 -0.031668276 0.023649836 0.07468961
0.09228109 -0.015819611 0.022519335 0.023607394 0.08322065 -0.037058398 -0.02726376 0.044293463
-0.040603373 0.0929928 0.0064132833 -0.054374095 0.107197896 0.018890454 0.061988715 0.019099433
-0.03649772 -0.07138936 -0.07775256 -0.050753627 0.01412334 0.036914516 -0.026031746 0.040945772

layers.0.attention.in_proj_weight f4 [192, 64]
00000000: 8422 7f3c f83d 103d 4686 37bd 126e 1e3e
00000010: 3518 cf3d 83b0 c93d 4750 273e be5c 1fbe
00000020: 2fa4 4b3d 7775 8c3d 713b 57bd ca5f 28bd
00000030: 3da2 503d bf3e 083e e02a 593e ee7b 03be
00000040: 81fd b63b 22e4 47be ee93 053d 524a f73d
00000050: 1c95 c7bd ba42 a1bd 1041 023d 86ae d53d
00000060: 0fb6 e23d 574e ddbc 96ea ab3d 04d0 b4bc
00000070: 9f52 ed3d 28e1 6e3d f19c 67bd 00c1 e9bb
00000080: b8ef 6b3e f164 99bd 0d38 ff3d 30fc babc
00000090: c1f2 7cbd 117c d23d 6e99 6dbc 4708 913d
000000a0: 1a72 a0bd 29e1 b23d d607 263e 4f02 32bd
000000b0: 7231 da3d 4b1e 133d 3c14 933b 7fb1 f63d
000000c0: f039 68be 826f cb3d 8a22 7cbd 955b 633d
000000d0: 75a8 14bd c786 b2bc 2255 cebd edbd 12be
000000e0: d5b8 e03d 46c7 eebd d6e5 b43d a393 413c
000000f0: a16f 44bd 5fad 103e fe10 37be cec4 11be
00000100: f225 e83d fee3 08be 2e19 84bd cf7a 163e
00000110: 89b8 1cbc 25d4 30be e367 32be b919 df3d
00000120: 4b8b 01be a38e b1bd cb79 543c d2c6 acbd
00000130: 2922 46be 090a 08bd 994a 6f3d b1bc 063e
00000140: 832e fbbc 2654 183c 7c1f a5bd a552 0ebe
00000150: b930 313d 90a8 ff3d 2466 edbc 0aca 77bd
00000160: 575a 16be 4430 9e3d 1482 9ebd b096 ba3c
00000170: 550e 30bd e9b5 353e 7fe7 2cbe 33e0 1a3c
00000180: 7b20 0bbe 32fe 03bd 63ab c7bd c136 53bd
00000190: 2eaf ef3d 5c85 523e 0e21 753c cc4a 013e
000001a0: d252 7d3c efbb 5dbd 979a 22bd 5fbf ddbc
000001b0: a98a 603c 9a59 0f3e 3800 32bd 9e7b 083e
000001c0: ab11 5e3b 195e 003d ab03 c13b 6163 7ebb
000001d0: 7681 a63b 2fc8 8ebd 2c08 00be 1729 38be
000001e0: fb16 083e e449 db3d c21b 9fbd 5344 07bc
000001f0: 210d 393e 4fb6 37be 9057 183e 5e0c 123d
00000200: ff31 243e 62da 8e3d 219c e6bb 434b 24bd
00000210: 762d 2d3e 685a 09bd a1c8 53bc ee9c bcbd
00000220: 10ff 1e3e 8f2d 2fbd 4f6f dabd 6742 e8bd
00000230: 5ad4 52bd da6c 413d 0fb4 843d 7458 e73d
00000240: 9ec2 753c 47af 953c d6ab d3bd f67a 9cbd
00000250: aa83 a9bd 1fd5 efbd b62a 2e3d 1bd3 d23d
00000260: 364b b1bc 4af8 b33d 6656 a6bc 910b cabc
00000270: 751d ff3d 972a bb3d 0e95 f53d b529 91bd
00000280: e372 d43d 12a8 afbc ff8e bebd 2029 14bd
00000290: 09bf 4b3d 9633 033e 2c3f 13be d414 183e
000002a0: ec8d 4b3d 5dc9 fc3d 66e3 e33d f2bd 8cbd
000002b0: b3e9 3abe 40a2 33bd 1d3f e6bd a5be 1c3e
000002c0: 1931 d83c b4be ee3d c14b 48bc 6d95 fcbd
000002d0: c072 3e3e 1f8d bcbc 7d2e 96bc cea8 20be
000002e0: fb2a 03be 7bb9 9abd 4ff9 5f3d a9ed 543d
000002f0: 9be8 e5bd e193 eb3d e909 9b3b 9e8e 463d
00000300: ac01 a1bd 2116 d7bc d17c 2e3e 8a8a 173e
00000310: c9c3 9b3d c620 30be c726 c83d 6b61 a6bd
00000320: 7b7b 1d3e 78f0 82bd 7e85 953c 0bef adbd
00000330: d519 c3bd 6c04 953d 46ae 92bd 51c4 093e
00000340: f0fc a73c 5efb c7bd 6f4d c9bb 517f 0fbe
00000350: be4f 673d 815a 853d e1eb a93d ef3f 32bd
00000360: e464 c73d ecfb 9fbd 6080 cebb d21b 9b3d
00000370: fb8f 953e f808 a9bd 8a56 efbd 8baa 1cbe
00000380: d5ff d63d 3996 27be 1aa1 f639 d572 d63d
00000390: a4bb 7d3d 9955 3c3e b678 843e e446 c93d
000003a0: 5b03 c83d 1a84 c63d e865 4abe 147d a03c
000003b0: ae9b 38be 0c39 4c3d f1bf 97bc 1172 303e
000003c0: fd0d 1e3c 5726 bb3d 93cb 45bd fee6 ddbc
000003d0: 623a 0bbc f185 27be 557d 40bd 42be c8bd
000003e0: 680a 0b3e 3fa3 78bd ba1e 37bd 9855 5a3d
000003f0: 2fde 8cbd c9b4 83be 7aef 35bd a9c2 bbbd
0.015572194 0.035215348 -0.044805788 0.15471676 0.10112039 0.0984812 0.16339217 -0.15562722
0.049717125 0.06858342 -0.052546922 -0.041106977 0.050935972 0.13305186 0.21207762 -0.12840244
0.0055844192 -0.1952062 0.03261178 0.12074722 -0.09745237 -0.07874055 0.03180033 0.10433678
0.11069881 -0.027014894 0.08394353 -0.022071846 0.11588024 0.058320194 -0.056546155 -0.007133603
0.23040664 -0.07489956 0.12461863 -0.02282533 -0.061754946 0.1027757 -0.0145019125 0.07081657
-0.07834263 0.08734352 0.16213927 -0.043459233 0.10653962 0.03591756 0.004488496 0.120455734
-0.22678351 0.09933378 -0.061556377 0.05550726 -0.036293466 -0.021792782 -0.100748315 -0.14330263
0.10972754 -0.11659102 0.088329 0.0118149845 -0.04795802 0.14128636 -0.17877576 -0.14235231
0.113353625 -0.13368222 -0.06450115 0.14695285 -0.009565481 -0.17268427 -0.17422442 0.10893578
-0.12650792 -0.08669784 0.012968491 -0.084363595 -0.19348969 -0.033212695 0.05842075 0.13157918
-0.030661827 0.009297406 -0.08062646 -0.13898714 0.043259356 0.124833226 -0.028979369 -0.060495414
-0.146829 0.0772405 -0.07739654 0.022776932 -0.042982418 0.17745174 -0.16885184 0.009452867
-0.13586609 -0.03222484 -0.09749486 -0.05156589 0.11703335 0.20558685 0.014961494 0.12626189
0.01546164 -0.054134306 -0.03969821 -0.027068792 0.013704934 0.13999024 -0.04345724 0.13328406
0.0033885043 0.03133974 0.00589033 -0.0038816559 0.005081351 -0.06971776 -0.12503117 -0.17984425
0.13290016 0.10707453 -0.07768966 -0.008256036 0.18071415 -0.17940639 0.14877152 0.035656326
0.16034697 0.06975247 -0.007037655 -0.040110838 0.16911873 -0.033533484 -0.012926252 -0.092096195
0.15526986 -0.042768057 -0.10665762 -0.1134079 -0.051472045 0.04722295 0.06479656 0.11296168
0.015000014 0.018272055 -0.103355095 -0.076406404 -0.08277066 -0.117105715 0.0425212 0.102941714
-0.021642309 0.08787592 -0.02030487 -0.024663718 0.1245679 0.09138983 0.119913206 -0.07088033
0.103734754 -0.021442447 -0.09304618 -0.036172032 0.049742732 0.12812647 -0.14379567 0.14851695
0.049695894 0.123430945 0.11127357 -0.06872167 -0.18253212 -0.043855906 -0.11242507 0.153071
0.0263906 0.116574675 -0.012225092 -0.12333188 0.18598461 -0.02301651 -0.018332714 -0.15689394
-0.12809364 -0.07554909 0.05468112 0.051984463 -0.112260066 0.11502815 0.004731406 0.048475854
-0.07861647 -0.02625567 0.17039801 0.14798942 0.076057024 -0.17200002 0.09773021 -0.0812405
0.15379135 -0.06393522 0.01825213 -0.084928595 -0.095264114 0.07276234 -0.07162146 0.13453795
0.020506352 -0.09764741 -0.006143264 -0.14013411 0.056472532 0.06511403 0.082969435 -0.043518003
0.0973604 -0.07811722 -0.0063019246 0.07573666 0.2921141 -0.08253664 -0.11686428 -0.15299432
0.10498015 -0.16365899 0.00047040806 0.10471121 0.061946526 0.18392028 0.25873345 0.098279744
0.09766265 0.09693165 -0.19765437 0.019590892 -0.18028137 0.04985909 -0.018524142 0.17231013
0.00964689 0.09138172 -0.048289847 -0.027087685 -0.008497806 -0.16359688 -0.046994526 -0.09801914
0.13578188 -0.06070256 -0.044707038 0.053304285 -0.06878316 -0.25723866 -0.044417836 -0.09167988

layers.0.attention.in_proj_bias f4 [192]
00000000: e62a b6bd c8c5 413d 862a 37bd 6b71 a7bc
00000010: 44f7 493c c924 78bd ab1d e73d c087 843d
00000020: c289 23bc 6b7a f0bc adec 15bd 5708 603d
00000030: 96c1 f93a 83c8 59bd 2325 943a 6553 34bc
00000040: 7cc6 1ebc 1ecd 973d 4bfc 923d db39 f4bb
00000050: 6e5a 323b 6cdd b9bc 41d1 14bc 62d9 d03a
00000060: 6504 15bd 0688 03bb 1898 093c 691e 89bc
00000070: 15ae 21bc e896 0cbc 3b71 083d e3d1 6e3d
00000080: 01f0 dc3c 0b61 c33c 793d 203c 7a34 a9bd
00000090: a57d bbbd b1df a73d 80bf 98bc 4bc5 6bbc
000000a0: 12fc 87bd c2d3 bbbc 51fa 373c adb8 2fbd
000000b0: cd5c 3abd 6a20 9abb a8fa 5dbc 98fc b53c
000000c0: ff0f 13bd 532d a43d 272b f13c 39c1 90bc
000000d0: a18e 20bd 016c 2ebd da38 3e3c b8b0 85be
000000e0: 5591 1bbd 2f4c 30bd 1a07 d43c 01b7 76bd
000000f0: e567 8d3d 8a54 793d c449 e13d 5a9f f1bd
00000100: 2a0f 13b7 349b 1437 9013 68b7 7445 aeb6
00000110: c778 14b7 8b02 8336 a0c3 8437 19cd fc36
00000120: 42bc 85b6 cc21 7437 b436 8db6 a795 a5b6
00000130: b685 4d36 0ca0 09b7 610f 1bb6 e51a 05b7
00000140: 9d4c 8e37 8c46 4537 e290 5fb8 79b2 09b8
00000150: de0b c037 2037 2339 5f49 65b8 dc17 e136
00000160: 445e 49b8 b709 3c38 0efa b037 0e22 24b8
00000170: aba6 6837 2a89 7a37 73da 4c38 407b dd38
00000180: c5c5 3bb7 622e e2b5 4a74 6e36 a349 40b6
00000190: cb6e 1eb8 8ea6 3ab6 6059 9736 f28c 07b7
000001a0: 7e2b 5b35 3f7a e836 373b ee35 8399 43b2
000001b0: 888b 7236 389e 7336 c4c7 1037 c2c7 cb36
000001c0: 3207 9137 5f32 3eb8 a7b6 63b7 61bf fb36
000001d0: f3d2 90b5 305b 8337 6727 3ab7 29b3 2d38
000001e0: cdd9 8337 0349 b637 5028 2e36 58c4 0b38
000001f0: d291 0db8 8b90 beb7 6851 0ab8 cd15 1638
00000200: 6fca 1d3b 8f77 86bc 2e88 6aba 1aed 8a3c
00000210: 0b08 f03b fb10 903b b549 4838 31be f0bc
00000220: 5290 a6bc 4665 063d 2a38 813d 9da8 ba3c
00000230: 221a b6bb 68a1 25bc 0d72 053d 03c9 45bc
00000240: 9c43 1d3b 9df7 b43c 22b9 4ebc 22d6 573c
00000250: 5092 3f3a 62a5 a53c 2e65 52bb 8b8e ca3a
00000260: cbbf 413a c2b4 45bc 036d 1a3c 340d 6c3c
00000270: 5098 823c 55ca 1b3c 233c cf3c 954f 6a3c
00000280: b239 14bc f285 a2bb d2c8 243c 041e cebc
00000290: 0a20 17bc fb38 4e3c c03a 293c 4812 0d3b
000002a0: d444 1b3b eaed 2a3d 4667 4d3b 2ab3 b13c
000002b0: 9536 b2bc bfcc 483c 4ddf 9f3c 56e9 86bc
000002c0: 9cc9 533c 1598 36bc e7db 473c 048c b2ba
000002d0: 2c71 053c b915 f93b bc2f 60bc 6a1c 5cbc
000002e0: 1eaa 1ebc e1c7 813a a732 ff3b 2520 b3bb
000002f0: dbf7 e8bc d0ad a33b 04db ff3b db0c ba3b
-0.08894901 0.04730776 -0.044718288 -0.020439824 0.012327019 -0.060581956 0.112849556 0.06471205
-0.0099815745 -0.029355248 -0.036602665 0.054695453 0.0019054885 -0.05316974 0.0011302572 -0.011006211
-0.009690877 0.0741217 0.07177027 -0.007453186 0.0027214545 -0.02268859 -0.009083093 0.0015933926
-0.036381144 -0.002007009 0.008398078 -0.016738134 -0.009868165 -0.008580901 0.03331111 0.058305632
0.026969912 0.023849985 0.009780281 -0.08261962 -0.09154824 0.081969626 -0.018646002 -0.0143903
-0.066398755 -0.022928122 0.011229114 -0.04290073 -0.045498658 -0.004703571 -0.013548531 0.022215173
-0.035903927 0.080164574 0.029439522 -0.01767026 -0.03919852 -0.04258347 0.011610234 -0.26111388
-0.037980396 -0.043041404 0.025882293 -0.06023312 0.06904582 0.06087164 0.11000398 -0.11797972
-8.765413e-06 8.8576235e-06 -1.3832832e-05 -5.1936895e-06 -8.849608e-06 3.9044003e-06 1.5826721e-05 7.5340618e-06
-3.985625e-06 1.4551402e-05 -4.2084957e-06 -4.934805e-06 3.062521e-06 -8.2031e-06 -2.3105752e-06 -7.93368e-06
1.6963395e-05 1.17585405e-05 -5.3302276e-05 -3.282956e-05 2.289371e-05 0.00015565427 -5.4666187e-05 6.7083e-06
-4.8009926e-05 4.483174e-05 2.1097276e-05 -3.9132363e-05 1.3867083e-05 1.4933097e-05 4.8840837e-05 0.00010561058
-1.1192115e-05 -1.6851811e-06 3.5532453e-06 -2.8653092e-06 -3.777332e-05 -2.7813107e-06 4.5105553e-06 -8.079443e-06
8.1647147e-07 6.92837e-06 1.7749616e-06 -1.1385398e-08 3.6142028e-06 3.6301917e-06 8.62958e-06 6.0731263e-06
1.7288698e-05 -4.534644e-05 -1.3572781e-05 7.5026624e-06 -1.079023e-06 1.565888e-05 -1.1095638e-05 4.141327e-05
1.5717838e-05 2.173009e-05 2.5951485e-06 3.3323042e-05 -3.3752825e-05 -2.2717073e-05 -3.297758e-05 3.578309e-05
0.0024076959 -0.016414432 -0.0008946684 0.016958762 0.0073251775 0.0043965555 4.775236e-05 -0.029387565
-0.02033249 0.032811426 0.063095406 0.02278548 -0.0055573145 -0.010109283 0.03257947 -0.012071851
0.0023996597 0.022090727 -0.012617381 0.013173612 0.0007307874 0.020220462 -0.0032103765 0.0015453858
0.0007390945 -0.012067022 0.0094254045 0.014407445 0.015941769 0.009508689 0.02529723 0.0143012
-0.009046959 -0.004959815 0.010057645 -0.025160797 -0.009223947 0.012586827 0.0103289485 0.002152579
0.0023692148 0.0417308 0.0031342073 0.021691877 -0.021754542 0.0122558465 0.019515658 -0.016468685
0.012926485 -0.011144658 0.012198425 -0.001362205 0.008144658 0.0076014665 -0.013683256 -0.013434509
-0.009684114 0.0009901488 0.0077880207 -0.0054664784 -0.0284385 0.0049950853 0.007808091 0.005677802

layers.0.attention.out_proj.weight f4 [64, 64]
00000000: e22e dcbc e967 f2bc 58f5 9f3d 8a40 423c
00000010: 2a3f ae3c c2fb 263c b80a 40bb f8dd 6fbd
00000020: 3cdd b13b d713 56bd b7ab ebbc f2be fb3c
00000030: 4925 d43c 06dc 533c 95ae df3c 86d4 f7b9
00000040: 4007 b73b 25b0 553d fdaf 28bd 7ecf 36bc
00000050: dcaa 00bd 15e0 a6bd b49e a8bd f04b 26bc
00000060: 95fe 003d a078 40bc d659 1e3c d2e7 4c3d
00000070: 85f5 05bc 1092 0f3d bdaf 953d ece8 6c3c
00000080: b400 243b ddbf d43d fe26 8e3d 9c3d 96bb
00000090: 67cc f5ba d195 eabc 1ba9 553b 07cf f83c
000000a0: 18e2 6bbc f726 673d 653c 58ba e0a6 29bd
000000b0: e590 b93d c838 0e3d f094 cdbc ca86 63bd
000000c0: f89f cfbd 13a6 563d 0745 3a3d 05e3 ae3d
000000d0: e6fb aabc 8d2c 10bd 4e05 3dbd b37e 13bd
000000e0: 2d27 b1bc 9f77 0cbd f08d 523d aa7f cfbc
000000f0: 583c 7cbc 18f6 46bc eaf9 5f3b 85e8 d03b
00000100: a91a 0dbe 0b34 08bd 03a4 693d 610f aa3d
00000110: b24b 333d 0b6c bcbc 8dfb 943d fefa df3d
00000120: 10d5 b93c 1b02 e8bc 3cad 5c3d fb6a 873c
00000130: c211 bbbd 0f72 e5bd 419a 1abd 80c0 c339
00000140: b642 22bc 4535 f6bb a071 153c 101f 253d
00000150: 451d 283c b313 a13d 938b 5abd 4d9f 8d3d
00000160: 37c2 3d3c ac7d f73b c0d9 90bd 6032 ce3c
00000170: 06fa 7c3d 9789 133c 21bf 633d 6a5e 75bd
00000180: 6906 373c ead3 aa3c 4944 79bd 2846 753c
00000190: 7fe0 7fbd f5e2 acbc 4d86 46bd 667e 00bd
000001a0: b07d d7bd 10c1 7dbb a242 163d f3cd 7fbd
000001b0: 9995 e93c 102b 273d 7f3c 95bd 48b6 e3bd
000001c0: 555a d6bc f833 9dbc d8c5 c53d 0dc1 33bd
000001d0: 9bdb a63d 568b a3bc ef1b ebbd 61ee d53d
000001e0: eb30 a2bd 8482 c03d 2dd9 b43d adef 123d
000001f0: d049 893d 1272 bf3b a00b 633d 857a 343d
00000200: 0af9 be3c 86af 473d 2ca6 cebd a054 c13d
00000210: 8aff 393c 992a f93c ce07 4bbd 53fd 1cbd
00000220: 1607 503b 4c43 893d 321e 32bd c9c5 183d
00000230: bd52 c53c e608 8fbb 5376 c6bc abff c13d
00000240: 49eb 863d 8b2b 8bbd 29f1 7c3c 450a a3bd
00000250: 48f0 3cbc 9b6d 52bd 0473 823d 5cc4 853d
00000260: cb7e 203e ae7e 56bd b4ae 03be 090c cbbd
00000270: 6229 d9bc 1cd0 1fbd 730a 06bd 0cf7 98bd
00000280: 7ef2 a9bc 4bc0 9dbc 032f bfbd 7456 0abd
00000290: 8d4b 9a3d fbab 003e 9da1 cabd 2375 fa3c
000002a0: e57a 6b3d a835 5ebd e32f 073d dae2 bcbc
000002b0: cc2d df3d 4015 53bd 2dee 27bd 60c4 79bd
000002c0: 0e87 a43a 6d78 13bd b446 eb3c 715f 303c
000002d0: 4b00 133d 4563 983d f3e2 423d cb2f b3bb
000002e0: 4d3c eebb 1bfa c9bd 0205 d2bc 22d4 093d
000002f0: 146a 423d b46e c83d c00b 1b3d db96 70bd
00000300: bf2a afbd 8879 13bd 2c2d bcbd e963 ee3d
00000310: 5858 b3bd 4ade 55bd ac4e 263d 9220 933d
00000320: 30ba d0bd b2b2 45bd 0cef ae3c 45dc b7bd
00000330: e585 7f3d 2998 92bc f519 b03d 1597 efbc
00000340: 0625 21bd a8e9 33bc 287f b73d 31dd c8bd
00000350: 9d94 923d 5c9c 85bd 1561 7ebd a90f b93d
00000360: f58f 783d 6d1a 01bd d213 15bd 020f 3ebd
00000370: d3cd 873d ddb2 78bd f2c0 c2bd 6cd3 46bc
00000380: 2714 843d aadb c33d aa3d 1dbe 1155 573d
00000390: 463a 923d d521 99bd ba02 5c3b d1bf b33d
000003a0: 532e 3e3d 8ab1 dc3b 0e73 7c3d 25cf b53d
000003b0: 6b14 123b eaf7 5cbc 44d3 13bd cb89 1fbd
000003c0: 119e f03d 52a9 9cbc 5230 87bd 854f 333d
000003d0: 674e d6bd dac5 b63a 7be8 d6bb 515f e23d
000003e0: b03d 98bd 233c bb3d 4191 9abd bcb3 04be
000003f0: 6768 63bb 2f16 993d 3ff0 ee3d 7fb6 913b
-0.026877824 -0.029590564 0.078104675 0.011856208 0.021270353 0.01019186 -0.0029303264 -0.058561295
0.0054279845 -0.052265014 -0.028768403 0.030730698 0.025896685 0.012930876 0.027304927 -0.00047269854
0.005585581 0.052169938 -0.04118346 -0.011157868 -0.031412944 -0.08148209 -0.08233395 -0.010149941
0.03149279 -0.011747509 0.009664973 0.05002577 -0.008176212 0.035051405 0.0730891 0.01445983
0.0025024833 0.103881575 0.06941031 -0.004584981 -0.0018752933 -0.028635891 0.0032602015 0.030372156
-0.014397167 0.056433644 -0.00082487456 -0.04141891 0.090608396 0.03472212 -0.025095433 -0.055548467
-0.101379335 0.052404474 0.045475986 0.08539394 -0.020872068 -0.035198737 -0.046147637 -0.0360095
-0.021625126 -0.034293767 0.051404893 -0.02532943 -0.015395246 -0.012143634 0.003417606 0.0063753747
-0.13779701 -0.033252757 0.05704118 0.083037145 0.04377336 -0.023000738 0.07274542 0.10936545
0.022684604 -0.028321316 0.053876147 0.016530504 -0.091342464 -0.112033956 -0.037744764 0.00037336722
-0.0099036 -0.0075136744 0.009121329 0.040312827 0.010260885 0.078650855 -0.053355765 0.0691515
0.011581949 0.007552823 -0.070727825 0.025170505 0.06176188 0.009004972 0.055602197 -0.059904493
0.011170962 0.020853002 -0.060856137 0.01497034 -0.062469956 -0.021104315 -0.048467923 -0.031370543
-0.1052202 -0.003871981 0.03668464 -0.062452268 0.028513717 0.040812552 -0.07286929 -0.11118752
-0.02616612 -0.01918982 0.09656876 -0.04388528 0.08147355 -0.019963901 -0.11479937 0.10445858
-0.079194866 0.09399894 0.088304855 0.035873104 0.06703532 0.0058424557 0.05543101 0.044062156
0.02331211 0.048751377 -0.100902885 0.09439969 0.011352429 0.03041582 -0.04956799 -0.038327526
0.0031742505 0.06702289 -0.043485828 0.037297998 0.024087304 -0.0043650744 -0.024226343 0.09472593
0.06587846 -0.067954145 0.015438356 -0.07960943 -0.011531897 -0.05137406 0.06369594 0.06531593
0.15673368 -0.052366905 -0.12859613 -0.09914405 -0.02650899 -0.039016828 -0.03272481 -0.074689955
-0.020745512 -0.019256731 -0.09335139 -0.033773854 0.075339414 0.12565605 -0.098941065 0.030573433
0.05749025 -0.05425039 0.033004653 -0.02305739 0.10897407 -0.051533937 -0.040998627 -0.060978293
0.0012552456 -0.03600352 0.028720237 0.0107649425 0.03588895 0.07440809 0.047579717 -0.005468344
-0.007270372 -0.09862157 -0.025637154 0.03364957 0.047464445 0.0978674 0.037853003 -0.058737617
-0.08553075 -0.036004573 -0.09188303 0.1164015 -0.087570846 -0.052213944 0.04060237 0.07183947
-0.101917624 -0.04826612 0.02135422 -0.0897756 0.06238355 -0.017894821 0.08598701 -0.029246846
-0.03934195 -0.010981001 0.089598 -0.09807814 0.07157252 -0.06523964 -0.062104303 0.0903619
0.060684163 -0.031519342 -0.036395855 -0.04640103 0.06631055 -0.060717452 -0.09509458 -0.012135368
0.06449156 0.09563382 -0.15355554 0.05257136 0.07140021 -0.07477156 0.003357096 0.087768205
0.046430897 0.0067350315 0.061633162 0.088774 0.0022290002 -0.013486842 -0.03609015 -0.03894977
0.11748899 -0.019123707 -0.06601013 0.043777008 -0.10464173 0.0013944462 -0.0065584756 0.110533364
-0.07433641 0.091423295 -0.07547236 -0.12959188 -0.003469968 0.07474934 0.11666917 0.004446804

layers.0.attention.out_proj.bias f4 [64]
00000000: a8a8 19bd fe98 473c 9255 c83a b960 813c
00000010: 28f4 663c 3a18 0a3b 9c3e c03b 20e1 24bd
00000020: eb64 7fbc 508c 163c 4c03 973b 71ae 46bb
00000030: dd20 a5ba 45e5 1c3d 9c96 ad3c 38db 84bc
00000040: 7c99 0e3d 40ff 5b3b 7a1d b0bc 77bb 423c
00000050: 3e28 79bc ac83 9ebb 60af 2dbc 4de3 dcbc
00000060: 5484 babc 5564 a3bb 89ff 95bc 2c3f 553b
00000070: dfd7 5abd 8b73 b83c b05d a33c 94a8 573c
00000080: c502 ccbc a8b3 163d ee62 e03c 37cb 033d
00000090: 5be2 383c c277 81bd c6b4 45bd aaf5 873b
000000a0: 4663 0b3a a5de 053d 7462 5fbb 6c46 f23c
000000b0: 52f1 1f3d bca9 09bc b5cb f9bb 8a20 c6bb
000000c0: 4078 f3bc c916 273d 069b 28bc c6d7 17bd
000000d0: 4f3a a13d c643 d8bc 1bd2 1a3b da10 c7bb
000000e0: 9c7d d83b 5666 d3bc 726b f9bc 6368 8ebc
000000f0: 7bba afbc fc50 8e3d 3316 a1bc 635f b63b
-0.03751436 0.012182472 0.0015284291 0.015793191 0.014096297 0.002107157 0.0058668386 -0.04025376
-0.015588026 0.009188727 0.0046085473 -0.0030316378 -0.0012598295 0.038304586 0.02118998 -0.016217813
0.034814343 0.003356889 -0.02149843 0.011885515 -0.015207348 -0.004837474 -0.010600895 -0.026963854
-0.022768177 -0.0049863257 -0.018310325 0.0032538874 -0.053428527 0.022516033 0.019942135 0.013162751
-0.024903664 0.036792427 0.027390923 0.032176223 0.011284436 -0.0632167 -0.048268102 0.0041491585
0.0005317222 0.032683033 -0.0034085782 0.029574595 0.0390485 -0.008402284 -0.0076231607 -0.0060463594
-0.029720426 0.040793214 -0.010290867 -0.037071012 0.078724496 -0.026399504 0.0023623768 -0.006075007
0.0066067707 -0.025805634 -0.030446742 -0.01738376 -0.021451226 0.0694904 -0.019663906 0.00556557

layers.0.norm2.weight f4 [64]
00000000: b789 953f 1036 553f 4fdf 863f 963d 8d3f
00000010: 7ccf 7a3f bf32 933f 2a50 903f 1a29 6a3f
00000020: f0c7 723f 5c26 7e3f 2fa2 aa3f 84ea 723f
00000030: 83b2 903f f375 813f d564 833f 9607 893f
00000040: 7824 973f 12fd 8c3f c4fc 9d3f f656 8e3f
00000050: 7c53 833f 3717 673f 7755 4a3f 2374 6d3f
00000060: 8b7e 633f 1b32 733f df8b 4a3f a565 653f
00000070: dce7 8b3f 7d02 823f 4bf4 8f3f f906 683f
00000080: e3f3 923f e76a 563f 599c 5a3f 4d6a 933f
00000090: a9b2 7a3f 2d9d 6e3f 4e38 973f 1beb 7a3f
000000a0: 02ee 813f e39a 703f 5e01 783f 7e6e 503f
000000b0: 35a5 873f 9383 3f3f 06af 7b3f 2fd6 823f
000000c0: 4dcc 793f 4957 8e3f 018d 7f3f 12e9 653f
000000d0: d449 4f3f e260 7f3f 3565 903f 7be9 9d3f
000000e0: 56b8 693f 445e 5c3f 409f 563f 56c9 6e3f
000000f0: d7e2 653f 5b18 643f ffce 653f ffaf 5c3f
1.1682652 0.8328562 1.0536898 1.103442 0.97972846 1.1499861 1.1274464 0.91468966
0.9483633 0.9927728 1.3330745 0.9488909 1.1304477 1.011412 1.0265146 1.070544
1.1808004 1.1014731 1.2342763 1.1120288 1.0259852 0.902698 0.7903666 0.92755336
0.88864964 0.9499833 0.79119676 0.8960822 1.0930133 1.0157009 1.1246427 0.9063564
1.1480678 0.8375687 0.8539482 1.1516815 0.97928864 0.9320858 1.1814058 0.9801499
1.0150759 0.9398634 0.96877086 0.814186 1.0597292 0.7481014 0.9831394 1.0221614
0.97577363 1.1120387 0.9982453 0.8980876 0.8097203 0.99757206 1.1280886 1.2336878
0.912969 0.8608134 0.83836746 0.93275964 0.89799255 0.89099663 0.89768976 0.8620605

layers.0.norm2.bias f4 [64]
00000000: b5c5 48bd 5e54 043d 2e14 903c 80d5 8ebd
00000010: 4fd4 3dbc b199 e43c 5839 003d a2b6 8abc
00000020: afaf edbc d47b 703c 3701 43be beff 0bbd
00000030: 5067 a5bd 32de 953c 7b5e 303d da91 71ba
00000040: c991 c6bc 96e4 123d c76e 31be a6b6 f1bc
00000050: d409 03bd 94ba 6cbd b338 91bc 6868 a3bd
00000060: 4db3 d23d a095 4dbd e652 2b3d 56b1 943d
00000070: 8987 11be 07d8 9ebc 845b f83c 961e 923c
00000080: c0f1 c7bd 016c 5f3d 5958 5b3d c0cc 543d
00000090: 999e 04be ba77 80bd e61a b6bd 2b80 2a3d
000000a0: 66c3 c33c 95fe 843d c908 033b 031d c03d
000000b0: d81b 303d 1613 4ebd ff8c 80bc 78aa 0bbd
000000c0: 6443 773d c4e1 5fbd 0724 95bc cdcf 4c3d
000000d0: f509 073e b820 60bd afb4 063d 550e bc3c
000000e0: 58bd be3d a8a6 f6bd 865b 663d 50dd a3bc
000000f0: 0602 29be 5e32 e03d ea94 303d 85d0 173d
-0.049016673 0.03230702 0.017587747 -0.06974316 -0.011586263 0.027905317 0.031304687 -0.01693279
-0.029014437 0.01467796 -0.19043432 -0.03417944 -0.08076346 0.018294428 0.043058854 -0.0009215154
-0.024239438 0.035862528 -0.17327414 -0.029506039 -0.031991795 -0.057795122 -0.017727232 -0.07978898
0.10288105 -0.05019152 0.041827105 0.07260387 -0.14211859 -0.01939012 0.030317076 0.01783685
-0.09762907 0.05454636 0.05355105 0.051953077 -0.12951125 -0.06272836 -0.08891849 0.041626137
0.023896884 0.0649387 0.001999425 0.093805335 0.042995304 -0.05031117 -0.015692232 -0.03409812
0.060367003 -0.054658666 -0.018205656 0.05000286 0.13187392 -0.054718703 0.032887157 0.022956053
0.09313458 -0.12043506 0.056239627 -0.020002991 -0.16504678 0.10947107 0.043110766 0.037064094

layers.0.ffn.0.weight f4 [256, 64]
00000000: 5c45 f13c 5ce5 4dbd 5175 163e d9b3 da3d
00000010: 9829 b53c f852 61be 1430 8d3e 1549 7bbe
00000020: da4f babd a398 61be f0b9 533d 17dc 293e
00000030: d336 babd 9490 96bd 4d48 af3d ae61 393e
00000040: d845 d1bd 70d7 183e 52b8 893c 2669 a3bd
00000050: 2b04 fcbe 7051 6f3d 7395 dbbd d45e 2fbd
00000060: 7044 06be 2714 5cbd a3fe 743d 6e46 d3bd
00000070: 9452 cc3d e857 553d 91e7 9c3d bf44 863d
00000080: 238d 1d3e 6588 e6bd a2c8 0dbe 8045 45bd
00000090: 20ae 023d a864 fb3c 6347 ed3d f9a7 b83d
000000a0: 81ce 2abc b989 e4bd 0d31 0c3e 8cce 58bd
000000b0: 7198 ea3c 122f 99bd 0521 d4bd fe77 003e
000000c0: fb4c 843d a3ec 07bd 1c2f 743d def8 5cbd
000000d0: fe05 733d 03f3 4a3d 822c 693d 2ebb 77bc
000000e0: cc3f 873d 1801 bb3d 63be e6bc 2d0a 44be
000000f0: 6735 703d 4539 dabd 7f45 b63d f16f e0bd
00000100: 919f 9c3e 9402 893d 7a7b 813c b778 7dbc
00000110: ef4b 923e e846 afbc 081d aeba b0f5 56be
00000120: 636a c1bc e2d9 abbe a844 c53d 1508 0c3e
00000130: cc82 8c3d bbc3 c93d 080b 223e fa90 e1bd
00000140: 1ee5 b1bd dd33 d8bd 99dd 99bd 113e 573c
00000150: c859 08be 20b4 be3d 9531 c6bb 532b 82bd
00000160: 2318 6a3d 7ec7 833c d5a8 76bd b098 e9bd
00000170: 04b6 10be ca64 33bd 7373 0abd e91f 19bd
00000180: 1c9c e13d 20be 293b b2cc 113c 180a 643e
00000190: a84a 1b3d f4b8 0cbd fd74 03be b8d4 f13d
000001a0: 4b0e da3d 7056 ad3d b82e d8bc ff48 5b3d
000001b0: bc4a cdbd 5a7f fcbc 71ed ad3d c2c6 1fbd
000001c0: b0d5 febd 72cf 1c3d b453 eabd 58fc 5dbd
000001d0: 4bd8 e63c aa6f 39bd bc41 a7bd 00c3 9e3d
000001e0: 313f fdbd 5296 f7bc b47f 2abe de25 d0bd
000001f0: a203 683d f519 ebbd 7863 46ba 5858 e6bc
00000200: 67fb eb3d c6b1 203c 7679 f2bc a917 06bd
00000210: 4d80 a5bc 67f3 9eba 2871 153d 8057 933d
00000220: 18df 64bc 38d1 f43c 49de 053e 197f 903c
00000230: 4f3a b73d 69f8 853d 0515 d73d 22b9 bebc
00000240: 5260 06bc 87a5 d03d d5d8 103e e3ff 22be
00000250: 5954 bbbd 962f 6dbd 360e 18bd 6ba8 2fbd
00000260: 7995 8b3d 9f44 bb3d 8fec a93d 8474 c6bc
00000270: 2749 983d e1b4 1f3d a115 a63d b299 22be
00000280: 8ff9 173e 0a18 06be c486 813c ec3a 80bd
00000290: 3a13 073e 93e1 993d 1478 553e 247b 13bd
000002a0: 9944 443d 902e 96bc e064 e3bd 5d52 e4bd
000002b0: e54e acbc 716b 873d f5e9 893d bfca cb3a
000002c0: 1904 d1bd 473a e73c 9db6 23be a383 803a
000002d0: aaae 243e fe5d 1ebd 1a0e 58bd 8a4e 34be
000002e0: 62b4 bb3d 4f69 f53d 1031 8c3c 9f33 9f3d
000002f0: c1e1 93bd 267a f0bd bcf4 0fbe 1195 9d3b
00000300: 247f b63d d43b 0a3d bd5b 25bc 4ff5 553d
00000310: 9259 0d3c cf8f c8bc 4ba3 77be 18d0 cdbc
00000320: 0f01 f43a 1fa6 1bbd 3b74 223d 52ba 033d
00000330: f3ca 9abd 867c 2dbe 304a d9bd 2a04 e1bc
00000340: 4009 9d39 bb88 d0bd ef85 76bc b9f6 093e
00000350: cfee 42bd ea0e da3d f840 a9bd bb97 093d
00000360: 30a7 06be f3c6 00be a85c 9bbd bf98 6f3d
00000370: dd65 07be f076 82bc 5b4c f4bd 50f0 ebbd
00000380: 39a9 acbd 6e00 11bd 4e25 ccbd e27b 863a
00000390: 675c d83d f664 a2bd a98b 003d 2258 363e
000003a0: 9b75 c93c 33fd bebd ac3f b4bc 7680 07bd
000003b0: ae2d d53d 3606 b5bd c554 bc3d b165 103e
000003c0: e526 633d b71b b63d cb7f abbb 3d78 2abd
000003d0: 7033 1f3e 5300 b13d 8bff bfbd f215 d63d
000003e0: c40f 883d 5a81 9c3d 7dc4 a0bd 5d6d ff3d
000003f0: d37a 4cbd 7977 803c 8109 bf3d f2c4 853d
0.029452018 -0.050267562 0.1469319 0.106788345 0.02211456 -0.22004306 0.27575743 -0.24539597
-0.09097262 -0.22030883 0.051690996 0.16587864 -0.09092488 -0.07351795 0.08558712 0.18103668
-0.102184 0.14925933 0.016811524 -0.0797904 -0.4922193 0.058427274 -0.107218646 -0.042815045
-0.13112044 -0.053730156 0.059813153 -0.10316168 0.09976688 0.052085787 0.07661355 0.06556081
0.1538587 -0.11256484 -0.13846067 -0.048161983 0.03190434 0.030687645 0.115858816 0.09016413
-0.010425211 -0.11159081 0.13690586 -0.052931353 0.028637143 -0.07479681 -0.103578605 0.12545773
0.06459995 -0.03318466 0.05961524 -0.053948276 0.059331886 0.04954816 0.05692721 -0.015120311
0.06603965 0.09131068 -0.028166955 -0.19144507 0.05864468 -0.106554545 0.08899974 -0.10958851
0.3059049 0.06689945 0.015805949 -0.015470675 0.28573558 -0.021396115 -0.0013283798 -0.2099216
-0.0236103 -0.3356467 0.09632236 0.13674958 0.06860885 0.09851786 0.1582452 -0.1101398
-0.08686279 -0.10556767 -0.075129695 0.013137356 -0.13315499 0.093117 -0.006048391 -0.0635592
0.057151925 0.016086336 -0.060219605 -0.11406076 -0.14131933 -0.04379729 -0.033801507 -0.037383948
0.110161036 0.0025900677 0.008898901 0.22269475 0.037912995 -0.034356073 -0.12837596 0.11808151
0.106472574 0.08463752 -0.026389465 0.05353641 -0.1002402 -0.030822445 0.08492554 -0.03900791
-0.124431014 0.038283773 -0.11441746 -0.054195732 0.028179308 -0.045272507 -0.08166835 0.07752037
-0.123655684 -0.030223045 -0.16650277 -0.101634726 0.05664409 -0.1147956 -0.00075679226 -0.028118297
0.115225606 0.0098080095 -0.029598933 -0.032737408 -0.02020278 -0.0012126983 0.036484867 0.07194424
-0.013969205 0.02988492 0.13073076 0.01763873 0.08946668 0.06541521 0.10502056 -0.023281638
-0.0082016755 0.10187822 0.14145215 -0.15917926 -0.091469474 -0.05790671 -0.037122928 -0.042885225
0.06815619 0.09143948 0.08297073 -0.02422548 0.07435828 0.03899086 0.08109594 -0.15878943
0.14841293 -0.13095108 0.015811332 -0.062612385 0.13190928 0.07513728 0.20846587 -0.036006108
0.047916982 -0.01833275 -0.11103225 -0.11148522 -0.021033714 0.0661229 0.06734077 0.0015548094
-0.1020586 0.028226031 -0.1598763 0.0009804856 0.16082254 -0.038663857 -0.052747823 -0.17608085
0.09165265 0.11982977 0.017113239 0.07773518 -0.072207935 -0.11742048 -0.14058203 0.00480903
0.08910969 0.033748463 -0.010092673 0.052235898 0.008627312 -0.024482636 -0.24183385 -0.02512364
0.0018616038 -0.038000222 0.039661627 0.03216011 -0.07558241 -0.16942033 -0.10609853 -0.027467806
0.00029952265 -0.10182329 -0.015046581 0.13473023 -0.047591027 0.10647376 -0.08264345 0.033591967
-0.13149714 -0.12575893 -0.07586032 0.05849528 -0.13222452 -0.015925854 -0.11928626 -0.11520445
-0.08430714 -0.0354008 -0.09968053 0.0010260309 0.10564499 -0.07929413 0.03138319 0.17807057
0.024592211 -0.09325638 -0.022003017 -0.033081494 0.10409103 -0.08839075 0.09195856 0.14101292
0.055457015 0.08892005 -0.00523374 -0.041618574 0.15546966 0.0864264 -0.09374913 0.104534045
0.06643632 0.07641859 -0.07849977 0.12472031 -0.04992182 0.015681969 0.093279846 0.06531705

layers.0.ffn.0.bias f4 [256]
00000000: 1491 8bbb af07 cfbd 8dbe 803d 8b55 58bc
00000010: c60f abbb 71f2 09be 1385 11be 69a6 d93c
00000020: b8a8 20bd d412 c13c a7fd eabd dc82 79bc
00000030: 06ea 61bc 197a b5bd 522e 9d3d 0fa6 b53d
00000040: d26c 9d3d 6999 cabd a6ab 13bd 61bc bb3c
00000050: 50be 3fbd d3b2 4f3d 8877 b13b 42d1 903d
00000060: 60ed e1bd c282 c7bd f39c d3bd 09ac 18be
00000070: fc7d 863d fdcf 3ebd 6a77 22be be2b 7fbd
00000080: 766f 37bc e222 1fbe 8adc d3bd 402e 86bd
00000090: 093c 30be 4ed5 813d 7589 09bd 5cb6 0fbd
000000a0: e6d2 ec3c a42a b8bd e57c 90bd ac8c 53bd
000000b0: 20ae be3d bbaa 26be ac93 c83c 26e6 dcbd
000000c0: ec8c 943d 663c 9ebc 33bc cabd f49b 2fbd
000000d0: 4dc2 c5bd 2990 263c e372 893d f55d 3bbd
000000e0: 2317 afbd 80fc 323d 894a cb3d 1c48 31be
000000f0: 4fcb f3bd 8649 abbd 15af 233d 9a90 843d
00000100: 3e27 3a3d 6cf2 04bc b18a 00bd b171 e4bb
00000110: 12cc b8bd c6e6 193d 6328 3b3d f633 303d
00000120: 1d24 213d aa0c 583d 53e5 d93c 922f ce3c
00000130: 39a8 5e3d ee54 483c 3b75 fbbd 01ef 0dbe
00000140: a8d5 f2bd 5914 bbbc 96d8 dfbc 0294 84bd
00000150: 6904 db3d 64fb 78bc d5c2 cbbc e210 8abd
00000160: 9150 05be c646 78bc eb2b fcba 14fd 123b
00000170: 943f 30bd ad09 01be 2c08 01be a1af afbd
00000180: 318d 833d 8b02 533c 65d1 ad3b 8ef1 6b3d
00000190: 4c42 a7bd 1d6a fabd 7966 e1bc 011a 75bd
000001a0: 0e40 34bd 812f 3ebd 0e27 16be 27ef b8bc
000001b0: 2cb5 4bbd 92f2 39bd 3c0a 843d ca00 bbbc
000001c0: f0c9 7ebd ece6 c33c 3d59 e3bd 12ad 09bd
000001d0: 21f6 adbc 5559 b63c b89a e4bd f122 983d
000001e0: 5d36 853d 178a 17be fc06 4cbd a947 fb3c
000001f0: 4767 d1bc 2c2c 1ebe 66de fbbd cab3 cf3c
00000200: 84e3 1dbe 4ff2 76bd 6983 c5bb fb6a fc3c
00000210: 2132 12be 2771 d1bd 086c 17be 1c7d 073d
00000220: c4a5 473d 338e 3bbd 33aa 0dbd 4b20 99bd
00000230: 2317 08be 9ea2 153d b97e 8b3c efbc 28bd
00000240: 4ff7 053d bf65 bcbd cd0b aabc baf1 a0bd
00000250: caaf 90bd 3123 94bd 5d26 89bd 480e cdbd
00000260: f228 babb ea13 533d f633 1ebd e833 94bd
00000270: 694f c9bd 2eb5 0b3d 76c0 83bd 86f3 be3c
00000280: db9b 2c3d d1f2 493d 0382 19be f9f6 85bd
00000290: c5af d6bc f56d 8fbd c958 6cbd 623c 4fbd
000002a0: 1d38 34bc caf6 8a3d 9468 0ebe 5394 c43c
000002b0: a5c7 4d3a bb5d b93c 9db9 69bc 88ff e1bd
000002c0: 94e5 bcbd ed48 d8bd 9348 a43d 6af1 48bd
000002d0: b5b8 003d 3fe8 3cbe b6eb 003d 0fc2 993d
000002e0: a137 15bd 1142 193d 90a7 bcbc 5041 16be
000002f0: ee82 17be 77d1 8abd dd2a 98bd 035f 3d3d
00000300: dd89 963d 6e96 22be b844 803d a9ae 03be
00000310: fea8 28be c472 95bd a27c 53bd 68b5 df3c
00000320: d12c 033d 414c 6fbd 0d2b 3c3d e0a2 753d
00000330: 41d4 34ba 2eea 98bd daec 44bd ce32 0cbe
00000340: 98e5 433d d703 02be bec6 62bd d230 02bd
00000350: 884a 96bd be2d 883d 4758 f53c b7a5 b63c
00000360: 8687 d2bc 8a57 ddbc 0d4d b0bd 4816 a6bc
00000370: f43b 2abd ff29 e03c ecb4 eabd faf3 00be
00000380: 0b8b 11be d463 33bd 9ff0 d2bd 4a36 ee3c
00000390: b599 1abe 07d4 acbc 0e3f 0e3d 1e7a 95bc
000003a0: 40f7 80bd a535 d4bc a2ef 9ebd b53c f7bd
000003b0: 9683 7f3c 5b6d 07be 4fac e5bd 0838 f4bd
000003c0: f60d 003d dac6 27bd 76a2 d73c e0be 71bd
000003d0: 0e5d 25be 1c87 d6bd aec9 2bbd 2c0a ebbd
000003e0: 0a1b d5bd 804e 36bd f46f 533c 707f 6b3d
000003f0: 4df2 923d 92d0 353d d0ea f1bd 27d5 0dbe
-0.004259238 -0.101088874 0.06286345 -0.013203989 -0.005220386 -0.1347139 -0.1421092 0.026568608
-0.039223403 0.023568548 -0.114741616 -0.015228953 -0.013788706 -0.08861179 0.076748505 0.08869564
0.076867715 -0.09892542 -0.03605237 0.022916974 -0.046812356 0.05070765 0.0054158606 0.07071163
-0.11031604 -0.09741737 -0.1033267 -0.14909376 0.06566998 -0.04658507 -0.15865865 -0.062297575
-0.011196008 -0.1554065 -0.10344799 -0.0655179 -0.17210402 0.06339513 -0.033578355 -0.03508602
0.028909158 -0.08992508 -0.07055072 -0.051647827 0.093105555 -0.16276066 0.024484478 -0.10786085
0.07253441 -0.01931591 -0.098991774 -0.042873338 -0.096562006 0.010166206 0.06711366 -0.0457439
-0.08549335 0.043697834 0.09926326 -0.17312664 -0.119040124 -0.08363633 0.039961893 0.06472893
0.04544758 -0.0081144385 -0.031382266 -0.006971561 -0.09023298 0.0375736 0.045692813 0.043018304
0.03934108 0.052746452 0.026598608 0.025169168 0.05435965 0.01222728 -0.12278219 -0.13860704
-0.11857158 -0.022836851 -0.027324956 -0.06473543 0.106942005 -0.015196655 -0.024873177 -0.067415014
-0.13019015 -0.015153592 -0.0019239163 0.0022428678 -0.043029383 -0.12601347 -0.12600774 -0.085784204
0.064234145 0.012879024 0.005304503 0.05760341 -0.08166942 -0.12227271 -0.027514683 -0.059839252
-0.0440064 -0.046432022 -0.14663336 -0.022574974 -0.049733326 -0.04539735 0.064472646 -0.022827525
-0.0622043 0.023913823 -0.11101005 -0.03361232 -0.021235527 0.022259394 -0.11162323 0.074285395
0.065045096 -0.14798771 -0.04981135 0.030673819 -0.025561942 -0.15446538 -0.122982785 0.025354285
-0.15418822 -0.060289677 -0.006027628 0.030812731 -0.14276935 -0.1022666 -0.14787304 0.033078298
0.04874207 -0.04578991 -0.034586143 -0.074768625 -0.13290076 0.036532037 0.0170282 -0.041195806
0.032706555 -0.09199094 -0.02075758 -0.07858606 -0.07064779 -0.07233275 -0.0669677 -0.100124896
-0.0056811506 0.051532663 -0.038623773 -0.07236463 -0.098295994 0.034108333 -0.064331934 0.02330948
0.042140823 0.049303833 -0.14991002 -0.06541247 -0.02620686 -0.070033945 -0.05770186 -0.050594695
-0.010999707 0.067853525 -0.13907081 0.023996508 0.0007849879 0.022627702 -0.014265445 -0.11035067
-0.09223476 -0.105607845 0.08021655 -0.049058355 0.03142615 -0.1844797 0.03147479 0.07507717
-0.036430005 0.03741652 -0.023029119 -0.14673352 -0.1479604 -0.067782335 -0.074300505 0.04623319
0.07350514 -0.15877697 0.06263107 -0.12859596 -0.16470715 -0.072972804 -0.05163253 0.02730818
0.032025162 -0.05842233 0.045939494 0.059969783 -0.00068980834 -0.07466541 -0.04807744 -0.13691255
0.04782638 -0.12696777 -0.055365317 -0.03178484 -0.073384345 0.0664935 0.02994932 0.022295816
-0.025699388 -0.027019281 -0.08608446 -0.020274296 -0.041561082 0.027363775 -0.11460289 -0.1259307
-0.14213197 -0.043796375 -0.10299801 0.029078621 -0.15097697 -0.021097196 0.034728102 -0.018246707
-0.06297159 -0.025904486 -0.0776055 -0.12072126 0.015595337 -0.1322531 -0.11214506 -0.119247496
0.031263314 -0.040961124 0.026322585 -0.059019923 -0.16148779 -0.10474989 -0.041940384 -0.114765495
-0.10405548 -0.044508457 0.01290511 0.05749458 0.071751215 0.04438836 -0.11812365 -0.13850842
