checkpoints_quadruped/model_epoch_30.pth (torch, 424942 bytes, 30 tensors)

pos_embedding f4 [1, 49, 64]
000000 11 8f c2 3d c2 f8 3f bd d4 2c 01 3d a7 a7 ac 3c
       0.09499944 -0.046868093 0.031536892 0.021076037
000010 cf 28 3d 3d 7b 5b 6b bb b1 94 87 bd d5 16 c0 bd
       0.046181496 -0.003591268 -0.066201575 -0.09379355
000020 27 b8 a3 bd 37 69 8b 3b 4f 22 bd bb 8b 36 85 3a
       -0.07994109 0.004254486 -0.005771912 0.001016335
000030 05 0c 22 3d 7b f5 e6 bc c3 63 0c be 14 8a 12 bd
       0.039562244 -0.028193226 -0.13709931 -0.035776213
000040 eb c2 0a 3b f3 19 b9 3d d5 bc 26 bc 99 6b b7 bd
       0.002117331 0.090381525 -0.010176857 -0.089560695
000050 d4 8f 48 3d 96 48 4c bc 6c 60 e9 3d 33 3c bf 3c
       0.04896529 -0.012468478 0.11395344 0.023344135
000060 56 61 d0 3d d6 6e a1 bd b8 25 9f bd 4c 14 5d 3d
       0.10174815 -0.078824684 -0.07770866 0.053974435
000070 62 64 8f bc a9 9f 86 3d fb 69 ce bc b4 af d3 3d
       -0.017503921 0.065734215 -0.02519702 0.10336247
000080 fa b4 d3 3c ca 3b 99 bc 98 ca 96 3b d3 07 7d 3d
       0.025843132 -0.018705267 0.004601788 0.06177504
000090 42 75 ec bd fa a5 49 3d f7 c7 02 3d c7 dc 15 be
       -0.11545803 0.049230553 0.031928983 -0.14635001
0000a0 a8 9b 3c bd 64 54 33 3c 5a 30 5e bd 8d 7f 02 3e
       -0.046046883 0.010945413 -0.05424533 0.1274397
0000b0 bf 9d 05 bd c3 d7 ca 3d 8e 91 01 3d 61 13 4a 3d
       -0.03262114 0.099044345 0.031632952 0.049334887
0000c0 27 1a 35 bd 95 82 08 bb 1c 47 a6 3d aa 14 ba 3c
       -0.044214394 -0.0020829786 0.08119032 0.022714932
0000d0 5e 41 41 3d c6 28 58 bd bd d2 60 bd 27 8a 70 bd
       0.04718148 -0.05277326 -0.054888476 -0.058725502
0000e0 32 05 12 be b9 50 b9 bd af 6b 30 bb b2 14 d4 3d
       -0.14259794 -0.090486 -0.0026919653 0.1035551
0000f0 cb 86 81 bd 98 d0 f8 bd bf c6 da 3c 5e 77 bd 3d
       -0.06324538 -0.12149161 0.026706098 0.09251283
000100 d9 b0 48 3d 95 4a ba 3c 36 e4 61 3c 92 92 54 bc
       0.04899678 0.022740642 0.01378732 -0.012974398
000110 5d f4 41 bc 4c 4b b6 bd 57 3e 50 3d bf f5 1f 3d
       -0.011838046 -0.089010805 0.050840702 0.03905272
000120 33 e2 c7 bc 8c 55 af bc 7b bc c4 3c 13 75 ce 3d
       -0.024399852 -0.021403097 0.024015656 0.10080924
000130 a6 70 77 3b b2 b7 11 bc f3 02 31 bc f7 74 a9 bd
       0.0037756353 -0.008893894 -0.010803926 -0.082742624
000140 92 fa d2 bb 02 59 d2 3d 4d 5d 22 bb a6 2d b9 bd
       -0.0064385617 0.10270883 -0.002477485 -0.0904191
000150 69 7c bc 3c c8 8c 68 bd 30 2e 04 bd a8 17 d5 bd
       0.023008542 -0.056774884 -0.03227061 -0.10404903
000160 67 5a 89 3d b5 6c ef bd b9 bc 73 bb 96 ee 00 3d
       0.06706696 -0.11690656 -0.0037191345 0.031477533
000170 80 ce 44 bd b1 a6 25 bd 9c 41 a6 bd 5e 99 0d bd
       -0.048048496 -0.040442172 -0.08117983 -0.03457009
000180 5e 32 85 3b 27 32 9c bc 28 1c 92 3d 2b eb d2 bd
       0.004064842 -0.019066883 0.07134277 -0.10298761
000190 8b 3b df bd 53 d9 81 bd 1d e8 db bb 49 ed 2a 3c
       -0.10900029 -0.063402794 -0.0067110197 0.01043255
0001a0 24 1e ea 3b b8 9e 9d bd 43 11 e0 bc aa 47 f0 3d
       0.0071447063 -0.07696289 -0.027351981 0.11732419
0001b0 1b 0e f8 3c f4 dd 5a 3d 5c a5 cc 3c bb b3 92 3d
       0.030280164 0.053434327 0.024981193 0.07163187
0001c0 1e 90 e1 3b 32 e9 8b 3d 9e 7d 05 3d fa 2b b8 bd
       0.006883635 0.06831588 0.0325905 -0.08992763
0001d0 94 1b 1f 3d 28 9b 75 3d 5f ea 87 3d fd d1 9b 3b
       0.03884466 0.05996242 0.066364996 0.004755257
0001e0 b1 d0 01 3e 79 0a 35 bd ad eb 1c bc f8 71 51 bd
       0.12677266 -0.04419944 -0.009577674 -0.05113408
0001f0 e4 46 0f bd 99 a0 e5 bd 3d 7c bc bc f4 db ac 3d
       -0.034979716 -0.11212272 -0.02300846 0.0844039
000200 84 eb 36 3d ea 84 fb bc da c8 ac 3b 41 11 34 3b
       0.0446582 -0.030703027 0.005272967 0.0027476104
000210 e8 19 38 3c 63 4c e9 bc c0 6a b7 bd c6 52 a1 3d
       0.011236645 -0.028478807 -0.08955908 0.07877116
000220 13 d6 7f bd a8 d6 cd 3c d0 37 69 3d 82 c6 e6 bb
       -0.062460016 0.02512677 0.056937993 -0.007042707
000230 04 36 40 3d d9 e5 86 bd cc 79 c3 bd 96 31 17 bd
       0.046926513 -0.06586809 -0.09544715 -0.036912523
000240 a4 f4 bb bc 39 68 46 3d e8 36 52 3d b2 47 68 bd
       -0.022943802 0.04843924 0.051321894 -0.056709
000250 7c 34 3e 3d 41 2f 06 bd cf 86 de 3d 4c 96 cf bd
       0.04643677 -0.03275991 0.108655564 -0.10136089
000260 be d9 5a 3d 9d 3e 21 bd 60 ee 0e be 0d 63 96 bc
       0.05343031 -0.039366353 -0.1395812 -0.018357778
000270 30 ea 8f bd ef ee a4 bc 6f 92 35 bc 25 c4 6b bd
       -0.070270896 -0.020133464 -0.011082276 -0.057560105
000280 f4 e5 1c bd 5b c1 8b bd 97 2f f9 bc 9f 3d 2d 3d
       -0.038305238 -0.06823989 -0.0304182 0.042295095
000290 03 2c ba bd 1b 11 26 bd 75 07 79 3d 1b 63 73 bd
       -0.09090426 -0.040543657 0.060798127 -0.059420686
0002a0 dc 60 1d bb 36 e1 8d bc 21 2a 57 3d 55 32 0a 3e
       -0.0024014032 -0.017319303 0.05253041 0.13495763
0002b0 39 8f 46 3d 7b 0a b8 3d fe ff 4f bd 0b 84 6c 3d
       0.04847643 0.08986374 -0.050781243 0.057743113
0002c0 d1 c9 dd 3d 76 79 1c bd 8a 43 b4 3d 14 0f 31 bd
       0.10829509 -0.03820177 0.088019446 -0.04322727
0002d0 40 4f 3e 3d df d2 fc 3c 59 1b 4d bd 08 b0 c3 3c
       0.046462297 0.03086227 -0.05007491 0.02388765
0002e0 7c c6 0b bc 15 56 a0 bc 31 47 86 bc 79 80 10 3c
       -0.008531209 -0.019572297 -0.016391369 0.008819693
0002f0 b3 67 1a 3b c4 d5 eb bd 3e c8 a6 3d a5 f6 ca 3d
       0.0023560345 -0.11515382 0.08143662 0.09910325
000300 28 47 97 3d 0f 7a 61 bc 22 77 b2 3c fc f3 27 3d
       0.07386619 -0.013762011 0.021785323 0.041004166
000310 25 62 56 3c 2d 30 86 b9 28 d4 c0 bd 49 80 68 bc
       0.013084923 -0.00025594365 -0.094154656 -0.014190742
000320 e5 b8 30 be af 7f 5c bb e2 3e 1c 3d a8 41 06 3d
       -0.17258032 -0.0033645441 0.038145907 0.03277746
000330 b7 f7 83 3d 95 5b a6 bd 0b dd 9a bd b9 9c 04 3d
       0.06443732 -0.08122937 -0.07561692 0.032376025
000340 c8 e4 2f bd bd 78 b0 3d d2 46 b3 3c cb 97 bc bd
       -0.042942792 0.08616779 0.021884356 -0.0920864
000350 ba 9d e3 3c 04 fd ed bc f2 53 c9 3d 0c 41 4f 3d
       0.02778517 -0.029051311 0.098304644 0.050599143
000360 f8 91 06 3e f5 3d 9d bd 2b 79 0e be 15 b2 0e 3e
       0.1314162 -0.07677833 -0.1391341 0.1393512
000370 80 37 c4 3c 37 b8 6c bc e5 48 9c bd 8a bd af 3c
       0.023952246 -0.014448217 -0.07631091 0.021452684
000380 a9 b3 37 3d ec 19 8c bd e7 0a a4 bc 2b 6f 0f 3c
       0.04484907 -0.06840882 -0.02002473 0.008754532
000390 1d ef 8f bd bb cc 4d 3d 51 c3 0e bb 27 54 be bd
       -0.07028029 0.050244074 -0.0021783898 -0.092933945
0003a0 71 8c e3 bc 7a 80 1f bc 18 e3 45 bd 11 15 1d 3e
       -0.027776929 -0.009735221 -0.048312277 0.15340067
0003b0 47 d3 a7 bc c6 d2 12 3e 52 26 31 bc fd 6c a9 3c
       -0.020486487 0.14338216 -0.010812359 0.020681852
0003c0 b0 4f 8f bd 98 6c 00 3d 1d 83 b6 3d ed bb 73 bc
       -0.06997621 0.031353563 0.089117266 -0.014876348
0003d0 5e 61 6a 3d 40 89 98 bd bc a7 64 bd a0 97 9b 3c
       0.057221763 -0.07448053 -0.055824026 0.018993199
0003e0 d2 c1 48 bd 14 76 94 bd 55 05 bf bd 50 fb 1c 3d
       -0.049012966 -0.07249084 -0.09327189 0.038325608
0003f0 40 49 17 3c 24 ba 5d be 3e cf 2e 3d 08 24 18 3e
       0.009233773 -0.21653038 0.04267811 0.14857495

feature_encoding.0.weight f4 [64, 1]
000000 f1 e0 71 be 74 a4 1f bf 24 eb 21 3f 8b 4a 97 be
       -0.23620965 -0.6236031 0.6324942 -0.2954906
000010 cf 20 5a bf b9 bd 1d bf 96 a8 0a bf 00 29 47 3f
       -0.8520631 -0.6161762 -0.5416349 0.77796936
000020 6f 47 81 3f 5c 39 7b bf 12 ba c2 be 60 56 86 bd
       1.0099925 -0.981344 -0.38032585 -0.065594435
000030 1e e2 37 bf 49 e0 5c bf 9f 92 02 bf b9 65 5e be
       -0.718294 -0.8627973 -0.51004976 -0.21718492
000040 71 99 9f bc 93 ee 61 bf 67 52 1d be 7d ae 36 bf
       -0.019482346 -0.8825466 -0.15363465 -0.7136
000050 9a 5f 1c bf c0 32 6d 3e 68 0d 7c 3f 2a 62 e8 3e
       -0.61083376 0.23163891 0.98457956 0.45387393
000060 1a e0 64 bf 6f 3b 6d 3f bf fb bd 3e 7d e4 4f bf
       -0.8940445 0.92668813 0.3710613 -0.8120802
000070 21 61 53 be f6 ab 5d bf 74 97 5e 3f f9 4e 42 be
       -0.2064252 -0.86590517 0.8694985 -0.18975438
000080 75 8c 13 3f 73 61 43 3f 82 28 41 bf eb 94 b5 3e
       0.57636195 0.7632057 -0.75452435 0.35465178
000090 43 2a 4b 3f f5 d4 ab be 81 28 53 bf 9b b3 3f bf
       0.7936136 -0.3356091 -0.8248368 -0.7488343
0000a0 81 cd b6 be f7 f4 11 be 38 fe c6 3e 5a 68 e7 3d
       -0.35703662 -0.14253603 0.3886583 0.112992
0000b0 22 6e 06 3f d7 12 a6 be 6e c2 8d 3e f9 43 f1 3e
       0.525118 -0.3243625 0.276874 0.47122172
0000c0 29 8c 74 3f f4 a4 12 bf 98 a9 11 3f 76 13 0a 3f
       0.9552637 -0.5728295 0.56899405 0.53935945
0000d0 96 b4 56 3f 8c 43 50 bf c1 51 2b bf 18 cd bf bd
       0.838693 -0.8135307 -0.6692162 -0.093652904
0000e0 69 13 d7 3e 9f 49 5e bf 90 5a 6a 3f fc 58 9c 3e
       0.42006996 -0.86831087 0.9154444 0.3053664
0000f0 ff 02 ae 3e cc a5 60 bf 1b 6d 52 3f fb 0e 13 3c
       0.3398666 -0.87752986 0.8219773 0.00897574

feature_encoding.0.bias f4 [64]
000000 52 17 95 3e 3a 99 32 bc a7 71 49 3f 32 2c dc be
       0.29119354 -0.01090079 0.78689045 -0.43002468
000010 d0 1c 09 3f 89 fe 22 bf 6b 5f 05 3e b5 04 8c be
       0.5355959 -0.6366964 0.1302468 -0.2734734
000020 95 b1 14 bf c9 79 c4 be 5e 8e f2 be 6d 42 dd 3d
       -0.5808347 -0.38374165 -0.47374243 0.10803685
000030 38 93 f2 be 0b 17 1d 3f 0e f8 27 3f c0 f4 5f bf
       -0.47377944 0.61363286 0.65612876 -0.87482834
000040 5d 2a 42 bc ce 4f 08 bd ac 41 bb bc 0f 8b c7 be
       -0.0118509205 -0.033279233 -0.022858463 -0.3897328
000050 f7 c1 23 3f 41 83 15 be 84 e4 19 3f a3 58 7d 3f
       0.6396784 -0.1460085 0.6011431 0.98963374
000060 c4 1e 2f 3f 8a 9e 41 3f e3 ac b0 be 02 55 5e 3f
       0.6840632 0.75632536 -0.34506902 0.8684846
000070 68 98 39 bf 4f 21 3f bf 2f 6d 5a 3f 91 48 26 bf
       -0.7249818 -0.746602 0.8532285 -0.6495448
000080 0d 0f c5 3c 8c de 38 bf d1 86 34 3f 7b 45 56 3f
       0.024055028 -0.7221458 0.70518214 0.8369977
000090 87 26 84 bf 33 55 42 bf 4b 75 3c bf 48 b8 1e bf
       -1.0324258 -0.75911254 -0.73616475 -0.6199994
0000a0 94 fe dd be 56 42 7f 3d b7 a3 f4 3e 53 f9 d9 be
       -0.4335829 0.062319122 0.47781155 -0.42573032
0000b0 7c 88 59 3c a7 1f 67 3f fd 9b 79 3f fe 39 32 3f
       0.013277169 0.9028267 0.97503644 0.6961974
0000c0 04 88 78 3f 16 f3 70 3f 99 9b d9 bc bf 00 42 3f
       0.97082543 0.9412092 -0.026563453 0.7578239
0000d0 d3 77 62 bf 99 63 ce 3e a2 a8 fc 3e cd 74 7b 3f
       -0.8846409 0.40310362 0.49347407 0.982251
0000e0 0c a3 8a bf 20 bb 86 be 75 dc d6 3e 6e 06 18 3f
       -1.0831008 -0.2631464 0.4196507 0.5938481
0000f0 7c 61 1f 3e cf 49 8a be 69 86 89 bf 0c b0 56 3f
       0.15564531 -0.27009436 -1.0744144 0.83862376

feature_encoding.1.weight f4 [64]
000000 22 40 7d 3f 67 d9 74 3f 40 81 72 3f 2d 50 81 3f
       0.98925984 0.9564423 0.9472847 1.0102593
000010 59 3e 73 3f 95 4c 77 3f cf a8 7c 3f 33 c6 6f 3f
       0.9501701 0.9660123 0.9869508 0.93661803
000020 12 9f 72 3f 45 e2 7a 3f 4d df 86 3f d0 46 7d 3f
       0.9477397 0.9800151 1.0536896 0.98936176
000030 86 33 7f 3f 83 48 70 3f de c4 70 3f 6b 77 97 3f
       0.99687994 0.93860644 0.94050395 1.1833318
000040 27 d0 87 3f 1b 25 76 3f 18 43 85 3f 01 8d 73 3f
       1.0610398 0.9615037 1.04111 0.9513703
000050 e4 1d 6f 3f f6 5a 7c 3f e1 9a 74 3f 66 9c 73 3f
       0.93404984 0.98576295 0.95548826 0.9516052
000060 87 43 69 3f c2 9e 6e 3f 3a ae 77 3f 11 d9 6a 3f
       0.91118664 0.93210995 0.96750224 0.9173747
000070 03 e0 97 3f 2e 2f 80 3f 8c e1 61 3f 82 c8 84 3f
       1.1865238 1.0014398 0.8823478 1.037369
000080 da 9d 81 3f 1a 78 7a 3f 71 39 65 3f 5f bd 76 3f
       1.0126297 0.9783951 0.89540774 0.9638271
000090 8d 74 77 3f 5b 91 82 3f 88 c4 81 3f cc 72 81 3f
       0.9666222 1.0200609 1.0138102 1.0113158
0000a0 e7 41 7e 3f 8a d1 81 3f 7a 63 77 3f 5e db 65 3f
       0.9931931 1.0142071 0.96636164 0.8978785
0000b0 d8 1e 78 3f ee 8c 69 3f 8b 6a 77 3f 19 91 6f 3f
       0.96922064 0.91230667 0.96646947 0.93580776
0000c0 37 1d 67 3f 68 06 64 3f 9e 02 7a 3f a8 47 75 3f
       0.90278953 0.89072275 0.97660244 0.95812464
0000d0 2b a5 78 3f 7a 78 75 3f 14 17 71 3f 40 6b 72 3f
       0.97127026 0.9588696 0.9417584 0.946949
0000e0 49 d7 82 3f 80 ba 71 3f 89 12 7a 3f 69 60 7a 3f
       1.022195 0.944252 0.9768453 0.9780336
0000f0 49 f7 7c 3f fb 9d 72 3f aa 72 74 3f 00 81 73 3f
       0.9881483 0.9477231 0.95487463 0.95118713

feature_encoding.1.bias f4 [64]
000000 ba 16 a6 bb ed a4 33 bd 45 71 5d bd 0c 03 0b 3d
       -0.005068627 -0.043858457 -0.0540631 0.033938453
000010 b4 b5 24 bd a2 c5 46 bd 12 e8 52 bc dc 31 35 bd
       -0.040212348 -0.04852832 -0.012872713 -0.044237003
000020 aa 28 8d bd 95 a9 dc bc 96 93 2c bc c2 61 d7 3c
       -0.06892522 -0.026936332 -0.010533234 0.026291732
000030 09 7e 10 bc fc 03 46 bd 54 73 5a bd 2b 0b e1 3c
       -0.008819112 -0.048343644 -0.05333264 0.027471146
000040 8a 67 eb 3a 22 d8 3b bd 41 64 66 3c 0f 8f d9 bc
       0.0017959934 -0.045860417 0.014061988 -0.026557473
000050 2a b8 3c bd 0f 53 6d 3c 7e 0c 82 bd 02 70 6c ba
       -0.04607407 0.014485135 -0.06350039 -0.0009019376
000060 9a f7 a0 bd eb db 88 bd 6d cc 82 bc 38 56 aa bd
       -0.07859726 -0.06682571 -0.015966618 -0.08317226
000070 37 94 f7 3c 8a ac d6 bc 49 64 97 bd 25 39 60 3d
       0.030222042 -0.02620532 -0.07392175 0.054741997
000080 43 7b 0e bb c8 b6 1c bd a0 11 da bd 33 40 aa bc
       -0.002174095 -0.03826025 -0.10647893 -0.020782566
000090 6f f8 2b bd c8 a9 17 bc a5 ee a1 bc de 01 0e bd
       -0.04198497 -0.009256788 -0.019767115 -0.03466975
0000a0 d5 27 ca ba e2 83 4b 3c 3c bb bc bc b5 9a ab bb
       -0.0015423248 0.01242158 -0.023038499 -0.0052369484
0000b0 f8 08 be bb 1c 40 88 bd b0 bf 42 bd 14 56 1e bd
       -0.005799409 -0.06652853 -0.04754609 -0.03865631
0000c0 c5 e7 b0 bd 15 b1 e0 bd 26 4c b6 bc 9e 1a 52 bd
       -0.086379565 -0.10971276 -0.022253107 -0.051294915
0000d0 0a 59 98 bc ee f8 43 bd f8 43 a1 bd b1 72 d6 bc
       -0.018597145 -0.04784482 -0.07874292 -0.026177736
0000e0 bc ab 2d bd b3 73 45 bd 59 fe 41 bc 5c eb 7b 3c
       -0.042400107 -0.048206042 -0.011840426 0.015375938
0000f0 45 56 18 3b 59 b4 2f bd a3 76 a4 bc 16 3b 16 bc
       0.002324478 -0.042896602 -0.020076102 -0.009169361

layers.0.norm1.weight f4 [64]
000000 42 6d 80 3f b0 b5 82 3f ee f8 81 3f dd 11 84 3f
       1.0033343 1.0211697 1.0154092 1.0317951
000010 e6 cb 80 3f 30 5d 82 3f bd 9c 81 3f 4b 88 83 3f
       1.0062225 1.0184689 1.0125958 1.0275968
000020 88 20 83 3f 37 af 83 3f 09 91 84 3f d9 cb 8b 3f
       1.0244303 1.0287846 1.0356761 1.0921584
000030 e0 ac 82 3f dd 64 81 3f 4e 60 81 3f ea b3 8e 3f
       1.0209007 1.0108906 1.0107515 1.1148655
000040 6a 6c 87 3f 18 b3 85 3f 59 93 85 3f 5c 26 83 3f
       1.057996 1.044528 1.0435592 1.0246081
000050 9e 13 82 3f 88 e7 84 3f 99 59 81 3f ad 1a 85 3f
       1.0162237 1.0383158 1.0105468 1.0398766
000060 14 23 7f 3f de 43 81 3f 9c 88 85 3f dc ca 7f 3f
       0.996629 1.0098836 1.0432315 0.99918914
000070 ad 8c 86 3f 20 4d 8b 3f 90 fa 81 3f a6 f5 8c 3f
       1.0511681 1.0882912 1.0154591 1.1012466
000080 a4 08 81 3f a4 07 8b 3f 73 2c 81 3f 6c de 82 3f
       1.0080762 1.0861707 1.009169 1.0224128
000090 99 c2 81 3f 19 55 86 3f ca c6 85 3f c9 82 84 3f
       1.0137511 1.049472 1.0451291 1.0352412
0000a0 9e eb 84 3f 8e a3 81 3f 49 be 8b 3f 2c 8f 83 3f
       1.0384405 1.0128038 1.0917445 1.0278068
0000b0 b5 ed 86 3f 22 65 7f 3f c4 5b 83 3f ac be 82 3f
       1.0541292 0.9976369 1.026238 1.0214438
0000c0 49 b9 82 3f 7e 07 7f 3f 34 11 82 3f 1e 0b 84 3f
       1.0212795 0.9962081 1.01615 1.0315893
0000d0 d3 55 81 3f c0 db 85 3f 51 94 82 3f 5b e1 81 3f
       1.0104316 1.0457687 1.0201513 1.0146898
0000e0 03 c8 81 3f 75 14 85 3f ac 15 84 3f 60 7e 82 3f
       1.0139164 1.0396868 1.0319114 1.0194817
0000f0 64 dd 85 3f a6 00 83 3f 12 46 83 3f 90 e6 87 3f
       1.0458188 1.0234573 1.0255759 1.0617237

layers.0.norm1.bias f4 [64]
000000 2d ec 04 3c 34 36 4c 3c a8 aa 8d bc f9 d3 00 3c
       0.008112949 0.012464095 -0.01729329 0.007863038
000010 7f 45 19 bb 2e fa 58 3c 5b a2 dd 3c 23 f0 9d 3c
       -0.002338737 0.013243241 0.027054956 0.019279545
000020 0c 2d 92 3c 1f 9f 35 3c 0c ea ff 3b aa 20 0e 3d
       0.017843746 0.011085301 0.007809883 0.03469912
000030 46 75 30 3c aa b1 52 bc bf ff 9f bc f1 c0 c8 3b
       0.010770148 -0.012859741 -0.019531129 0.006126516
000040 86 2c 57 3c ea 94 98 3b 0c 1a 8f 3c d0 f5 70 3c
       0.013133174 0.004656424 0.017468475 0.014707044
000050 be 81 72 bb 14 98 9c bb 12 cf 4a 3c bd 6a 8f bc
       -0.0037003602 -0.0047788713 0.012378471 -0.017506951
000060 85 73 1f bc 1d 0b d9 bb 55 96 8b bc 3c 80 91 bc
       -0.009732132 -0.0066236393 -0.017039457 -0.017761342
000070 6a 30 9f bb 41 c9 e1 3a e4 e9 07 bc d9 e2 42 bb
       -0.0048580663 0.0017226116 -0.00829551 -0.0029737263
000080 28 66 b2 3c 3f 9a 67 3c 14 27 71 bc 49 06 19 bc
       0.021777228 0.014135896 -0.01471879 -0.009339877
000090 bf 42 26 3c 4a 1c 67 3c e7 d1 72 3c 4e fb 0b 3c
       0.010147749 0.014105866 0.014820552 0.008543802
0000a0 67 54 45 3c d3 8a 52 3c ac 38 9d 3a 3f d8 22 bb
       0.012044049 0.012850481 0.0011995039 -0.002484813
0000b0 13 72 8f 3c 3e 61 0f bd 68 55 7d bc 1b a5 dd bb
       0.01751045 -0.035004847 -0.015462257 -0.006764067
0000c0 01 d4 e3 bb 03 fc 17 bd a6 49 cd 3b 73 bf 6f bb
       -0.006952763 -0.03710557 0.006264883 -0.0036582618
0000d0 c3 de a2 3c 85 1c 85 3c b5 52 de bb e2 de 21 3b
       0.019881612 0.01624895 -0.006784762 0.00246995
0000e0 9a 6e 84 3b 6e 60 9a 3c a2 29 95 3c f0 d4 45 b9
       0.004041505 0.01884481 0.018208329 -0.0001886671
0000f0 79 e2 57 ba 76 24 a3 bc 63 0f c5 3b 51 c5 c0 bb
       -0.0008235346 -0.019914847 0.006013797 -0.005882897

layers.0.attention.in_proj_weight f4 [192, 64]
000000 6e e6 85 3d 63 04 1a 3e cb c8 bb 3d 4f bf 07 be
       0.065380916 0.15040736 0.091691576 -0.13256572
000010 8f 27 7e 3d 68 0a 6b bd 3e 72 1c 3d 31 9e 57 bd
       0.062049445 -0.05738297 0.038194887 -0.052641097
000020 47 6a 21 be 08 08 b1 bc 3d d3 55 3d 76 e4 3f bd
       -0.15763198 -0.021610275 0.052203406 -0.046848737
000030 6a ba 08 be 65 63 47 3d 8a d6 70 3c 08 95 16 be
       -0.13352361 0.048678774 0.014699588 -0.14705288
000040 7c e9 cd bd 15 e3 33 3e 9d 1c bf bd d1 ec b3 bd
       -0.10054299 0.17567094 -0.093316294 -0.087854035
000050 8f 4d 87 bd 0d 05 50 3d 54 e9 d3 3d c9 12 ab 3d
       -0.0660659 0.050786067 0.10347238 0.08353192
000060 e8 94 61 3c 86 e9 53 bb 40 4b 01 bd 83 d6 03 bc
       0.013768412 -0.0032335236 -0.031565905 -0.008046749
000070 ba 13 dd bd 8b eb 13 be 5b 8a 71 3d e5 72 ef bb
       -0.10794778 -0.14445321 0.058969837 -0.0073073977
000080 b7 66 b6 3b f0 cd 04 be 58 3a 6b 3d ce b3 2f bc
       0.005566444 -0.12969184 0.057428688 -0.010724021
000090 99 6d 00 bc e4 36 80 bc 39 b6 3e b9 d5 06 5f bd
       -0.00783863 -0.015651174 -0.00018187695 -0.054449875
0000a0 4c 32 0a be a8 f7 ee bd 15 f8 8f bd e8 3b 80 3d
       -0.13495749 -0.116683304 -0.0702974 0.06261426
0000b0 9b 2c 0d bb 50 10 fa bc 76 44 4a 3e 16 25 01 3e
       -0.002154148 -0.030525357 0.19752678 0.12611803
0000c0 8f 6b 36 bd 4d e6 f5 3d 91 5b 37 bd ac ee 0d be
       -0.04453617 0.12006817 -0.04476506 -0.13860577
0000d0 6a ee 8c bc e6 40 58 3e e3 14 26 3e 98 d0 04 3e
       -0.017203528 0.21118507 0.16218905 0.12970197
0000e0 a4 a3 b6 bd 71 dc 95 bc de b0 f4 bd a2 9c 30 bd
       -0.08917931 -0.018293591 -0.11947797 -0.043118127
0000f0 4f 97 00 be 6f 70 bb 3d fe 93 f0 bc c9 dd dc bd
       -0.1255772 0.091523044 -0.029367443 -0.1078449
000100 bc 84 e9 bd 3e 14 a5 bd 6a 35 33 be 83 66 f3 bc
       -0.1140227 -0.080605015 -0.17500845 -0.029711967
000110 62 c9 be bd b9 4b 2b 3e 6c 29 27 3e 1a c9 a7 bd
       -0.093157545 0.16728105 0.16324395 -0.08192654
000120 20 63 0d 3e b7 c7 f9 3d 41 00 72 3d 7b c2 bb bd
       0.13807344 0.12196296 0.059082273 -0.091679536
000130 80 d7 d4 3d 30 8c 90 3d 9b e5 88 bd c5 e8 29 3e
       0.10392666 0.07057989 -0.06684419 0.16592701
000140 6f 74 d9 3d 6c 85 27 3e 94 dc 2f 3e 3e 2b 3a 3e
       0.10617911 0.1635949 0.17173988 0.18180558
000150 90 7d 26 3b 9d 61 81 bd 99 dd 0d be a9 77 22 3d
       0.002540443 -0.063174464 -0.13854064 0.039664898
000160 32 42 c4 3c 84 88 91 3d 30 95 1d 3d 8f 3a 48 3b
       0.023957346 0.071061164 0.038472354 0.0030552482
000170 f6 ff 0f 3d b8 e6 36 3e 0e b6 e1 bd 95 63 86 3b
       0.035156213 0.1786145 -0.11021052 0.0041012266
000180 01 73 c0 3d f4 18 4e bc 0e 34 dc bd 80 db 87 be
       0.09396935 -0.0125791915 -0.10752116 -0.26534653
000190 53 d6 bf bc 2d 6c 87 bc 1d 49 7c 3e 18 e6 80 3e
       -0.023417627 -0.016531074 0.24637266 0.25175548
0001a0 87 0d 77 bd d1 12 33 3e 17 b7 11 be 49 3d bd bd
       -0.060315635 0.17487647 -0.1423 -0.09240205
0001b0 56 4b 1c 3e 73 97 0f 3d fd 42 fc 3c 8e 6e e0 bd
       0.15263113 0.035056543 0.030793661 -0.10958587
0001c0 3c ed f6 bd 53 f9 52 bc 42 6e a6 bc f5 79 19 bd
       -0.120569676 -0.012876826 -0.020316247 -0.037469823
0001d0 f0 55 b6 3b 2f f2 7c bd 18 1b 39 be 65 6b 37 be
       0.0055644438 -0.0617544 -0.18076742 -0.17912062
0001e0 d5 85 48 bd 88 c6 0e bb 5f 59 79 3d 3e d6 11 be
       -0.048955757 -0.0021785814 0.060876247 -0.14241883
0001f0 7d 4d 69 3c 63 93 08 3b 24 32 f2 3d d7 22 3c bd
       0.014239666 0.0020839802 0.1182597 -0.045931663
000200 80 72 3f be 40 c8 07 3e 91 35 0e 3c 99 24 a1 bd
       -0.18696022 0.13259983 0.008679763 -0.078683086
000210 e6 c1 12 be 23 40 04 3e 41 99 84 bd 52 d7 5f 3e
       -0.14331779 0.12915091 -0.06474543 0.21859482
000220 02 df 8d bd c8 a7 62 3e 80 4e 08 3b ee a5 19 3e
       -0.06927301 0.22134316 0.0020798743 0.15004703
000230 3e a1 ac 3d 45 9d 0d be d1 79 dd 3c 71 09 60 3e
       0.08429192 -0.13829525 0.027035626 0.21878602
000240 86 3e e9 bb 20 25 a3 bb 8d cd 21 3e 90 8e 30 3e
       -0.007118049 -0.004978791 0.15801068 0.17241883
000250 06 fc f9 bc 28 48 a5 bd 80 83 c3 3c 00 4a 8a be
       -0.030515682 -0.08070403 0.023866415 -0.27009583
000260 7c fb c3 3d 73 fd 2e 3d 51 b3 bc 3d d7 88 2a be
       0.09569451 0.042722177 0.092138894 -0.16653763
000270 de 84 94 3d db 02 86 3e 8f 84 88 bd 48 84 f2 3d
       0.07251905 0.26174054 -0.066659085 0.11841637
000280 df 10 d8 bd 13 f3 bd 3b a4 6e cd bd 71 16 88 bd
       -0.10550093 0.005796799 -0.10030869 -0.06644905
000290 45 57 c1 3d 08 37 3a 3e 1c 01 a9 3e a7 0a 80 3e
       0.094404735 0.18185055 0.3300866 0.25008127
0002a0 38 89 c0 bc c5 ae 71 3e fe 9d 0c be aa 4b 8d bd
       -0.023502931 0.23601826 -0.13732144 -0.068991974
0002b0 f3 e4 0a 3e 71 c3 84 bc 7e 4c 19 be cf 63 d1 bd
       0.135639 -0.016206475 -0.14970586 -0.10224115
0002c0 7b 48 b6 3b 7f a9 4b be a7 64 2a 39 8c d2 3c be
       0.0055628396 -0.19888876 0.0001624996 -0.18439692
0002d0 51 59 4b 3d 40 28 16 be 99 11 98 3c 40 ec c7 bd
       0.049645726 -0.14663792 0.018563079 -0.09761858
0002e0 aa 57 85 3a 41 f7 c3 bc 7c 0a d0 3d 54 49 0a be
       0.0010173221 -0.02392161 0.1015825 -0.13504535
0002f0 97 22 84 bd 6d d7 95 3e dc 14 14 3e 73 28 ae be
       -0.0645191 0.2926592 0.14461082 -0.34015235
000300 94 49 1f be 3f 0d e7 bc e7 88 c1 3d a7 5d b5 bb
       -0.15555412 -0.028204558 0.0944994 -0.005534846
000310 97 16 14 be 8e 0d 52 3d e7 2d 09 bd 84 f9 f7 3d
       -0.14461742 0.051282458 -0.03349104 0.12108138
000320 2d 0e d3 3b 75 52 a4 3b 73 1b 80 3d 2c cd d8 bd
       0.006440899 0.0050147125 0.062552355 -0.105860084
000330 21 3e 2b 3e 5b e4 5e be c3 75 ab bd 5c c8 a0 bd
       0.16722919 -0.21766798 -0.08372071 -0.078507155
000340 44 93 a1 bd e2 b0 1e be 71 d5 4e 3e 11 9e 98 bb
       -0.07889417 -0.15497163 0.20198609 -0.004657515
000350 e5 ea 3c be cd 31 e6 3d 51 4d 38 3e 2e 7f 7c 3c
       -0.1844898 0.112399675 0.17998244 0.015411181
000360 33 7b f7 bd 27 5c 7b bd 65 bf f4 bb 5e f6 a2 bd
       -0.12084045 -0.06136718 -0.007469105 -0.07957147
000370 55 12 fe bc a3 4a 49 3d 5e 60 23 3e 35 75 f7 3d
       -0.0310146 0.049143445 0.1595473 0.12082902
000380 17 65 ab 3c f9 ad 18 be 91 ea ba bd 40 78 13 be
       0.020922227 -0.14910115 -0.09126771 -0.1440134
000390 48 f3 c9 3c a9 80 c4 bd 88 01 74 3e 92 a9 25 3b
       0.024652138 -0.095948525 0.23828709 0.0025278074
0003a0 9d a3 34 3e 5b cd 02 bd 0d 68 20 3e 64 cb c6 3d
       0.17640539 -0.031934123 0.15664692 0.097067624
0003b0 6c 14 4b 3e 28 97 49 3a cc 17 1b be 02 42 0e 3e
       0.19832009 0.00076900655 -0.15145797 0.13892367
0003c0 a0 4a 63 bd 71 54 64 be de 3d 1d 3d a2 14 a1 3d
       -0.05549109 -0.22297837 0.03838908 0.078652635
0003d0 d3 36 0a 3d 15 41 09 be ac 47 e3 3c 92 04 03 be
       0.03374369 -0.13403733 0.027744137 -0.12794712
0003e0 9b 21 63 bd a3 82 6f 3d 55 95 32 3e 87 f3 80 3d
       -0.05545197 0.058474194 0.17439778 0.06296449
0003f0 42 23 d5 3c 54 98 b7 3d 4e ec e6 bd b4 f2 1c be
       0.026017789 0.08964601 -0.1127554 -0.15326959

layers.0.attention.in_proj_bias f4 [192]
000000 62 67 7c 3d be 2f 2a bc a7 7e 1b bd 84 f2 04 bd
       0.06162203 -0.010387359 -0.037962582 -0.032457843
000010 dd 6b 50 3d a2 a1 a2 bd 4f 4f a1 bd 78 4d 03 bd
       0.050884116 -0.07940985 -0.07876455 -0.0320563
000020 d6 4f f4 ba cb f4 92 bc 53 9e e5 3d 45 9e b6 bc
       -0.0018639516 -0.017938992 0.112118386 -0.022292266
000030 35 d4 67 bd 61 2e 84 3d 9e 6b dd 3b 9f 3a c2 bc
       -0.05659886 0.064541586 0.0067572137 -0.023709593
000040 54 22 bf 3b 34 45 46 3b cf f3 37 3c be 16 a6 3c
       0.0058329497 0.003025365 0.011227562 0.020274516
000050 a7 ae 27 bd 43 7e be 3a 2d bd 22 3b c9 8d 13 bd
       -0.040938046 0.0014533479 0.0024831996 -0.03602389
000060 6f 7f a8 3a b0 78 7a 3b 74 d7 c8 3b cd e6 4d bc
       0.0012855361 0.0038218908 0.0061291996 -0.012567234
000070 96 e7 96 3a 5b bb 9c bc c1 de 86 bb 2f cf 7b bc
       0.001151311 -0.019132307 -0.00411591 -0.015369221
000080 34 4a 3b bb 15 95 e8 bc 3e 4d 1e 3d e3 81 a1 3b
       -0.0028578164 -0.0283914 0.038647883 0.004928814
000090 3f 1d cd b7 1c 20 0a bd dd a0 33 3b 99 a7 7d 3d
       -2.4451523e-05 -0.033722028 0.0027409114 0.06192741
0000a0 f0 e8 15 3c 70 91 77 3c 3c 72 c2 bb e4 b8 c5 bb
       0.009149775 0.015110359 -0.005934028 -0.0060340036
0000b0 b0 03 30 bc 30 22 30 bb 38 93 9d 3c b5 f0 cb bc
       -0.010743067 -0.0026875846 0.019235238 -0.024895051
0000c0 37 1e e6 bb 2c af bb bd 44 7e 46 ba 4d 03 ce 3a
       -0.007022645 -0.09164271 -0.00075719156 0.0015717536
0000d0 50 1d fd bb c4 0c d3 3c a1 9d a0 3c 03 ec 69 b9
       -0.0077244416 0.025762923 0.019606413 -0.00022308533
0000e0 1d 5c 96 bc 39 e7 90 bc 61 d3 95 3c 28 ed c3 bc
       -0.01835447 -0.01768838 0.01828927 -0.023916796
0000f0 5c ea 09 bc 53 b8 06 3b c8 fb 8d bb 07 ef 01 3a
       -0.008417692 0.0020556643 -0.004332993 0.00049565773
000100 6e d9 bb b9 b1 e0 28 ba 6a 08 ae ba 56 2a 89 3a
       -0.00035829417 -0.0006442173 -0.0013277654 0.0010464888
000110 dc 14 11 ba 8a d7 a5 3a 15 b8 7e 39 b9 a0 ae ba
       -0.00055344193 0.0012652737 0.00024291904 -0.0013323046
000120 df d5 1b 3a b3 3b df b9 96 34 0c bb 26 a6 1c 3b
       0.000594465 -0.00042578354 -0.0021393648 0.0023902743
000130 8a 8c 2e 3a 9a 02 1c bb ec d3 40 ba 02 26 cd 3a
       0.0006658515 -0.0023805262 -0.00073557976 0.0015651586
000140 2e f2 24 3a 63 ec 57 38 94 cd 29 39 ba 2d 70 39
       0.0006292191 5.1480147e-05 0.0001619368 0.00022905218
000150 24 5f 6a 39 46 de 60 b9 56 c2 4f 38 2c a5 65 b9
       0.00022351422 -0.00021445108 4.9533635e-05 -0.00021900673
000160 be eb 16 b9 06 f9 a2 38 c3 1d 06 ba 7c 63 7f 39
       -0.00014392936 7.771146e-05 -0.0005116129 0.00024355756
000170 65 e8 0e b9 f3 52 2e b9 9d 4e ca b8 2a 08 49 39
       -0.00013628749 -0.00016624834 -9.6467535e-05 0.00019171895
000180 91 dc e2 b8 23 de 1f ba dc 2b 02 3a 66 23 cd b8
       -0.000108176035 -0.00060984696 0.0004965642 -9.781755e-05
000190 46 af b1 b8 82 0a 89 3a 2f c3 a6 39 22 5e 08 b9
       -8.472665e-05 0.0010455402 0.0003180741 -0.00013005038
0001a0 8d 4a 33 b9 bf a4 ce 39 5e f4 de b8 0d 93 6b b9
       -0.00017098543 0.00039414127 -0.00010631302 -0.00022466127
0001b0 e0 58 89 38 e8 84 b1 b9 51 c3 d0 b8 0c 8f 9b 38
       6.549223e-05 -0.00033859094 -9.9545934e-05 7.4176205e-05
0001c0 42 52 f0 3a 71 31 84 3b 84 29 69 ba e1 7a a5 39
       0.0018335062 0.004034214 -0.0008894431 0.00031562804
0001d0 13 c5 02 ba 00 b3 3e 3a 2f 3d c0 b9 fd 16 b1 3a
       -0.0004988473 0.0007274598 -0.0003666668 0.0013510879
0001e0 2e 1d 6f 39 21 d1 2d 3b 8b 73 b7 ba 22 f7 ac b7
       0.00022803686 0.0026522356 -0.0013996226 -2.0619078e-05
0001f0 d3 43 98 3a ee da 7b 39 29 64 11 ba 6d d2 7c 39
       0.0011616893 0.00024018783 -0.0005546236 0.00024110982
000200 0a 54 ea ba c2 ba 3e 3c e3 79 61 3a ca 0b 09 3c
       -0.0017877829 0.011641206 0.00086012314 0.008364627
000210 4f 51 72 3c 9c 0b 0c bc ab 27 59 3c ae ab 5d 3c
       0.014789893 -0.00854769 0.0132540865 0.013529701
000220 5e e8 04 3c 3d 52 c3 3b 15 50 08 bc c8 84 b6 bb
       0.008112041 0.0059607313 -0.008319874 -0.005570028
000230 c8 a3 88 bb 40 29 b9 bc e6 d1 88 3c 68 5e 78 ba
       -0.004169915 -0.022602677 0.01670165 -0.0009474517
000240 8a ec 38 bc e7 05 0f ba b3 61 14 3c 16 a5 14 3b
       -0.011286864 -0.00054558966 0.009056496 0.0022681407
000250 60 cd 33 3c 15 e6 25 bb c7 a8 15 bc fe 31 f1 ba
       0.010974258 -0.0025314142 -0.009134478 -0.001840174
000260 32 5e db bb 44 17 50 3b 5e 10 c8 3a 78 cd 18 bc
       -0.0066945786 0.0031752149 0.0015263667 -0.009326331
000270 d5 55 2d bc 39 3d ae 3c 53 ed 50 bc 0b 2a 6e 3c
       -0.010579546 0.021269428 -0.012751895 0.014536391
000280 96 de ae bb 13 72 69 bb 55 0a aa bc c0 a0 c7 bb
       -0.005336593 -0.0035620972 -0.02075688 -0.006092161
000290 19 16 9e bb 91 e5 8d 3c 7c fe 27 3c 31 bf 33 bc
       -0.0048244116 0.01732138 0.010253545 -0.010970877
0002a0 3e f7 d3 bb a4 70 94 3c 18 64 44 bb ce 28 ee 3a
       -0.0064686825 0.018120117 -0.0029966887 0.001817012
0002b0 3d c9 b0 3c 20 59 dc bb 0e 8c 93 3c ac fa 6f 3a
       0.021580333 -0.0067244917 0.01801112 0.00091544795
0002c0 3f a3 e9 b9 ce 19 34 3b 99 67 0f bb ef e9 d1 3a
       -0.0004456285 0.00274812 -0.0021881817 0.0016015152
0002d0 ad d2 02 bc 21 10 7e bc 18 b0 45 bc 65 f0 39 bc
       -0.007984799 -0.015506775 -0.01206591 -0.011348818
0002e0 71 78 ad 3b c9 25 34 bb af ec 3c bc 1c ee 01 bc
       0.0052938988 -0.0027488342 -0.011531039 -0.007930305
0002f0 1f 5f 52 3b 52 04 4d bb 86 ad b4 3c 17 f7 10 bc
       0.0032100154 -0.0031283093 0.022055399 -0.008847973

layers.0.attention.out_proj.weight f4 [64, 64]
000000 83 58 01 3c c3 2b 0b bd fb fb 84 bd 47 b8 e6 bd
       0.007894638 -0.03397728 -0.06493374 -0.11265617
000010 43 93 2b bd 14 28 3f bd b1 7c 09 bc b2 c4 c7 bc
       -0.041888487 -0.04666908 -0.008391545 -0.024385784
000020 ac 2a 8b 3d 98 06 1b 3e 7d e5 34 3c e1 23 9a 3b
       0.067952484 0.15139234 0.011041042 0.004703984
000030 4d eb 6f bd 23 4d ff 3c b8 60 ba 3d 3d 53 84 bd
       -0.05857401 0.031164711 0.09100479 -0.06461189
000040 a0 5f 3c 3d 84 6f d0 3d a8 71 6c bd e1 82 ec 3b
       0.045989633 0.1017752 -0.05772558 0.0072177504
000050 5a 75 43 bd 05 5d fe 3c 2f 33 bf 3d a1 20 85 3c
       -0.047719337 0.031050215 0.09335934 0.01625091
000060 b2 11 34 bd 65 c3 9f 3d dc 04 55 bd c4 73 97 bd
       -0.043962188 0.078009404 -0.052006587 -0.073951274
000070 8a fe 0d 3d f0 98 f2 bd f3 93 b1 3d f6 93 e6 bd
       0.034666575 -0.11845577 0.08670797 -0.1125869
000080 f7 50 c5 bb 9a b3 95 bc 43 d9 ab 3d f6 68 81 3d
       -0.0060216147 -0.018274117 0.08391049 0.06318848
000090 c9 71 0d bd 6e e4 cf 3d c0 2b a5 3c aa 12 fd bc
       -0.034532342 0.101509914 0.020162463 -0.030892689
0000a0 86 ad 10 3c e6 63 3e bd d5 05 7f 3c bb 31 a9 bb
       0.008830434 -0.04648199 0.015565355 -0.005163399
0000b0 0e 23 90 3d 8c 10 9d bd e7 6c d4 3c 75 86 7f 3d
       0.07037936 -0.07669172 0.025930835 0.062384088
0000c0 82 80 fd 3d 7b cf 65 3c 7d 15 d3 bc 82 cb ab bd
       0.123780265 0.014026518 -0.025767082 -0.083884254
0000d0 f8 c9 91 3c 5a 6b af bd e5 d3 ef bb 7a 78 e4 bd
       0.017796502 -0.085653976 -0.007318961 -0.111557916
0000e0 ba c7 ac bd 21 5b fa bc 39 ca a7 bd 63 c7 2a 3d
       -0.08436532 -0.030561032 -0.08192868 0.041694056
0000f0 9a b4 c4 bd c0 83 bb bd b2 bc 99 bd ed 82 f8 3c
       -0.096047595 -0.09155989 -0.07506694 0.030335868
000100 0c 9f 75 3b 5c 7b 9f bd 0d 59 b1 3d 20 c4 69 3d
       0.0037478833 -0.07787201 0.08659563 0.057071805
000110 b7 18 8c bd c2 e4 89 bd 0e fe 1a bd 47 c2 b1 bd
       -0.068406515 -0.06733085 -0.03783994 -0.086796336
000120 f4 0f ee 3c e2 90 35 3d 16 a1 6a 3d 28 2b c9 bd
       0.029060341 0.044327624 0.05728253 -0.098226845
000130 74 58 35 3d a4 f6 03 3e a4 f2 8f 3d e1 4f b2 bc
       0.04427381 0.12887055 0.07028702 -0.021766605
000140 cc cc c3 3c 72 7d a5 3c 23 ca 48 bd 2c 2a 83 bc
       0.023901366 0.020201419 -0.049020898 -0.01601132
000150 d9 42 85 bc 5c c0 21 bd e0 63 06 3d 58 4e e5 bd
       -0.016267227 -0.03949009 0.032810092 -0.111965835
000160 68 64 84 bc 60 bb 15 be 55 2a a5 3d f3 d9 cf bd
       -0.016161159 -0.14622259 0.08064715 -0.101489924
000170 f3 db 5a bd d2 7c 97 3d 66 88 e6 3d 7a b6 02 3a
       -0.053432416 0.073968545 0.11256485 0.00049862976
000180 db 80 92 bc 79 14 4e bd 1c c9 a1 3d 05 68 08 be
       -0.017883709 -0.050312493 0.07899687 -0.1332093
000190 ab f8 00 bd 36 08 34 bc ab 9f 5c bb 0f f3 04 be
       -0.03148715 -0.010988286 -0.0033664505 -0.12983344
0001a0 11 75 66 3d b1 3c 9c 3c 52 0f d9 bd 1b 36 b6 3d
       0.056263987 0.019071909 -0.10598625 0.088970385
0001b0 84 dd 98 3d 42 72 84 bd eb 64 ce 3c 1a 2f c4 3d
       0.07464126 -0.064671054 0.025194606 0.095792964
0001c0 60 fa b7 3d f9 8b 93 3d 4a 10 19 bc ea 8f 52 3d
       0.08983302 0.07204432 -0.0093422625 0.05140678
0001d0 b1 e7 85 bc 32 17 33 3d da a3 80 bb 97 2e 95 3d
       -0.01634583 0.043723293 -0.0039257826 0.07284277
0001e0 ac aa 48 bd 62 58 9b bc 02 67 f1 bc 04 aa 5c 3c
       -0.04899089 -0.018963043 -0.029468063 0.013468269
0001f0 40 ce 5b 3d 96 0f b7 bc 5a cf 64 bc 26 3d 27 3c
       0.053663492 -0.0223463 -0.013965452 0.01020745
000200 be 9c b3 3d 2c e7 d9 3c f5 db 3f bd 85 23 87 bd
       0.087701306 0.02659949 -0.046840627 -0.06598572
000210 71 5b 78 3d 3f 88 5a bd d3 94 74 bc 31 2e 8b 3d
       0.06063408 -0.05335259 -0.014928061 0.0679592
000220 70 be 02 bd 59 96 1b 3d f3 be 74 3d 21 c7 df 3d
       -0.031919897 0.03798518 0.059752416 0.10926653
000230 a2 df db bd 2f 2b fa bd c3 f5 9d 3d ba 6d ec bb
       -0.10736014 -0.12215268 0.07712891 -0.007215229
000240 e3 5c f7 3d a5 62 bd 3d cb 30 8f bd 9e 53 99 3d
       0.120782636 0.092473306 -0.069917284 0.07486652
000250 06 cd da 3c 7e 21 8f 3d a8 00 67 bd 38 96 fa bd
       0.02670909 0.0698881 -0.05639711 -0.12235683
000260 89 d1 0c 3d 06 71 0a bc fa d4 d0 bd 66 ef 15 bd
       0.034379516 -0.008449798 -0.10196872 -0.03660526
000270 09 b6 e2 3c a5 17 c0 3d e3 98 a8 3a c2 bf 9e 3d
       0.027674692 0.0937951 0.0012862947 0.07751419
000280 67 a7 a1 bd a9 65 f7 bd 0b 95 85 bd a4 19 a7 3d
       -0.078932576 -0.12079937 -0.06522568 0.081591874
000290 4a c9 e0 bc 19 7d fe 3c fb b1 ec bc 99 07 06 3d
       -0.027439732 0.03106551 -0.028893461 0.03272209
0002a0 5a 70 ce bc 01 e4 1f bc 4f 78 98 3c f2 92 21 bd
       -0.025200058 -0.00975895 0.018612055 -0.03944678
0002b0 33 f4 91 bd c1 cb 52 bd 7b e2 88 3d 01 56 0f bd
       -0.071266554 -0.051463846 0.06683823 -0.03499413
0002c0 7f 62 c8 3b f3 71 92 bd 1b 05 20 bd ff 49 02 3d
       0.0061152573 -0.0715064 -0.03906737 0.03180885
0002d0 56 fd ce bd ac 7b ca 3d cc d2 00 3e 68 50 6d bc
       -0.10106914 0.0988687 0.12580413 -0.014484502
0002e0 e8 bf 14 3e 7f a7 4b bd 49 79 71 bd 41 46 f2 bd
       0.14526331 -0.049720284 -0.058953557 -0.11829806
0002f0 52 7e 23 3d 08 c1 ff bd 3b ef 13 3c ab 46 43 bd
       0.03991539 -0.1248799 0.009029205 -0.047674816
000300 f8 3c b4 3d 4a aa 47 3d 56 fe 89 3d 26 34 13 3d
       0.08800691 0.048746385 0.06737964 0.035938405
000310 58 55 08 3e 23 54 e8 3d 53 d9 08 bc 4f 02 d1 bb
       0.13313806 0.11344173 -0.008352595 -0.006378449
000320 b3 38 40 bd 31 62 02 be 79 e3 6b 3d 79 d1 5a bd
       -0.046929073 -0.1273277 0.05758998 -0.053422425
000330 90 34 03 3d 03 0f 04 3d 32 ff 4b bd 9f 0d df bd
       0.03203255 0.03224088 -0.04980392 -0.1089127
000340 f8 e6 4f 3d 3f d7 a7 3d fc 00 35 3d 71 b6 a8 3d
       0.05075738 0.08195352 0.044190392 0.08237923
000350 aa 81 2c 3d b8 b9 19 bd 3d ff c9 bd 2f d2 bd bd
       0.042115845 -0.03753063 -0.09863136 -0.09268605
000360 ea b2 a5 bd b7 cd 25 bd 24 a4 ee 3d c0 b3 84 bd
       -0.08090766 -0.040479388 0.11652401 -0.06479597
000370 36 67 bd 3c 64 b6 b5 bd e3 ed 6f bd 19 66 cd 3c
       0.023120504 -0.08872679 -0.058576476 0.025073098
000380 7c 4d ca 3d d2 0e 83 3c ec 86 d0 bd 00 dd 8d 3d
       0.0987806 0.015998278 -0.10181984 0.06926918
000390 a1 c8 8a bd 09 fa d3 3c bc 8a 4c bc 55 12 e8 39
       -0.06776548 0.025876062 -0.012484249 0.00044264147
0003a0 60 68 cb 3d 4c 35 16 3d d9 a6 fd 3c d1 fb de 3c
       0.09932017 0.03667192 0.030963348 0.027219685
0003b0 db 80 e3 bc 71 16 64 bd 4a 91 91 bc 2e 99 51 bd
       -0.027771404 -0.055685464 -0.017769475 -0.051171474
0003c0 4b 3b c0 3d 4f fa 5c bd ce 95 c3 3d 5d f3 14 be
       0.09386309 -0.05394965 0.09550057 -0.1454596
0003d0 a5 f3 bf bc e9 41 bd 3d a7 a0 bb 3d 1f b1 10 be
       -0.023431608 0.09241087 0.091615014 -0.14130066
0003e0 33 f9 da bd 33 e2 aa bd 6f 8a c0 bd ed 8b f5 3c
       -0.10692062 -0.08343925 -0.09401404 0.029973948
0003f0 90 80 ff bd d8 ed 54 bd 5d 2b 4c bc be 18 90 bd
       -0.12475693 -0.051984638 -0.0124615105 -0.07035969

layers.0.attention.out_proj.bias f4 [64]
000000 eb 18 1d 3b 17 7b 70 3b 96 d5 cd 3b 84 94 94 bb
       0.002397115 0.003669446 0.006281565 -0.004534306
000010 81 f7 97 bb ac ed 9c 3b 1a 87 4b 3b 7e d9 9a bc
       -0.004637659 0.004789075 0.0031055869 -0.018902536
000020 d6 61 3b 3a 23 59 91 3b af a3 16 3b 14 04 25 bc
       0.00071480626 0.0044356748 0.0022985747 -0.010071773
000030 e3 35 a8 b9 a6 9b 62 bc 57 63 c9 3b 42 a2 7d 3b
       -0.00032083606 -0.013831055 0.0061458754 0.003870145
000040 40 83 08 3c 74 0e f2 bb 2b 31 1f 3c bc e9 88 3c
       0.008332074 -0.007386977 0.009716312 0.016713016
000050 f0 28 a5 ba 3d 65 81 39 62 b8 8d bc 29 ee c0 3a
       -0.0012600701 0.00024680226 -0.017299835 0.0014719415
000060 3a 45 14 bb 07 73 a2 bc 71 81 e1 3b 9f fc 29 bc
       -0.002262427 -0.01983024 0.0068818857 -0.010375171
000070 10 f0 a7 bb 08 e0 91 3b b0 04 df bb d7 db fa bb
       -0.005125053 0.0044517554 -0.0068059787 -0.0076556015
000080 31 cd 52 bc 52 9d 88 bb f5 09 83 bc f7 03 0a 3c
       -0.012866304 -0.0041691447 -0.015995959 0.008423797
000090 cb a7 bb 3b 93 a7 7d bb 3d fd 67 3c 0d c5 d2 bb
       0.0057267896 -0.0038704618 0.014159498 -0.0064321817
0000a0 d6 6f 12 3c d2 c8 57 bc d0 a5 39 3b 70 06 0d b9
       0.008937797 -0.013170438 0.0028327592 -0.00013449206
0000b0 1b d6 ed b9 5f ac e5 3b 30 4d 12 3a 99 a7 66 bc
       -0.00045363684 0.0070090736 0.000558096 -0.014078044
0000c0 ab 57 ac bb 83 c3 50 bc 2f 61 ce 38 ad ec 00 3c
       -0.0052594743 -0.012741926 9.840947e-05 0.007868928
0000d0 ef 24 2c 3b f3 16 82 3a b2 41 ac bb 4c f7 fe ba
       0.0026267131 0.0009925052 -0.005256855 -0.0019452362
0000e0 f9 89 c4 ba 70 80 10 3c 53 c9 47 3c c8 7a 8d 3b
       -0.0014994732 0.008819684 0.0121939955 0.004317615
0000f0 1f 29 0f 3c 80 d5 b3 3b 00 64 3b 3c 08 56 18 bc
       0.008737831 0.0054880977 0.011437416 -0.009297855

layers.0.norm2.weight f4 [64]
000000 e6 15 88 3f 53 b8 7e 3f 91 42 7c 3f 61 a1 8a 3f
       1.0631683 0.99500006 0.9853907 1.0830499
000010 65 84 80 3f 31 79 82 3f 51 ad 82 3f af 94 80 3f
       1.0040404 1.0193235 1.0209142 1.0045375
000020 b5 0f 7d 3f c8 3f 7f 3f 9f e8 80 3f 70 ad 7a 3f
       0.9885209 0.997067 1.007099 0.97920895
000030 03 7c 81 3f f1 10 7c 3f fa d8 7c 3f 11 28 89 3f
       1.011597 0.9846335 0.9876858 1.0715352
000040 68 cc 84 3f 83 5f 7f 3f 67 bd 87 3f 56 4b 7d 3f
       1.037488 0.99755114 1.0604676 0.9894308
000050 a7 27 7c 3f b7 bf 81 3f 92 b3 7c 3f c2 22 82 3f
       0.98498005 1.0136632 0.987115 1.0166857
000060 29 16 7b 3f 5c 46 7f 3f 50 d2 84 3f ce 5d 80 3f
       0.9808069 0.99716735 1.0376682 1.0028627
000070 eb ca 88 3f fe ad 81 3f ce 07 72 3f 08 c7 86 3f
       1.0686926 1.0131223 0.9454316 1.052949
000080 7e 0d 87 3f e4 96 79 3f ce 95 81 3f 14 f2 80 3f
       1.0550992 0.97495866 1.0123842 1.0073876
000090 cd ce 80 3f de dd 86 3f d2 b0 7e 3f b3 44 86 3f
       1.006311 1.0536458 0.99488556 1.0489715
0000a0 2a a5 87 3f 36 3a 83 3f 44 08 83 3f b7 3a 7f 3f
       1.0597279 1.025214 1.0236897 0.99698967
0000b0 25 b8 81 3f ac 3e 84 3f 38 e0 81 3f 24 5c 80 3f
       1.0134321 1.0331626 1.0146551 1.0028119
0000c0 de 60 75 3f 66 eb 7e 3f a4 ad 85 3f 10 d1 7d 3f
       0.9585093 0.9957794 1.0443616 0.9914713
0000d0 eb a8 7f 3f 7d ef 7a 3f 08 3e 80 3f 8f e2 80 3f
       0.99867123 0.9802168 1.001893 1.006914
0000e0 c5 5d 86 3f 43 e3 7f 3f fc 14 80 3f b5 f3 83 3f
       1.0497366 0.9995615 1.0006404 1.0308748
0000f0 40 27 83 3f a8 7c 81 3f e8 19 81 3f b3 b8 81 3f
       1.0246353 1.0116167 1.0086031 1.0134491

layers.0.norm2.bias f4 [64]
000000 1c 59 c2 3c 39 f6 d0 3b 97 a3 8f bb 6d b5 8a bc
       0.023724131 0.0063770083 -0.004383515 -0.016932214
000010 a0 54 e5 bb 52 bd 8c bc ae ef a2 bb ce 07 1a 3d
       -0.0069986135 -0.017180119 -0.0049724197 0.0376051
000020 58 5f e4 bc b0 4f 0b 3c 9d aa 96 3c a5 7b 23 3d
       -0.027877495 0.008502886 0.018391902 0.03991284
000030 e9 4c 25 3c a2 88 d7 bc 44 e8 13 bd 99 11 e5 bb
       0.010089138 -0.026310269 -0.036110178 -0.006990623
000040 ae dc 5b 3b 55 54 f4 3a b7 31 64 3c 8f ce d1 bc
       0.0033548283 0.0018640856 0.013927869 -0.02561119
000050 a5 2f d9 3b f8 a8 59 bc 32 4a b9 3b 36 4b 0b 3c
       0.006627994 -0.013284914 0.0056545967 0.008501818
000060 79 b4 b4 3c ad e4 9f 3c 08 61 44 bc 89 f6 a2 3b
       0.022058712 0.01951822 -0.011986025 0.004973237
000070 de 93 fd bc e6 7e 17 3c f0 7a 8e bd 78 8e 10 3c
       -0.030954298 0.009246564 -0.06957042 0.00882303
000080 ad c3 93 3b 99 4b dc bc ca 5e 92 3c 64 3a 46 bc
       0.0045094104 -0.026891517 0.017867465 -0.012098882
000090 99 f6 86 bc 1c f0 78 3b 00 a5 6f bc 4a 3a 6a 3c
       -0.016475009 0.0037984913 -0.014626741 0.014296124
0000a0 d9 aa 94 bb 30 68 c4 3b 89 f2 fe bb 7d 7b 20 3d
       -0.004536968 0.0059938654 -0.0077803773 0.039180268
0000b0 1a d6 68 3c 5f 37 45 3c b2 eb 4c bb 49 7d d9 bb
       0.014211202 0.012037127 -0.0031268415 -0.0066372496
0000c0 e6 f8 3a bd ea b1 b5 3b 8c 4b fd b9 dd ba eb bb
       -0.045647524 0.0055448906 -0.00048312207 -0.0071939067
0000d0 08 f7 5a 3c 8e bb 4f bd 8a 5b 16 bd bb 80 8e 3c
       0.013364561 -0.050715975 -0.036708392 0.017395368
0000e0 2e ff 6c bb e7 40 5a bc 4c 67 a1 3b e7 f5 43 3c
       -0.003616284 -0.013321138 0.004925644 0.011960483
0000f0 84 2a 28 bd 24 4a 61 bb 56 d6 a0 bc 37 62 90 3c
       -0.04105617 -0.0034376467 -0.019633453 0.017624957

layers.0.ffn.0.weight f4 [256, 64]
000000 cf be 28 bc c4 7e 25 bd 62 d6 c3 bd 25 07 b6 bd
       -0.010299399 -0.040404096 -0.09562375 -0.088880815
000010 12 36 17 3c ad 37 c3 3a f0 8a 2a bd 4e aa f9 3c
       0.0092292 0.0014893912 -0.041636407 0.030476715
000020 59 97 67 bd 0c 90 19 3d db 35 06 3c 35 da 42 3d
       -0.05654082 0.03749089 0.008191551 0.04757138
000030 5e 9e 0a 3d 8a d4 a2 3c 73 98 14 bc 28 ff f5 3d
       0.033842437 0.019876737 -0.00906955 0.12011558
000040 43 15 63 3d 19 a1 a7 bd 03 54 ee 3c b5 51 f1 3d
       0.0554402 -0.08185024 0.029092794 0.117831625
000050 d3 73 c1 3d 6a 38 68 3d a2 90 b3 3d 94 f8 cc bd
       0.0944592 0.056694426 0.08767821 -0.1000835
000060 ea c8 ef bd 75 a8 24 3c c7 6f cf bd 4d 13 ed bd
       -0.11708243 0.010049929 -0.10128742 -0.11575947
000070 cf ad 80 bd 7a df 78 bc 48 b2 2e bd ce 41 ab 3d
       -0.06283151 -0.01519 -0.04265049 0.083621606
000080 58 28 fe 3c 9d be 00 bd 09 ab d5 3d 42 f8 d7 3c
       0.031025097 -0.031431783 0.10433013 0.026363496
000090 55 42 5a bd ce 1b 42 bc 9e 2f 9f 3d 28 26 d8 bc
       -0.053285915 -0.0118474495 0.07772754 -0.026385382
0000a0 62 17 c5 bd 43 e3 f4 bc 57 b9 f9 3d 2a d0 36 bd
       -0.096236005 -0.029893523 0.12193554 -0.044632114
0000b0 1e a6 37 3d 2d 46 70 bd f4 22 51 bb 7b 60 ca 3d
       0.044836156 -0.058660675 -0.0031911703 0.098816834
0000c0 bf 91 7f 3d 88 22 47 bd 4a 67 e4 bc 30 db 65 bd
       0.062394854 -0.048616916 -0.027881283 -0.056117237
0000d0 8f 64 82 3c 88 68 ae 3d d3 f1 a3 3b 77 0e c3 3d
       0.01591709 0.085160315 0.005003193 0.09524243
0000e0 49 ec 25 bd d9 44 66 3d 0c 42 cf 3d 68 78 b6 3d
       -0.040508542 0.056218002 0.10120019 0.089096844
0000f0 f0 ab ab bd 27 09 73 3d 98 66 3f bd df 53 ae bd
       -0.08382404 0.0593349 -0.0467287 -0.08512091
000100 e5 a0 f5 3c e3 4a de 3d b2 bf a9 bc dc 9f 58 bc
       0.029983947 0.10854127 -0.02072129 -0.013221707
000110 b1 2e db bd a5 15 a0 bd a4 cc 0f 3d 20 46 a3 3c
       -0.10702265 -0.07816628 0.03510727 0.0199309
000120 b0 fa 21 3d c5 65 0b 3d cf 31 ee bc 4d 04 84 3d
       0.039545715 0.034032602 -0.029076485 0.06446133
000130 75 9d e5 3d ce 17 8f 3c c7 3c 57 3d c1 5a b4 bd
       0.11211673 0.017467406 0.052548196 -0.088063724
000140 60 aa de 3c fa a5 a2 bb 2f 26 d4 3d 1f 18 99 bd
       0.02718085 -0.0049636336 0.103588454 -0.07475304
000150 cc 95 f9 bd 1a 2b 2a 3d d3 a2 d0 3d 4f aa cf bd
       -0.121867746 0.04154501 0.10187306 -0.10139906
000160 b6 ad a3 3d f9 7d 20 3d 8f c4 b8 3d 27 1b 4a bd
       0.07992117 0.039182637 0.090218656 -0.0493423
000170 39 a3 ec 3d e6 9f e6 3d dc a8 0c 3d 4b 53 99 3d
       0.1155457 0.11260967 0.034340724 0.0748659
000180 db 19 20 3d 74 fd bf bd e1 a1 60 3d d2 36 1b 3d
       0.039087158 -0.09374514 0.05484188 0.037894078
000190 ae 69 62 3d c7 da 99 3c bd 4c 74 bd ae 62 ba 3d
       0.055276565 0.018781079 -0.059643496 0.09100853
0001a0 36 a4 d1 bd dc 95 e8 bd 46 c5 1b bc e9 19 3e bc
       -0.10236399 -0.113567084 -0.009507483 -0.011602857
0001b0 1a 3a 46 bd 86 2a 27 3d 7f 87 cc 3d 2e 62 a6 3d
       -0.048395254 0.040812038 0.09986781 0.08124195
0001c0 46 7d 3a 3d 9f b5 b4 bc c2 4c 08 bd 9c 9b d2 3d
       0.045529626 -0.02205926 -0.033276327 0.102835864
0001d0 48 98 1e 3d ff 82 98 bc 10 34 9f 3d eb 78 be 3d
       0.038719445 -0.018617151 0.07773602 0.09300407
0001e0 af f9 82 3c 88 cd 9e 3d db 08 08 be ae ad fa bd
       0.015988199 0.07754046 -0.13284628 -0.12240158
0001f0 ab 93 a8 3d dd 41 b0 3c 3e 81 12 bd 50 ae d8 3d
       0.082312904 0.021515781 -0.035767786 0.105801225
000200 b2 a2 50 3d 0d 36 82 bc f9 c4 c9 bc 66 38 9a bd
       0.05093641 -0.015894914 -0.024630057 -0.075302884
000210 80 23 57 3d 61 d4 8b 3d c7 df b9 3d 1b 46 66 3d
       0.05252409 0.068276174 0.09075885 0.0562192
000220 54 fc c9 3d 69 b9 80 3d 8b 67 ae 3d 3c 6c 0f bc
       0.09862581 0.06285364 0.08515843 -0.008753832
000230 e8 54 30 3c 06 5a 03 be 4c df 46 3c 33 a0 ca 3d
       0.010762431 -0.1282731 0.012138199 0.09893837
000240 2c d7 a6 3d f5 d9 65 bd 05 fa 8e 3c b6 1f b5 3c
       0.081465095 -0.056116063 0.017453203 0.022109848
000250 e8 0b 3a bd 68 b0 23 be a9 14 dc 3c 5f 5c dd 3c
       -0.04542151 -0.15985262 0.02686532 0.027021585
000260 29 cd ac ba 3c b6 04 bd f9 d0 6b 3d 89 8b 4e bd
       -0.0013183701 -0.032400355 0.05757234 -0.05042604
000270 9d ad e4 bd e5 af b2 3d 3c 2b da bb b3 81 13 bc
       -0.111659266 0.087249555 -0.006657986 -0.009003091
000280 ba a0 a0 bd 4c e9 39 3d c9 d3 8b 3c 4f d7 88 3a
       -0.07843156 0.045388505 0.01706876 0.0010440144
000290 66 5c 8a bd 3b 9d 83 bd 3b c2 69 3b 7e 1a e9 3d
       -0.06755905 -0.06426474 0.003566875 0.11382006
0002a0 9d 08 11 bd f6 5d 22 3c c7 60 e7 3c 8e e4 a9 3d
       -0.035408605 0.009910097 0.02824439 0.082955465
0002b0 90 80 5e bd 70 d6 4c 3d 19 8d 74 bd e5 24 0c bd
       -0.054321826 0.05000919 -0.059704874 -0.034214873
0002c0 1a b1 6b 3d 97 b6 4c bd 44 d0 0b 3d d8 6b 2f 3c
       0.057541944 -0.04997882 0.034134164 0.010706864
0002d0 b5 f9 91 3d a7 f9 86 3d 72 88 4f 3d 76 68 b0 3d
       0.07127706 0.06590586 0.050667234 0.08613674
0002e0 a8 f5 c6 bd cc 7d 5f bd be 10 ac bd d2 b4 ee 3d
       -0.09714824 -0.05456333 -0.08401631 0.116555825
0002f0 d2 13 79 3d 6a b2 34 3d 18 68 c6 bd bc 27 75 3d
       0.060809918 0.04411546 -0.09687823 0.059852347
000300 90 c0 85 bd 70 4e fc 3d 94 90 58 bd 5c 38 d1 bd
       -0.06530869 0.12319648 -0.052872255 -0.10215828
000310 a5 f6 08 3e ff b2 16 3c 18 97 1a 3b df ba 9f bd
       0.13375337 0.009197949 0.0023588594 -0.07799315
000320 1d c3 bb bd ab 42 34 bd b1 42 77 3d 55 a1 a7 3c
       -0.09168074 -0.044008892 0.060366336 0.020462671
000330 65 36 12 3d 5a 88 b3 3d 45 1b 8f 3c 0b 74 0c 3e
       0.035696406 0.08766241 0.017469058 0.13716142
000340 12 4f 9a bc b5 d2 bb 3c cc 87 e5 3d de c6 24 3d
       -0.018836532 0.022927621 0.11207542 0.040228717
000350 26 a5 cc bd 1b 67 9b 3d 40 7a d9 3d 2a e9 96 bd
       -0.09992437 0.07588025 0.106190205 -0.07368691
000360 93 7b aa 3c 93 9f 52 3d b7 9e 0c bd 16 3d 90 bd
       0.020810878 0.051421713 -0.03433105 -0.07042901
000370 1a da c5 3d 90 5e 62 3c 26 1c d3 3d 29 0f 98 3d
       0.0966074 0.013816491 0.10308103 0.074247666
000380 65 00 d7 3d 71 25 53 3d 5c 1b ce bd f8 35 c7 3c
       0.10498122 0.05154938 -0.10063812 0.024317726
000390 f1 96 b1 bc 2d ce 0e be 68 34 65 bb 3d 67 e4 bd
       -0.02167842 -0.13945837 -0.0034973864 -0.11152504
0003a0 65 27 0b bd c8 46 d9 bb a8 9a 10 be 46 aa 41 3d
       -0.033973116 -0.0066307522 -0.14121497 0.047281526
0003b0 7c 5e de bb 1e 16 1d 3d 78 25 cc bd 77 bc 5f 3c
       -0.0067861658 0.03835117 -0.09968084 0.013655773
0003c0 fe 0e c8 3d 4f fb 18 bd 5e 30 7f 3c 69 af c4 bd
       0.097684845 -0.03734904 0.0155754965 -0.09603769
0003d0 4f bd 30 3d 10 16 33 3d 9c 5e 60 3d cf 36 dd 3d
       0.04314929 0.043722212 0.054777727 0.108014695
0003e0 03 25 dd 3d e5 b7 28 bd 93 c6 66 bd c2 80 75 bd
       0.10798075 -0.041191 -0.05634172 -0.059937246
0003f0 a2 36 b0 bd 13 e5 1c be 73 30 55 bd fb 52 45 ba
       -0.086041704 -0.1532176 -0.052048158 -0.00075273187
