checkpoints_quadruped/model_final.pth (torch, 424837 bytes, 30 tensors)

pos_embedding f4 [1, 49, 64]
0	0x3dc99bfc	0.09844205
1	0xbd3f5996	-0.046716295
2	0x3cd15907	0.025555147
3	0x3cb47b2f	0.022031395
4	0x3d4109e6	0.04712858
5	0xbc78c62b	-0.015183966
6	0xbd85ffbc	-0.06542918
7	0xbdcaec3a	-0.09908338
8	0xbdb297c0	-0.0872035
9	0x3b854b4e	0.004067815
10	0xbc2b3c18	-0.010451339
11	0xbad6c814	-0.0016386532
12	0x3d1eda16	0.0387822
13	0xbc87eb6d	-0.016591752
14	0xbe098d73	-0.13432865
15	0xbd1a1bdb	-0.03762422
16	0xbb430572	-0.0029757884
17	0x3dc04108	0.09387404
18	0xbc19f1b7	-0.009396008
19	0xbdb0e540	-0.08637476
20	0x3d3ff669	0.046865854
21	0xbc19ef2c	-0.009395402
22	0x3dd4051a	0.103525355
23	0x3cd4e7df	0.025989471
24	0x3dcef922	0.10106112
25	0xbd981b03	-0.07427027
26	0xbd980aad	-0.07423911
27	0x3d50f245	0.051012296
28	0xbcae1ad7	-0.021253033
29	0x3d986361	0.0744083
30	0xbd02282e	-0.0317766
31	0x3dc003a0	0.093756914
32	0x3cfa63df	0.0305652
33	0xbc64d3ec	-0.013966542
34	0x3bc4f076	0.0060101105
35	0x3d76bfed	0.06024163
36	0xbdededd4	-0.11617628
37	0x3d4f3102	0.050583847
38	0x3d0eae65	0.034834284
39	0xbe1552a5	-0.14582308
40	0xbd1c61f7	-0.038179364
41	0x3c0c96e2	0.008580895
42	0xbd607de0	-0.054807544
43	0x3e0b8e01	0.13628389
44	0xbcda0d3b	-0.026617637
45	0x3de446ed	0.111463405
46	0x3d1043ef	0.035221037
47	0x3d389193	0.045060705
48	0xbd4674f8	-0.048451394
49	0x3b21cc25	0.002468833
50	0x3daa0fbd	0.08303783
51	0x3ce364fc	0.027758114
52	0x3d3f4148	0.046693116
53	0xbd4ab179	-0.049485657
54	0xbd3d323e	-0.046190493
55	0xbd8c2438	-0.06842846
56	0xbe137d74	-0.14403325
57	0xbdbdf78f	-0.09275734
58	0xbbbae067	-0.0057030204
59	0x3dbf9d8f	0.09356224
60	0xbd745757	-0.059653606
61	0xbe025439	-0.12727441
62	0x3cd4fd33	0.025999641
63	0x3db8f55a	0.09031172
64	0x3d5f4e8b	0.054518264
65	0x3d0155e7	0.031576063
66	0x3c5a3304	0.013317827
67	0xbc827e77	-0.015929444
68	0xbbd0af35	-0.0063685426
69	0xbdbe5a70	-0.09294593
70	0x3d5d2b47	0.05399635
71	0x3d1815f7	0.037130322
72	0xbccff43d	-0.025385017
73	0xbcb93222	-0.022606913
74	0x3cda120b	0.026619932
75	0x3de29047	0.11062675
76	0x3ba05a30	0.0048935637
77	0xbbbd5383	-0.0057777776
78	0xbc6793c0	-0.014134347
79	0xbda68917	-0.081316166
80	0xbcc6c8c8	-0.024265662
81	0x3dddf899	0.10838432
82	0x3bcbc9e3	0.006219135
83	0xbdcaab7c	-0.09895989
84	0x3ccfaea6	0.025351834
85	0xbd6d2bff	-0.057903286
86	0xbd1faf3d	-0.03898548
87	0xbde7edba	-0.113246396
88	0x3d91bad8	0.07115716
89	0xbe058bc6	-0.130416
90	0xbbac89a0	-0.0052654296
91	0x3d20e15e	0.039277427
92	0xbd4da353	-0.050204586
93	0xbd278da3	-0.04090656
94	0xbdaa3836	-0.08311503
95	0xbd212c37	-0.039348807
96	0x3c13f488	0.009030469
97	0xbca11291	-0.019662173
98	0x3dac6a03	0.08418658
99	0xbddfaa9c	-0.10921213
100	0xbdd610e8	-0.10452443
101	0xbd949ace	-0.07256089
102	0xbbef809f	-0.007309034
103	0x3c34fafc	0.011046167
104	0x3b69bceb	0.0035665582
105	0xbda22f92	-0.079192296
106	0xbccc0b9e	-0.024907883
107	0x3df56a01	0.11983109
108	0x3d00d111	0.03144938
109	0x3d511e5e	0.05105435
110	0x3cb52cf3	0.02211616
111	0x3d9a2578	0.07526678
112	0x3ab9a404	0.001416326
113	0x3d97682c	0.07392916
114	0x3d12f069	0.035873804
115	0xbdb9341a	-0.09043141
116	0x3d291df0	0.041288316
117	0x3d842303	0.064519905
118	0x3d989b62	0.07451512
119	0x3bfc9271	0.007707887
120	0x3e09a17f	0.13440512
121	0xbd3fd2df	-0.04683196
122	0xbc08fb9e	-0.008360771
123	0xbd699ad1	-0.05703241
124	0xbd243a55	-0.040094692
125	0xbde89c0c	-0.113578886
126	0xbcde47ab	-0.027133783
127	0x3da270ee	0.07931696
128	0x3cf6692e	0.03007945
129	0xbcf321f0	-0.029679269
130	0x3bd14b49	0.0063871485
131	0x3c9cd0b1	0.01914248
132	0x3c373d9b	0.0111841215
133	0xbd0abd80	-0.033872128
134	0xbd9eb15c	-0.07748672
135	0x3db7bb19	0.08971233
136	0xbda3269d	-0.07966349
137	0x3cc0970a	0.023509521
138	0x3d45aef6	0.04826256
139	0xbbfe47d3	-0.007760027
140	0x3d3512ff	0.04420757
141	0xbd952380	-0.07282162
142	0xbdbfd0cc	-0.09365997
143	0xbd1559c7	-0.03646257
144	0xbcb1dc5a	-0.021711517
145	0x3d4ab008	0.049484283
146	0x3d3fda7b	0.04683922
147	0xbd8c9f36	-0.068663046
148	0x3d29527b	0.041338425
149	0xbce41685	-0.02784277
150	0x3dd3847b	0.10328003
151	0xbddffc9d	-0.10936854
152	0x3d267fd5	0.040649254
153	0xbd413e95	-0.047178824
154	0xbe04a523	-0.1295362
155	0xbd008162	-0.03137339
156	0xbd8d0772	-0.06886186
157	0x3bc0390b	0.005866175
158	0xbc4a198a	-0.012335191
159	0xbd96b29d	-0.073582865
160	0xbce7d1e4	-0.028298326
161	0xbd83752e	-0.064188346
162	0xbd184316	-0.037173353
163	0x3d2201c5	0.03955247
164	0xbdbb1b9b	-0.09136125
165	0xbcccb191	-0.024987014
166	0x3d6d2564	0.057896987
167	0xbd91ea46	-0.07124762
168	0x3b66e29c	0.0035230285
169	0xbc62ad37	-0.013835243
170	0x3d3008cc	0.04297714
171	0x3e1a2a21	0.15055133
172	0x3d5e0754	0.054206207
173	0x3dc28d41	0.09499598
174	0xbd3129bb	-0.043252688
175	0x3d7cc26e	0.06170886
176	0x3de3fae1	0.11131836
177	0xbd3dcd31	-0.046338264
178	0x3dd176d0	0.1022774
179	0xbd2d2244	-0.042269006
180	0x3d4bd298	0.049761385
181	0x3cbae810	0.022815734
182	0xbd553b06	-0.052058242
183	0x3c3b2271	0.011421786
184	0xbc0c4d15	-0.0085633
185	0xbc835b1f	-0.01603466
186	0xbcaad40b	-0.020853063
187	0x3957d872	0.0002058463
188	0x3c8ec478	0.017427668
189	0xbe016c95	-0.12639077
190	0x3dbb6bc4	0.09151414
191	0x3ddf962e	0.109173164
192	0x3d9564f7	0.07294648
193	0xbc4ec03e	-0.012619076
194	0x3cb8d565	0.022562692
195	0x3d37dfc2	0.044891126
196	0x3c9391f1	0.018013926
197	0xbb706c86	-0.0036685779
198	0xbdbb304c	-0.09140071
199	0xbc9447d7	-0.018100662
200	0xbe31d818	-0.1736759
201	0xbb1796e5	-0.0023130712
202	0x3d21a56a	0.03946439
203	0x3cff0562	0.031130496
204	0x3d766cb4	0.06016226
205	0xbd9d7fcb	-0.0769039
206	0xbd84b54d	-0.06479893
207	0x3d085598	0.033284754
208	0xbd09b126	-0.033616208
209	0x3dac0c0f	0.084007375
210	0x3ca8a119	0.02058463
211	0xbdcba727	-0.09943991
212	0x3ce18ef5	0.027533988
213	0xbce4cda2	-0.027930085
214	0x3dc017a4	0.09379509
215	0x3d54c239	0.051943038
216	0x3e03b206	0.1286088
217	0xbd9eda56	-0.07756488
218	0xbe106b07	-0.14103328
219	0x3e0cb11d	0.13739438
220	0x3cb97f96	0.022643846
221	0xbbafda26	-0.0053665815
222	0xbda6673b	-0.081251584
223	0x3ca4d387	0.020120395
224	0x3d2f0953	0.0427335
225	0xbd86ab3a	-0.065756276
226	0xbcce986e	-0.025219169
227	0x3b9042a9	0.0044024778
228	0xbd8e9ed1	-0.069638856
229	0x3d7033aa	0.05864302
230	0xba3a71d8	-0.0007112301
231	0xbdd5900c	-0.104278654
232	0xbca7ffcb	-0.020507714
233	0xbbfad8f9	-0.0076552597
234	0xbd65c43a	-0.05609534
235	0x3e290a48	0.16507828
236	0xbca76319	-0.020432996
237	0x3e1cbd4d	0.15306588
238	0xbc188acf	-0.009310438
239	0x3c811b78	0.015760168
240	0xbd942aab	-0.07234701
241	0x3cf063ff	0.029344557
242	0x3db71c3d	0.08940933
243	0xbc2e4eeb	-0.010638933
244	0x3d57a3fa	0.052646615
245	0xbda4c150	-0.08044684
246	0xbd61871a	-0.055060484
247	0x3c4dfac2	0.012571992
248	0xbd67f73c	-0.056632265
249	0xbd916892	-0.07100023
250	0xbdc6311d	-0.09677336
251	0x3cf4f71f	0.029902993
252	0x3c65de0e	0.014029993
253	0xbe5f55bc	-0.21810049
254	0x3d30c49d	0.043156255
255	0x3e16a19a	0.14710084

feature_encoding.0.weight f4 [64, 1]
0	0xbe72fda8	-0.23729575
1	0xbf1f8f62	-0.6232816
2	0x3f21cc51	0.6320239
3	0xbe97631f	-0.2956781
4	0xbf5978d8	-0.8495002
5	0xbf1dfa4d	-0.61710054
6	0xbf0a3127	-0.5398125
7	0x3f46c77f	0.77648157
8	0x3f81b712	1.0133994
9	0xbf7b53d6	-0.981748
10	0xbec317c0	-0.38104057
11	0xbd86ab24	-0.06575611
12	0xbf381676	-0.7190927
13	0xbf5c43e9	-0.8604112
14	0xbf020393	-0.50786704
15	0xbe601b04	-0.21885306
16	0xbc9f43dc	-0.019441538
17	0xbf623f20	-0.8837757
18	0xbe1cee56	-0.15325293
19	0xbf36d24a	-0.71414626
20	0xbf1be6e1	-0.6089917
21	0x3e6d7f59	0.2319311
22	0x3f7c738e	0.9861382
23	0x3ee8e7ca	0.4548934
24	0xbf64c091	-0.89356333
25	0x3f6d4dbd	0.92696744
26	0x3ebd6286	0.3698923
27	0xbf4f843c	-0.8106115
28	0xbe5447ca	-0.2073051
29	0xbf5dc33d	-0.86626035
30	0x3f5e4ab6	0.8683275
31	0xbe458ce5	-0.19292028
32	0x3f140944	0.5782664
33	0x3f445f2e	0.7670773
34	0xbf40d833	-0.75329894
35	0x3eb52221	0.353776
36	0x3f4ac6cc	0.7920959
37	0xbeab9d5f	-0.33518502
38	0xbf538b09	-0.82634026
39	0xbf3f4687	-0.7471699
40	0xbeb7a456	-0.35867566
41	0xbe154564	-0.14577252
42	0x3ec742bd	0.38918105
43	0x3def042c	0.116707176
44	0x3f064395	0.5244687
45	0xbea523d9	-0.32253912
46	0x3e8d1056	0.27551526
47	0x3ef08670	0.46977568
48	0x3f744421	0.95416456
49	0xbf12617d	-0.57180005
50	0x3f117a63	0.5682737
51	0x3f0a4575	0.54012233
52	0x3f579ff7	0.8422846
53	0xbf4f7cc4	-0.8104975
54	0xbf2b47ee	-0.6690663
55	0xbdc11f62	-0.09429814
56	0x3ed5d409	0.41763332
57	0xbf5e485d	-0.8682917
58	0x3f6a3e30	0.9150114
59	0x3e9c74fd	0.30558005
60	0x3eac2e4b	0.3362907
61	0xbf60f31e	-0.8787097
62	0x3f52e996	0.82387674
63	0x3be0363f	0.006842404

feature_encoding.0.bias f4 [64]
0	0x3e957126	0.29187888
1	0xbc106eee	-0.00881551
2	0x3f4924e7	0.78571934
3	0xbedc89a4	-0.4307376
4	0x3f091681	0.53549963
5	0xbf22ba89	-0.6356588
6	0x3e099d8c	0.13439006
7	0xbe8e7130	-0.2782073
8	0xbf144de9	-0.5793138
9	0xbec47b78	-0.3837545
10	0xbef30f21	-0.4747248
11	0x3ddddc19	0.10832996
12	0xbef2114e	-0.47278827
13	0x3f1ce31a	0.6128403
14	0x3f285ffa	0.6577145
15	0xbf60ac48	-0.8776288
16	0xbc487cb7	-0.012236766
17	0xbd1111d5	-0.035417397
18	0xbcca9c4c	-0.024732731
19	0xbec7c224	-0.39015305
20	0x3f240458	0.6406913
21	0xbe0ee832	-0.13955763
22	0x3f18de5f	0.5971431
23	0x3f7d83a0	0.9902897
24	0x3f2ee18b	0.683129
25	0x3f411aba	0.75431406
26	0xbeaf899a	-0.3428467
27	0x3f5e013d	0.8672064
28	0xbf3a9b03	-0.7289278
29	0xbf3f9171	-0.748313
30	0x3f5adf16	0.8549665
31	0xbf25e87c	-0.6480787
32	0x3cb8efb2	0.022575233
33	0xbf37a577	-0.71736854
34	0x3f34b1b5	0.7058366
35	0x3f562f87	0.8366627
36	0xbf84423c	-1.0332713
37	0xbf43b0a3	-0.764414
38	0xbf3d2f43	-0.7390024
39	0xbf1ffea0	-0.624979
40	0xbedd89db	-0.43269238
41	0x3d8223ec	0.06354508
42	0x3ef54673	0.4790531
43	0xbed3a79c	-0.41338813
44	0x3c59c005	0.01329041
45	0x3f66df26	0.9018425
46	0x3f7962dc	0.9741647
47	0x3f324711	0.6963969
48	0x3f78827d	0.9707411
49	0x3f716a8d	0.9430321
50	0xbce7b58c	-0.02828481
51	0x3f41bd16	0.7567915
52	0xbf637761	-0.8885403
53	0x3ecfb9df	0.40571496
54	0x3efc873f	0.49321935
55	0x3f7b9f04	0.98289514
56	0xbf8ba745	-1.0910422
57	0xbe87888a	-0.2647136
58	0x3ed6c5c5	0.4194776
59	0x3f183937	0.594623
60	0x3e24e9c4	0.161048
61	0xbe89abc6	-0.26888865
62	0xbf8964dd	-1.0733906
63	0x3f56a042	0.83838284

feature_encoding.1.weight f4 [64]
0	0x3f7d3631	0.98910815
1	0x3f7421cd	0.95364076
2	0x3f7162db	0.94291466
3	0x3f81990e	1.0124834
4	0x3f725e34	0.9467499
5	0x3f769c92	0.9633266
6	0x3f7bcc24	0.9835837
7	0x3f6f0b13	0.9337627
8	0x3f724757	0.94640106
9	0x3f79d881	0.97595984
10	0x3f8733ad	1.0562645
11	0x3f7d178d	0.9886406
12	0x3f7ec23e	0.9951514
13	0x3f6f4a20	0.9347248
14	0x3f702be9	0.93817
15	0x3f97d601	1.1862184
16	0x3f88ec7b	1.0697168
17	0x3f75c441	0.96002585
18	0x3f858b83	1.0433201
19	0x3f72c638	0.9483371
20	0x3f6e46cf	0.93076795
21	0x3f7babc2	0.98308957
22	0x3f736624	0.9507773
23	0x3f72c821	0.9483662
24	0x3f688b18	0.9083724
25	0x3f6ca946	0.9244579
26	0x3f77078e	0.964959
27	0x3f69f0b2	0.91382897
28	0x3f9969ec	1.198545
29	0x3f7fc280	0.9990616
30	0x3f606fd6	0.8767065
31	0x3f8574bd	1.0426251
32	0x3f819ade	1.0125387
33	0x3f7a746b	0.9783389
34	0x3f643af6	0.8915247
35	0x3f754a01	0.95816046
36	0x3f760e99	0.96116024
37	0x3f82bfc3	1.0214771
38	0x3f818f6b	1.0121893
39	0x3f813641	1.0094682
40	0x3f7eae40	0.99484634
41	0x3f821a78	1.0164328
42	0x3f771cae	0.96528137
43	0x3f652d99	0.895227
44	0x3f7778a7	0.96668476
45	0x3f68a119	0.90870816
46	0x3f769b35	0.9633058
47	0x3f6e34c0	0.9304924
48	0x3f65b1a7	0.897242
49	0x3f634143	0.88771456
50	0x3f79695d	0.97426397
51	0x3f749241	0.95535666
52	0x3f793ebb	0.97361344
53	0x3f7478b8	0.954967
54	0x3f707fdd	0.93945104
55	0x3f71d6f4	0.9446862
56	0x3f82f727	1.0231675
57	0x3f70e85f	0.9410457
58	0x3f7984ce	0.9746827
59	0x3f79c864	0.97571397
60	0x3f7c41b5	0.9853776
61	0x3f71dedb	0.94480675
62	0x3f7350bd	0.9504507
63	0x3f727135	0.9470399

feature_encoding.1.bias f4 [64]
0	0xbbb8405b	-0.005622906
1	0xbd3714fb	-0.044697743
2	0xbd6c35d6	-0.05766853
3	0x3d0886e7	0.033331778
4	0xbd2ff83e	-0.04296135
5	0xbd4a12c1	-0.04933429
6	0xbc5ac106	-0.013351684
7	0xbd4f895f	-0.050668117
8	0xbd8fec93	-0.07027545
9	0xbcecc45d	-0.028902227
10	0xbc319bd0	-0.010840371
11	0x3ce65594	0.028116979
12	0xbc1254a6	-0.008931315
13	0xbd5320d7	-0.05154499
14	0xbd5e2520	-0.054234624
15	0x3cd83ade	0.026395258
16	0x3ad8950d	0.0016523913
17	0xbd452206	-0.04812815
18	0x3c4e9e68	0.012611009
19	0xbcef155c	-0.02918499
20	0xbd47a164	-0.0487379
21	0x3c7bc202	0.015366079
22	0xbd8e5588	-0.069499075
23	0xbb5f79a2	-0.0034099598
24	0xbda7012c	-0.081545204
25	0xbd97dec4	-0.07415536
26	0xbc982c67	-0.01857586
27	0xbdafd150	-0.08584845
28	0x3cf3632f	0.02971038
29	0xbce93be7	-0.028470946
30	0xbd9ee546	-0.07758574
31	0x3d65983f	0.056053396
32	0xbb881fdc	-0.0041541886
33	0xbd15d662	-0.036581405
34	0xbde1b13d	-0.11020134
35	0xbccf2dae	-0.025290336
36	0xbd3998b7	-0.045311656
37	0xbc39b3fc	-0.0113344155
38	0xbcb7a3d1	-0.022416981
39	0xbd1e89ad	-0.038705517
40	0xba8e67d8	-0.0010864688
41	0x3c456cb3	0.012049842
42	0xbcc6488a	-0.024204511
43	0xba851ae9	-0.0010155115
44	0xbc0513b2	-0.0081223715
45	0xbd8c24f0	-0.06842983
46	0xbd4b7ffa	-0.049682595
47	0xbd3203ec	-0.04346077
48	0xbdb99e46	-0.090633914
49	0xbde8cb01	-0.11366845
50	0xbccab19e	-0.024742898
51	0xbd615737	-0.055014815
52	0xbca2fdd6	-0.019896429
53	0xbd4bdbd4	-0.04977019
54	0xbda92fb5	-0.082610525
55	0xbcd6b3f9	-0.026208865
56	0xbd3b3138	-0.045701236
57	0xbd534012	-0.051574774
58	0xbc5a1bd3	-0.013312298
59	0x3c73bbd3	0.014876324
60	0x3b8f229e	0.0043681404
61	0xbd361c43	-0.044460546
62	0xbcb083f3	-0.021547293
63	0xbc19f986	-0.00939787

layers.0.norm1.weight f4 [64]
0	0x3f809314	1.0044885
1	0x3f828c17	1.0199002
2	0x3f8216cf	1.0163211
3	0x3f840e5d	1.0316883
4	0x3f80e139	1.0068733
5	0x3f81f730	1.0153561
6	0x3f81e8ac	1.0149131
7	0x3f8406c1	1.0314561
8	0x3f8363a4	1.0264783
9	0x3f83acc4	1.0287099
10	0x3f84e1e7	1.038144
11	0x3f8c4cbb	1.0960916
12	0x3f827ac1	1.0193712
13	0x3f815489	1.0103923
14	0x3f81654a	1.0109036
15	0x3f8f50a4	1.1196485
16	0x3f875f12	1.0575888
17	0x3f860604	1.0470586
18	0x3f85cc26	1.0452926
19	0x3f835195	1.0259272
20	0x3f8237d6	1.017329
21	0x3f84e1ec	1.0381446
22	0x3f814841	1.0100175
23	0x3f854152	1.0410559
24	0x3f7f6e38	0.99777555
25	0x3f811fac	1.008779
26	0x3f85d85b	1.0456651
27	0x3f7fadb5	0.9987443
28	0x3f87052d	1.0548455
29	0x3f8b4dbd	1.0883099
30	0x3f8216f9	1.0163261
31	0x3f8d557f	1.1041716
32	0x3f80eab0	1.0071621
33	0x3f8bc306	1.0918891
34	0x3f815251	1.0103246
35	0x3f832009	1.0244151
36	0x3f81c670	1.0138683
37	0x3f862f28	1.0483141
38	0x3f863257	1.0484113
39	0x3f848f5d	1.0356251
40	0x3f8533db	1.040645
41	0x3f823cf5	1.0174853
42	0x3f8bf70a	1.0934765
43	0x3f838ddf	1.0277671
44	0x3f870371	1.0547925
45	0x3f7f26cb	0.9966857
46	0x3f833a9a	1.0252259
47	0x3f82f609	1.0231334
48	0x3f82a586	1.0206764
49	0x3f7f37db	0.99694604
50	0x3f81c95a	1.0139573
51	0x3f842682	1.0324252
52	0x3f81878a	1.0119488
53	0x3f85cd0a	1.0453198
54	0x3f82c00d	1.0214859
55	0x3f81da07	1.0144662
56	0x3f82063a	1.015815
57	0x3f8557b4	1.041739
58	0x3f83f934	1.0310426
59	0x3f8289f5	1.0198351
60	0x3f85caa7	1.045247
61	0x3f836f11	1.026827
62	0x3f836aa0	1.0266914
63	0x3f87f1c0	1.0620651

layers.0.norm1.bias f4 [64]
0	0x3bee9db2	0.0072819823
1	0x3c5ef793	0.013608831
2	0xbc9e8390	-0.019349843
3	0x3c063180	0.008190513
4	0xbb19f0c8	-0.0023489464
5	0x3c5f2c2c	0.013621371
6	0x3cde6bd7	0.027151031
7	0x3ca987ca	0.020694632
8	0x3c939802	0.018016819
9	0x3c373c63	0.011183831
10	0x3c0c1cb2	0.008551763
11	0x3d0f3cd2	0.034970112
12	0x3c35e4fb	0.0111019565
13	0xbc4c5424	-0.012471233
14	0xbc9c3e56	-0.019072693
15	0x3c1b2424	0.009469066
16	0x3c634e26	0.0138736125
17	0x3bca4b45	0.0061735236
18	0x3c90ea9f	0.017690001
19	0x3c847be0	0.01617235
20	0xbbd21b83	-0.006411971
21	0xbbbb3559	-0.0057131466
22	0x3c66483d	0.014055309
23	0xbc8ebee5	-0.01742501
24	0xbc0ff027	-0.008785284
25	0xbbeb4e1c	-0.007180942
26	0xbc9024a9	-0.017595606
27	0xbc965714	-0.018352069
28	0xbba56f4b	-0.0050486675
29	0x3b3f1d18	0.0029161628
30	0xbc1ae751	-0.009454564
31	0xba494118	-0.0007677241
32	0x3cbd857b	0.023134938
33	0x3c83d21b	0.016091397
34	0xbc64a912	-0.013956325
35	0xbc1d6040	-0.009605467
36	0x3c238948	0.009981461
37	0x3c78d713	0.015187996
38	0x3c7b66ba	0.015344316
39	0x3c12a6ad	0.008950871
40	0x3c46f551	0.012143449
41	0x3c4b6713	0.0124147115
42	0x3b062ac2	0.0020472263
43	0xbac6376c	-0.0015122718
44	0x3c91146e	0.017709937
45	0xbd0f9b76	-0.03506037
46	0xbc80d8b0	-0.015728325
47	0xbc06105e	-0.008182613
48	0xbc0104bf	-0.007874667
49	0xbd1dc957	-0.03852209
50	0x3be01591	0.0068385084
51	0xbbc1abfd	-0.005910395
52	0x3cac1519	0.021006154
53	0x3c8cf760	0.017207801
54	0xbbdf8e00	-0.0068223476
55	0x3b63fd39	0.0034788384
56	0x3b63b86e	0.003474738
57	0x3ca0309d	0.01955443
58	0x3c94d92c	0.018169962
59	0x3a3d05f6	0.0007210666
60	0xb9a86803	-0.00032120952
61	0xbca208df	-0.01977962
62	0x3bc4b85e	0.0060034236
63	0xbbe3eb66	-0.006955552

layers.0.attention.in_proj_weight f4 [192, 64]
0	0x3da2b4cd	0.07944641
1	0x3e16c084	0.14721876
2	0x3dbda529	0.092600174
3	0xbe09b972	-0.13449648
4	0x3d8128b6	0.06306593
5	0xbd5d884c	-0.05408506
6	0x3d0f7c54	0.035030678
7	0xbd64c412	-0.05585105
8	0xbe22b840	-0.15890598
9	0xbcaf478c	-0.02139642
10	0x3d6101bd	0.0549333
11	0xbd48007e	-0.048828594
12	0xbe0a4456	-0.1350263
13	0x3d4e810a	0.05041603
14	0x3c80d25d	0.015725309
15	0xbe19dc0e	-0.1502535
16	0xbdd949fa	-0.10609813
17	0x3e30fe29	0.17284454
18	0xbdc1ef49	-0.09469468
19	0xbdaf0c15	-0.08547226
20	0xbd83eff9	-0.064422555
21	0x3d481071	0.048843805
22	0x3dd18468	0.102303326
23	0x3daf9098	0.08572501
24	0x3c54c365	0.012986039
25	0x39bc412f	0.0003590672
26	0xbd193a6d	-0.037409235
27	0xbba123d4	-0.004917601
28	0xbde5d9d8	-0.11223191
29	0xbe0cde0a	-0.13756576
30	0x3d762138	0.060090274
31	0xbc8edef9	-0.017440306
32	0x3bac8a84	0.005265536
33	0xbe07b3aa	-0.1325213
34	0x3d7a858a	0.06116251
35	0xbc18c1f3	-0.009323585
36	0xbbc0ddb9	-0.0058858064
37	0xbca0c303	-0.019624239
38	0x3bb7d076	0.0056095673
39	0xbd485a0f	-0.04891401
40	0xbe04ab5f	-0.12955998
41	0xbdfef3b4	-0.124488264
42	0xbd8d96c2	-0.069135204
43	0x3d5ae426	0.053440236
44	0xbc41eceb	-0.011836271
45	0xbce638a9	-0.02810319
46	0x3e5001e3	0.2031322
47	0x3e059d11	0.13048197
48	0xbd1dc659	-0.038519237
49	0x3df875ed	0.121318676
50	0xbd3b9731	-0.045798484
51	0xbe0e71fe	-0.13910672
52	0xbccc825a	-0.0249645
53	0x3e5c8406	0.21534738
54	0x3e2788bd	0.16360755
55	0x3e05fec5	0.13085468
56	0xbdbeb850	-0.093124986
57	0xbc9228e6	-0.017841768
58	0xbdec7801	-0.115463264
59	0xbd3d3f61	-0.04620302
60	0xbe035223	-0.12824301
61	0x3dbc0076	0.091797754
62	0xbd1c274d	-0.038123418
63	0xbdec2339	-0.11530156
64	0xbdc74af5	-0.09731094
65	0xbdb2dffe	-0.08734129
66	0xbe3ae6ee	-0.18252155
67	0xbd031b09	-0.032008205
68	0xbdb832d8	-0.08994073
69	0x3e2d9580	0.16951561
70	0x3e276e5b	0.16350691
71	0xbda1e958	-0.07905835
72	0x3e108200	0.14112091
73	0x3e02fdf3	0.12792186
74	0x3d7d68ff	0.06186771
75	0xbdb02765	-0.08601264
76	0x3dcb2e8c	0.099209875
77	0x3d97867b	0.07398697
78	0xbd8a53cb	-0.067542635
79	0x3e2f343b	0.17109768
80	0x3dd1d06a	0.1024483
81	0x3e284046	0.16430768
82	0x3e37455f	0.17897557
83	0x3e4154df	0.18880032
84	0x3babb78c	0.0052403864
85	0xbd842e49	-0.06454141
86	0xbe182577	-0.14858042
87	0x3d118d43	0.03553511
88	0x3cdc0e32	0.026862238
89	0x3d8c34c7	0.06846004
90	0x3ce7efb4	0.028312542
91	0x3bc7fa84	0.006102862
92	0x3d23b2d3	0.039965462
93	0x3e3ecbc9	0.18632425
94	0xbde6b98d	-0.1126586
95	0xbac2f480	-0.0014873892
96	0x3db64407	0.08899694
97	0xbc4037fd	-0.011732099
98	0xbddc0447	-0.10743003
99	0xbe8b1b69	-0.2716935
100	0xbc835b0e	-0.01603463
101	0xbc6b7a24	-0.014372382
102	0x3e852879	0.2600744
103	0x3e892b4f	0.26790854
104	0xbd75bc76	-0.059994183
105	0x3e3420f6	0.17590699
106	0xbe10b205	-0.14130409
107	0xbdce8356	-0.10083644
108	0x3e14a988	0.14517796
109	0x3d0b4544	0.034001604
110	0x3ce5ccff	0.028051851
111	0xbde79150	-0.11307013
112	0xbe037342	-0.12836936
113	0xbc5881d5	-0.013214548
114	0xbcb16045	-0.02165235
115	0xbd261c61	-0.040554408
116	0x3aa175ae	0.0012318396
117	0xbd61581d	-0.055015672
118	0xbe3c99e3	-0.18418078
119	0xbe36eaa9	-0.17862953
120	0xbd6f42a6	-0.05841317
121	0xbad83dfa	-0.0016497963
122	0x3d60e317	0.05490407
123	0xbe12fcd5	-0.1435426
124	0x3bbb379f	0.0057134177
125	0x3c50e580	0.01275003
126	0x3de0ea3c	0.10982177
127	0xbd4fcde5	-0.050733466
128	0xbe2f06e7	-0.17092477
129	0x3e01cdfc	0.12676233
130	0x3b4ab84c	0.0030932603
131	0xbdb28d9c	-0.08718416
132	0xbe1123bf	-0.14173792
133	0x3e004c54	0.12529117
134	0xbd8b0a9a	-0.067891315
135	0x3e665a85	0.22495468
136	0xbd84ef2d	-0.06490932
137	0x3e650c74	0.22368032
138	0x3b89a790	0.004200883
139	0x3e1e68c5	0.15469654
140	0x3da4fc04	0.08055881
141	0xbe0b4b2b	-0.13602893
142	0x3cbd8d05	0.023138532
143	0x3e68d417	0.22737156
144	0xbc33cb99	-0.010973834
145	0xbbc58791	-0.0060281237
146	0x3e254f1c	0.16143459
147	0x3e3395db	0.17537634
148	0xbcf10f05	-0.029426107
149	0xbda1351c	-0.07871458
150	0x3cc9e536	0.02464543
151	0xbe8afc44	-0.27145588
152	0x3dc403e3	0.09571054
153	0x3d452a4a	0.048136033
154	0x3dad392f	0.084581725
155	0xbe26ed48	-0.16301453
156	0x3d9f7b49	0.07787187
157	0x3e888f8b	0.26672015
158	0xbd876196	-0.0661041
159	0x3ddd9037	0.108185224
160	0xbdd1e63d	-0.102489926
161	0x3c0330b3	0.008007216
162	0xbdd3bdeb	-0.10338958
163	0xbd92f4c7	-0.07175594
164	0x3dd1a9b7	0.10237449
165	0x3e389dfb	0.18029015
166	0x3eaaf125	0.33387104
167	0x3e839f14	0.25707304
168	0xbcad96d4	-0.021190085
169	0x3e791ece	0.24328157
170	0xbe0782d0	-0.13233495
171	0xbda24531	-0.079233535
172	0x3e0242f2	0.1272085
173	0xbc7c1ec2	-0.015388193
174	0xbe19a93a	-0.15005961
175	0xbdd5d775	-0.10441486
176	0x3a6446e1	0.00087080715
177	0xbe4e2685	-0.20131882
178	0xba9ca122	-0.0011949877
179	0xbe3ff487	-0.18745624
180	0x3d2e6711	0.04257876
181	0xbe121dbe	-0.14269158
182	0x3c6e9a2e	0.0145631265
183	0xbdc9c759	-0.09852476
184	0xbbde1f1c	-0.006778611
185	0xbcb796c1	-0.022410752
186	0x3ddf31ee	0.10898195
187	0xbe0f3510	-0.13985085
188	0xbd85b3dc	-0.06528446
189	0x3e99242a	0.29910403
190	0x3e0d7b81	0.13816644
191	0xbeb3165e	-0.34978002
192	0xbe170ff1	-0.14752175
193	0xbd031f59	-0.032012317
194	0x3db8a305	0.090154685
195	0xbaad0605	-0.0013200646
196	0xbe14c79f	-0.14529274
197	0x3d6356c9	0.055502687
198	0xbd144965	-0.036202807
199	0x3dfcc1f7	0.12341683
200	0x3c098880	0.008394361
201	0x3bab1908	0.00522149
202	0x3d88a294	0.06671634
203	0xbdd1ceb8	-0.102445066
204	0x3e2a2794	0.1661666
205	0xbe601151	-0.21881606
206	0xbdb209e8	-0.08693296
207	0xbd92c2cf	-0.07166063
208	0xbd9d4cd0	-0.076806664
209	0xbe209e19	-0.1568531
210	0x3e5444d5	0.20729382
211	0xb9be0e85	-0.00036250442
212	0xbe3e1875	-0.18564017
213	0x3dee023e	0.116215214
214	0x3e33b2b5	0.1754864
215	0x3c7460ec	0.014915686
216	0xbdfbec0d	-0.123008825
217	0xbd7e46d6	-0.062079273
218	0xbc1a3cc0	-0.009413898
219	0xbda477fc	-0.08030698
220	0xbcc8a4c2	-0.024492625
221	0x3d644dbf	0.055738207
222	0x3e2207bf	0.15823267
223	0x3df848c4	0.12123254
224	0x3cb6e1c8	0.022324458
225	0xbe181147	-0.14850341
226	0xbdbff495	-0.09372822
227	0xbe13a256	-0.14417395
228	0x3cfc8f16	0.030829947
229	0xbdb77d49	-0.08959443
230	0x3e78e5cd	0.24306412
231	0x3c0dc139	0.008652025
232	0x3e39dce1	0.18150665
233	0xbcd015fd	-0.02540111
234	0x3e232314	0.1593135
235	0x3dbff991	0.09373773
236	0x3e47e473	0.1952074
237	0xbae50369	-0.001747233
238	0xbe1cec54	-0.15324527
239	0x3e0b696b	0.13614433
240	0xbd73f091	-0.059555594
241	0xbe674b51	-0.22587325
242	0x3d23a219	0.03994951
243	0x3d9fcd90	0.0780288
244	0x3cfda6a3	0.030963248
245	0xbe0827ba	-0.13296404
246	0x3cb8b88e	0.02254894
247	0xbe053b5c	-0.13010925
248	0xbd771e9c	-0.060331926
249	0x3d70aeee	0.058760576
250	0x3e31bd52	0.17357376
251	0x3d8023e5	0.06256846
252	0x3ce154d0	0.027506262
253	0x3dbf1399	0.0932991
254	0xbde7cbd9	-0.11318178
255	0xbe21cc7b	-0.1580066

layers.0.attention.in_proj_bias f4 [192]
0	0x3d83dc85	0.06438545
1	0xbc31149e	-0.010808138
2	0xbd1884fd	-0.037236203
3	0xbd0ffc41	-0.035152677
4	0x3d550661	0.052008037
5	0xbda05cf4	-0.078302294
6	0xbd9aad31	-0.07552565
7	0xbd2244b8	-0.039616317
8	0x3aeef3f7	0.0018230666
9	0xbca671c2	-0.020317916
10	0x3ddd6651	0.10810531
11	0xbcaa0a3c	-0.020756833
12	0xbd6fd805	-0.05855562
13	0x3d85adb7	0.06527274
14	0x3be26c38	0.0069098733
15	0xbcb3b5e0	-0.02193731
16	0x3c09eddc	0.0084185265
17	0x3b887283	0.0041640415
18	0x3c46d940	0.012136757
19	0x3cac599f	0.021038828
20	0xbd370d39	-0.044690344
21	0x3ac2f2b6	0.0014873359
22	0x3b83b73d	0.0040196464
23	0xbd1cebc8	-0.038310796
24	0xb93dc8a6	-0.00018099192
25	0x3b78fc39	0.0037992133
26	0x3bbd8a74	0.005784327
27	0xbc6c294a	-0.014414141
28	0x3b39d5c8	0.0028356183
29	0xbc721ac4	-0.014776889
30	0xbb816038	-0.0039482377
31	0xbc896a8d	-0.01677444
32	0xbb058354	-0.0020372467
33	0xbcfd5d14	-0.030928172
34	0x3d2617a3	0.040549885
35	0x3b99eb73	0.004697257
36	0x3a288dbf	0.0006429813
37	0xbd095202	-0.033525474
38	0xbb51c89b	-0.003201044
39	0x3d89ad5e	0.0672252
40	0x3c2f445e	0.010697452
41	0x3c70cc56	0.014697155
42	0xbbf84bb3	-0.0075773834
43	0xbba4c5f2	-0.0050284797
44	0xbc0f0f0a	-0.008731613
45	0xbb764886	-0.0037579848
46	0x3cd4f450	0.025995404
47	0xbcee9039	-0.029121505
48	0xbc07167f	-0.00824511
49	0xbda9ad42	-0.082849994
50	0xbb077b3f	-0.0020672826
51	0x3bd2ab3e	0.006429105
52	0xbc0e0999	-0.00866928
53	0x3d16b60c	0.036794707
54	0x3c6b9b8d	0.014380348
55	0x3aae71f6	0.001330911
56	0xbc79b25d	-0.015240279
57	0xbc359131	-0.01108198
58	0x3c7ffe9c	0.015624668
59	0xbcd164fb	-0.025560847
60	0xbb4cabd0	-0.0031230338
61	0xbbbccabf	-0.005761474
62	0xbb8aff7a	-0.004241881
63	0x3b43973c	0.0029844781
64	0x3963471b	0.00021674896
65	0xba78e232	-0.0009494155
66	0xba8aa7e2	-0.0010578597
67	0x3a66cd52	0.0008804399
68	0x39993fe9	0.0002923005
69	0xb996c0bf	-0.00028753837
70	0xbad806f7	-0.0016481568
71	0xbaff89e8	-0.0019496055
72	0x3985bb74	0.000255074
73	0xb9d53786	-0.00040667894
74	0xb9ea9f03	-0.0004475043
75	0x3aa15ebf	0.0012311562
76	0xb7b042b0	-2.1011889e-05
77	0xbac1d2b0	-0.0014787521
78	0xba37f267	-0.0007017017
79	0x3aaa1de1	0.0012978875
80	0x3a38d4b3	0.00070507376
81	0xb8428a61	-4.638208e-05
82	0x393ac8ec	0.00017813192
83	0x39efd391	0.00045743262
84	0x39aa6cdb	0.0003250603
85	0xb946ae2d	-0.00018947637
86	0x38de1886	0.00010590353
87	0xb98cae02	-0.00026832527
88	0xb90bb014	-0.00013321667
89	0x38918def	6.940576e-05
90	0xba010807	-0.00049221556
91	0x398d06a3	0.0002689856
92	0xb8e10833	-0.00010730363
93	0xb963813c	-0.0002169655
94	0xb8b2bd90	-8.52301e-05
95	0x38edf95a	0.00011347486
96	0xb8d7f86c	-0.00010298271
97	0xba438dd9	-0.00074597966
98	0x39f43496	0.00046578486
99	0xb8d4b50d	-0.00010142671
100	0xb895c7a2	-7.142058e-05
101	0x3aa9364a	0.0012909856
102	0x39a31b42	0.0003111009
103	0xb9c73a72	-0.00037999783
104	0xb9411d27	-0.00018416774
105	0x3a038188	0.0005016555
106	0xb8f1f10c	-0.00011536674
107	0xb974bd5d	-0.00023340197
108	0x377c74ea	1.5047592e-05
109	0xb9b8f332	-0.0003527641
110	0xb87e524d	-6.0634968e-05
111	0x391eda94	0.00015149481
112	0x3b074c70	0.0020644926
113	0x3b952485	0.0045514726
114	0xba4a6708	-0.00077210413
115	0x399be1f3	0.0002973225
116	0xba39bdec	-0.00070854905
117	0x3a46157c	0.0007556302
118	0xb9b3705c	-0.00034225255
119	0x3a54fa00	0.0008124411
120	0x385bdc03	5.241857e-05
121	0x3b182f5c	0.0023221588
122	0xbab9f2a5	-0.0014186694
123	0xb81d9c37	-3.7577203e-05
124	0x3a7ac1e2	0.0009565634
125	0x395050b9	0.00019866497
126	0xb9d53b53	-0.00040670726
127	0x3902a0fc	0.00012457737
128	0xbad0fa7d	-0.0015943792
129	0x3c4905f6	0.012269488
130	0xb7bdfa2c	-2.2647051e-05
131	0x3c05deb9	0.008170777
132	0x3c700b3c	0.014651116
133	0xbc162d2d	-0.009166044
134	0x3c65fb43	0.014036956
135	0x3c5c14c3	0.013432684
136	0x3bd38ce4	0.0064560045
137	0x3bc2d13e	0.005945354
138	0xbbfbcd82	-0.0076844105
139	0xbb9e9686	-0.004839721
140	0xbb8c86e7	-0.0042885426
141	0xbcb97950	-0.022640854
142	0x3c8a6d3b	0.016897788
143	0xbaf01582	-0.0018316957
144	0xbc4756a7	-0.012166656
145	0xba90c5c5	-0.0011045268
146	0x3c1f9558	0.009740196
147	0x3a5cd225	0.0008423648
148	0x3c37a82f	0.011209532
149	0xbb41d5dd	-0.0029576935
150	0xbc21bc33	-0.00987153
151	0xbb1d7b6b	-0.0024029862
152	0xbbf5d24c	-0.007501876
153	0x3b3e8975	0.002907363
154	0x3a550a55	0.0008126845
155	0xbc16e652	-0.009210186
156	0xbc202348	-0.009774037
157	0x3ca756d6	0.020427149
158	0xbc6e6c55	-0.014552196
159	0x3c74019a	0.01489296
160	0xbb9363c5	-0.0044979774
161	0xbb6f9c90	-0.0036561824
162	0xbcb51349	-0.022103922
163	0xbbbcbb4e	-0.005759633
164	0xbb96b3f6	-0.0045990897
165	0x3c93062e	0.017947283
166	0x3c283a0e	0.010267748
167	0xbc36b058	-0.011150442
168	0xbbed52b4	-0.007242525
169	0x3c97f017	0.018547101
170	0xbb0649df	-0.0020490808
171	0x3ad4863b	0.001621432
172	0x3cb411b9	0.021981107
173	0xbb9d80bb	-0.0048066056
174	0x3c994e57	0.018714113
175	0x3ab40ea9	0.0013737279
176	0xba209132	-0.00061251514
177	0x3b792924	0.0038018906
178	0xbb3e49c2	-0.0029035662
179	0x3a2ae696	0.00065193453
180	0xbc01ee21	-0.0079303095
181	0xbc81a8ab	-0.015827497
182	0xbc510ab8	-0.012758903
183	0xbc47b09d	-0.012188104
184	0x3bbe8f74	0.005815441
185	0xbaf153ff	-0.0018411874
186	0xbc4bbcf0	-0.012435183
187	0xbc0931a3	-0.008373651
188	0x3b58c197	0.0033074373
189	0xbb448db0	-0.002999168
190	0x3cb0b989	0.021572845
191	0xbc18b66b	-0.009320836

layers.0.attention.out_proj.weight f4 [64, 64]
0	0x3becfc35	0.007232214
1	0xbd0a9854	-0.033836678
2	0xbd8794fe	-0.06620215
3	0xbddb8982	-0.10719587
4	0xbd2ad280	-0.041704655
5	0xbd259559	-0.040425632
6	0xbbaecbd3	-0.0053343563
7	0xbca2be21	-0.019866051
8	0x3d88053c	0.066416234
9	0x3e187019	0.14886512
10	0x3c1506fe	0.009095905
11	0x3ba8be44	0.0051496346
12	0xbd5fb260	-0.05461347
13	0x3d04ebb1	0.032451335
14	0x3dc365bc	0.09540889
15	0xbd7465d5	-0.059667427
16	0x3d3545ab	0.044255894
17	0x3dcab61c	0.09898016
18	0xbd6e6501	-0.058201794
19	0x3b479f52	0.0030459953
20	0xbd3961ed	-0.045259405
21	0x3d0235a4	0.031789437
22	0x3dc34471	0.095345385
23	0x3c64df29	0.013969221
24	0xbd2a8e9c	-0.04163991
25	0x3da70d42	0.081568256
26	0xbd68e432	-0.05685825
27	0xbd9b3295	-0.07578007
28	0x3d04580b	0.032310527
29	0xbdf4dff1	-0.11956776
30	0x3daf2492	0.08551897
31	0xbde133f2	-0.10996236
32	0xba9acd7f	-0.001181051
33	0xbc9ee710	-0.019397289
34	0x3da7ae6e	0.08187567
35	0x3d8bec3e	0.06832169
36	0xbd146e5b	-0.036238056
37	0x3dc37f37	0.09545749
38	0x3ca28f44	0.019843705
39	0xbd0bff86	-0.034179233
40	0x3c1c75bb	0.0095495535
41	0xbd242b1f	-0.040080186
42	0x3ca0ff82	0.019653086
43	0xbc0058b4	-0.0078336485
44	0x3d91f43c	0.07126662
45	0xbd99f1b4	-0.07516804
46	0x3ce32b3b	0.027730575
47	0x3d79eb19	0.061015222
48	0x3dfc3a01	0.12315751
49	0x3c803599	0.015650557
50	0xbcd2845e	-0.025697883
51	0xbdaa95a7	-0.08329325
52	0x3ca4e6a3	0.020129507
53	0xbdac4af8	-0.08412737
54	0xbbfc3ac5	-0.0076974356
55	0xbde69268	-0.112583935
56	0xbdab49c8	-0.08363682
57	0xbcf0c12f	-0.029388992
58	0xbdaab2fb	-0.08334919
59	0x3d2971d6	0.041368328
60	0xbdc54939	-0.09633107
61	0xbdb9e9ec	-0.0907782
62	0xbd932445	-0.07184652
63	0x3d0100ba	0.031494834
64	0x3a2c8755	0.00065814453
65	0xbd9e7223	-0.077366136
66	0x3db4b75f	0.08824038
67	0x3d681dee	0.05666917
68	0xbd8de29f	-0.0692799
69	0xbd8767c5	-0.06611589
70	0xbd12c93b	-0.03583644
71	0xbdb126d7	-0.08649986
72	0x3ce2ca5f	0.027684389
73	0x3d397a2c	0.045282528
74	0x3d692acf	0.05692559
75	0xbdc773d7	-0.097388916
76	0x3d3cf52d	0.046132255
77	0x3e0330e6	0.12811622
78	0x3d8f6ab1	0.07002772
79	0xbca82dba	-0.020529617
80	0x3cba1f5c	0.022720031
81	0x3ca40b09	0.020024793
82	0xbd4a2dc5	-0.049360055
83	0xbc88b9b1	-0.016690107
84	0xbc777a09	-0.015104779
85	0xbd23e5e5	-0.040014166
86	0x3d078da0	0.03309405
87	0xbdeddb21	-0.11614061
88	0xbc835ac0	-0.016034484
89	0xbe163276	-0.14667687
90	0x3da24c35	0.079246916
91	0xbdd479c5	-0.10374788
92	0xbd6324fc	-0.055455193
93	0x3d9b2c69	0.0757683
94	0x3de684e9	0.11255819
95	0x3b0bda78	0.0021339934
96	0xbcb270fa	-0.021782387
97	0xbd500c65	-0.05079307
98	0x3da81977	0.08207982
99	0xbe10de77	-0.14147364
100	0xbcd52a77	-0.026021225
101	0x3a17df44	0.0005793462
102	0x3a13d9f0	0.000564008
103	0xbe02431a	-0.1272091
104	0x3d698c51	0.05701858
105	0x3c75ecd8	0.015010081
106	0xbddd291c	-0.107988566
107	0x3db61bc1	0.088920124
108	0x3d99b3b8	0.07504982
109	0xbd846cd7	-0.06466072
110	0x3cbf9317	0.023385568
111	0x3dbcced0	0.09219134
112	0x3db49734	0.08817902
113	0x3d92b3dc	0.07163212
114	0xbbe2c35f	-0.0069202627
115	0x3d4abe54	0.049497917
116	0xbca81298	-0.020516679
117	0x3d27692a	0.040871777
118	0xbb90c79c	-0.0044183265
119	0x3d999edd	0.07501004
120	0xbd4a6d03	-0.049420368
121	0xbca15a79	-0.019696461
122	0xbced3c7c	-0.028959505
123	0x3c801466	0.015634727
124	0x3d4d4eeb	0.05012409
125	0xbcc49987	-0.023998989
126	0xbc5561a7	-0.01302377
127	0x3c743876	0.014906039
128	0x3dabc68a	0.08387478
129	0x3ce5b493	0.028040206
130	0xbd2f1f44	-0.042754427
131	0xbd88a5fe	-0.066722855
132	0x3d773faf	0.060363468
133	0xbd6523f7	-0.055942502
134	0xbc472ed2	-0.012157159
135	0x3d91ea8d	0.07124815
136	0xbce03b0e	-0.02737191
137	0x3d2234c1	0.03960109
138	0x3d69dfb7	0.057098117
139	0x3dd218d6	0.10258643
140	0xbdd83eb6	-0.10558836
141	0xbdfeb957	-0.124376945
142	0x3da598ed	0.08085809
143	0xbc577c65	-0.013152217
144	0x3df35f77	0.11883443
145	0x3dc309e2	0.09523369
146	0xbd8d1dc6	-0.068904445
147	0x3d9a4cf0	0.07534206
148	0x3ce452b0	0.02787146
149	0x3d8a5199	0.06753845
150	0xbd5d1847	-0.05397823
151	0xbdfca4d1	-0.12336124
152	0x3d0d5595	0.034505446
153	0xbc25a903	-0.010111096
154	0xbdce1187	-0.10061937
155	0xbd2437d9	-0.040092323
156	0x3cdebca9	0.02718957
157	0x3dc0e443	0.094185375
158	0xb9ec90bf	-0.00045121272
159	0x3d9f7c1a	0.07787342
160	0xbda33cca	-0.07970579
161	0xbdfb7865	-0.12278823
162	0xbd874d4a	-0.066065386
163	0x3dade6b4	0.08491269
164	0xbcca0e04	-0.024664886
165	0x3cf7a22d	0.030228699
166	0xbcd0a47e	-0.025469061
167	0x3d040965	0.03223552
168	0xbceee027	-0.029159619
169	0xbc1af12b	-0.009456913
170	0x3c9a0ee7	0.018805934
171	0xbd13339d	-0.035937894
172	0xbd8d5408	-0.06900793
173	0xbd56f8b8	-0.05248329
174	0x3d8defbe	0.06930493
175	0xbd1234bb	-0.03569482
176	0x3bb3b904	0.005484702
177	0xbd908105	-0.070558585
178	0xbd07b447	-0.03313091
179	0x3ce67334	0.028131105
180	0xbddcc2a6	-0.10779314
181	0x3dc69481	0.096962936
182	0x3e00f30f	0.1259272
183	0xbc26f3c7	-0.010189957
184	0x3e137371	0.14399506
185	0xbd594d09	-0.053051982
186	0xbd715caa	-0.058926262
187	0xbde6bca2	-0.112664476
188	0x3d0624cb	0.032749932
189	0xbdff66a8	-0.12470752
190	0x3c60843e	0.013703404
191	0xbd330b02	-0.04371167
192	0x3dadf3cc	0.08493766
193	0x3d4fc480	0.050724506
194	0x3d8de03f	0.06927537
195	0x3cf59123	0.029976433
196	0x3e0bc6c3	0.1365004
197	0x3ddcf81b	0.1078951
198	0xbc360278	-0.011108987
199	0xbc137c59	-0.009001815
200	0xbd2e6ba3	-0.04258312
201	0xbdfbdebb	-0.12298342
202	0x3d6dc540	0.05804944
203	0xbd64b3e9	-0.05583564
204	0x3cfa72d7	0.030572338
205	0x3ceb9aba	0.028760303
206	0xbd54bd00	-0.051938057
207	0xbdeb5dcb	-0.11492499
208	0x3d530834	0.051521495
209	0x3daf2f41	0.08553935
210	0x3d41a57c	0.04727696
211	0x3da2e97f	0.07954692
212	0x3d26030c	0.04053025
213	0xbd17321b	-0.03691302
214	0xbdd1ab41	-0.10237742
215	0xbdb38bf9	-0.08766932
216	0xbdb22bf9	-0.08699793
217	0xbd205c83	-0.039150726
218	0x3de5c10a	0.1121846
219	0xbd857f1d	-0.065183856
220	0x3cca043f	0.024660228
221	0xbdb61c6f	-0.08892142
222	0xbd78d815	-0.060752947
223	0x3cd325d7	0.02577488
224	0x3dc371e3	0.095432065
225	0x3c85af63	0.016318982
226	0xbdc95f7b	-0.098326646
227	0x3d8e1827	0.069382004
228	0xbd88de5e	-0.06683038
229	0x3c8a838a	0.016908426
230	0xbc33f90f	-0.010984673
231	0x3b6f5d4a	0.003652411
232	0x3dddfedf	0.108396284
233	0x3d06fa15	0.03295334
234	0x3cde1e0e	0.02711394
235	0x3ce84d01	0.02835703
236	0xbce431b9	-0.02785574
237	0xbd731ed0	-0.059355557
238	0xbca69467	-0.020334436
239	0xbd46b697	-0.048513975
240	0x3dc56569	0.09638483
241	0xbd6e3105	-0.058152217
242	0x3dc82778	0.09773153
243	0xbe165416	-0.14680514
244	0xbcef92d6	-0.029244822
245	0x3db4f41a	0.08835621
246	0x3dbe5209	0.09292991
247	0xbe109ea9	-0.14123024
248	0xbdd9c43e	-0.10633133
249	0xbdabef5f	-0.08395266
250	0xbdc30343	-0.095221065
251	0x3cfe98a0	0.031078637
252	0xbe016fbb	-0.12640278
253	0xbd51762d	-0.05113809
254	0xbc45b5ba	-0.012067253
255	0xbd87f579	-0.06638617

layers.0.attention.out_proj.bias f4 [64]
0	0x3ab00a9c	0.0013430896
1	0x3b243da0	0.0025061145
2	0x3b874b80	0.0041288733
3	0xbb9d5ee7	-0.004802573
4	0xbb950c89	-0.0045486134
5	0x3bbb5eaa	0.005718072
6	0x3ae2c512	0.0017301163
7	0xbc9665a4	-0.018359013
8	0x38f0f8dc	0.000114904455
9	0x3b9b2732	0.004734897
10	0x3b249384	0.002511234
11	0xbc3be33e	-0.011467753
12	0x39db3dea	0.00041817065
13	0xbc90d162	-0.017677967
14	0x3be85e06	0.0070912866
15	0x3b8274ef	0.0039812247
16	0x3bee71ee	0.007276765
17	0xbbeb6285	-0.0071833753
18	0x3c186a12	0.009302633
19	0x3c9431c0	0.018090129
20	0xba12fb75	-0.0005606928
21	0x3a0fed62	0.000549039
22	0xbc951397	-0.018197818
23	0x3a9a8280	0.001178816
24	0xbb83c7a9	-0.004021604
25	0xbca949d7	-0.020665092
26	0x3bcc3668	0.0062320717
27	0xbc384249	-0.011246272
28	0xbb9d8aa1	-0.0048077856
29	0x3b926109	0.004467134
30	0xbbc3d101	-0.005975843
31	0xbbf4d6fb	-0.0074719167
32	0xbc5f8dd6	-0.013644656
33	0xbb69f58f	-0.0035699343
34	0xbc898e58	-0.016791508
35	0x3c085657	0.008321366
36	0x3bd922dc	0.00662647
37	0xbb87bf2f	-0.004142664
38	0x3c73b882	0.014875533
39	0xbbddf771	-0.006773882
40	0x3c204e9b	0.009784366
41	0xbc419da6	-0.0118173715
42	0x3b31ad0b	0.0027111198
43	0xba458d73	-0.0007536031
44	0xb9353889	-0.00017282566
45	0x3bf7bdd2	0.00756047
46	0xba02e355	-0.00049929816
47	0xbc6cb8cf	-0.014448359
48	0xbb899fb0	-0.0041999444
49	0xbc77dd40	-0.015128434
50	0x39c94330	0.00038387766
51	0x3bfd88d7	0.00773726
52	0x3b359277	0.0027705708
53	0x3aebe7ea	0.0017998193
54	0xbbac5c01	-0.005259991
55	0xbb18630e	-0.00232524
56	0xbad019d7	-0.0015876841
57	0x3c25f320	0.010128766
58	0x3c37d44f	0.011220052
59	0x3b8c4295	0.004280398
60	0x3c13ee46	0.009028977
61	0x3bea4c89	0.007150237
62	0x3c45eea7	0.012080825
63	0xbc1af148	-0.00945694

layers.0.norm2.weight f4 [64]
0	0x3f885d53	1.065348
1	0x3f7f562c	0.9974086
2	0x3f7c36f1	0.98521334
3	0x3f8b175b	1.0866503
4	0x3f80a94e	1.0051668
5	0x3f832e9f	1.0248603
6	0x3f82d43b	1.0221018
7	0x3f80be00	1.0057983
8	0x3f7d008b	0.98828954
9	0x3f7fa471	0.9986029
10	0x3f813d30	1.0096798
11	0x3f7b06da	0.9805733
12	0x3f8222f0	1.0166912
13	0x3f7c7bcb	0.98626393
14	0x3f7cf2d6	0.9880804
15	0x3f896b78	1.0735922
16	0x3f85a03d	1.0439526
17	0x3f7fe691	0.9996119
18	0x3f88400a	1.0644543
19	0x3f7d5234	0.98953557
20	0x3f7c510a	0.98561156
21	0x3f8236e3	1.0173
22	0x3f7cb12d	0.9870785
23	0x3f82400b	1.0175794
24	0x3f7c345c	0.98517394
25	0x3f7ff06e	0.9997624
26	0x3f84dba8	1.0379534
27	0x3f806c45	1.0033041
28	0x3f892514	1.071444
29	0x3f823f36	1.017554
30	0x3f719a43	0.9437601
31	0x3f876b11	1.0579549
32	0x3f879331	1.0591794
33	0x3f79785e	0.9744929
34	0x3f819e67	1.0126466
35	0x3f8104a8	1.0079546
36	0x3f809d13	1.0047935
37	0x3f8778e9	1.0583774
38	0x3f7edb45	0.9955333
39	0x3f8671a5	1.0503432
40	0x3f87c8b5	1.0608126
41	0x3f83829e	1.0274236
42	0x3f838504	1.0274968
43	0x3f802291	1.0010549
44	0x3f819df6	1.0126331
45	0x3f849efa	1.0361016
46	0x3f81eb7c	1.0149989
47	0x3f80ea68	1.0071535
48	0x3f753a07	0.9579167
49	0x3f7fd20b	0.99929875
50	0x3f861646	1.0475547
51	0x3f7e1003	0.9924318
52	0x3f7fe1d3	0.99953955
53	0x3f7ac5c5	0.9795802
54	0x3f804f8f	1.0024279
55	0x3f80ccab	1.006246
56	0x3f86ac35	1.0521303
57	0x3f7fd59a	0.99935305
58	0x3f800b9c	1.0003543
59	0x3f83f0f9	1.0307914
60	0x3f82e9d4	1.0227609
61	0x3f8193df	1.0123252
62	0x3f80eb8f	1.0071887
63	0x3f81ecb7	1.0150365

layers.0.norm2.bias f4 [64]
0	0x3cc08bda	0.023504186
1	0x3c139a37	0.009008936
2	0xbb4c14ee	-0.0031140405
3	0xbc945f9c	-0.018111996
4	0xbbf1aebb	-0.007375566
5	0xbc986a20	-0.018605292
6	0xbbaae485	-0.00521523
7	0x3d1fe338	0.039035052
8	0xbcf6ed3d	-0.03014242
9	0x3c138d91	0.00900592
10	0x3c8bf344	0.017083772
11	0x3d22c4c7	0.039738443
12	0x3c39752c	0.01131944
13	0xbcd372d9	-0.0258116
14	0xbd16869f	-0.03674948
15	0xbc0dda0b	-0.0086579425
16	0x3a543a19	0.00080958154
17	0x3b1259bf	0.0022331325
18	0x3c5063b9	0.012719088
19	0xbcdcb480	-0.026941538
20	0x3c18a019	0.009315514
21	0xbc4fed9d	-0.012690929
22	0x3ba01669	0.004885484
23	0x3c24e8bc	0.010065254
24	0x3cc2f1a9	0.023796873
25	0x3cb3a85c	0.021930866
26	0xbc5d9f7e	-0.013526795
27	0x3bb87680	0.0056293607
28	0xbd09775a	-0.03356109
29	0x3c28b827	0.010297812
30	0xbd8f83db	-0.07007571
31	0x3bf336ba	0.0074222954
32	0x3bc1a1a4	0.0059091616
33	0xbceaa5b7	-0.028643472
34	0x3ca5ce66	0.02024002
35	0xbc6e42d3	-0.014542299
36	0xbc8998db	-0.01679652
37	0x3af9c964	0.0019057211
38	0xbc82c378	-0.015962347
39	0x3c6fd495	0.014638086
40	0xbbaf93d8	-0.0053582005
41	0x3bbdd3fa	0.005793092
42	0xbbf18212	-0.007370242
43	0x3d1b8b6e	0.037974767
44	0x3c6cf171	0.014461861
45	0x3c521039	0.012821251
46	0xbb427237	-0.0029670128
47	0xbbe8d97a	-0.0071060034
48	0xbd3d3dba	-0.046201445
49	0x3bfa1453	0.0076318174
50	0x38a0c826	7.666675e-05
51	0xbc05301c	-0.008129146
52	0x3c7bdfbe	0.0153731685
53	0xbd57dfbb	-0.0527036
54	0xbd1a2e38	-0.037641734
55	0x3c9b2e75	0.01894305
56	0xbb8d09d8	-0.004304152
57	0xbc66797c	-0.01406705
58	0x3bb14aae	0.005410514
59	0x3c67cd5f	0.014148085
60	0xbd3676f2	-0.04454703
61	0xbb40728c	-0.002936515
62	0xbcaa2b65	-0.020772645
63	0x3c994886	0.01871134

layers.0.ffn.0.weight f4 [256, 64]
0	0xbc3b75ab	-0.011441628
1	0xbd2c309e	-0.042038552
2	0xbdbf48f9	-0.0934009
3	0xbdb82a98	-0.08992499
4	0x3becdb3f	0.0072282846
5	0xb9c1cad0	-0.00036962936
6	0xbd28836a	-0.04114095
7	0x3d129063	0.03578223
8	0xbd4d4bf8	-0.050121278
9	0x3d149fc0	0.036285162
10	0x3c18e776	0.009332528
11	0x3d410237	0.047121253
12	0x3d03bd31	0.03216285
13	0x3c99636d	0.018724168
14	0xbc2e3875	-0.010633578
15	0x3df8680f	0.121292226
16	0x3d6db412	0.058033057
17	0xbdb050dd	-0.086091734
18	0x3ce96cd8	0.028494284
19	0x3df30b4b	0.11867388
20	0x3dba6a60	0.09102321
21	0x3d64aeb1	0.05583066
22	0x3db48463	0.08814313
23	0xbdc9a5aa	-0.09846051
24	0xbdf4606e	-0.11932455
25	0x3c3ef182	0.01165426
26	0xbdccd86e	-0.10002218
27	0xbdf42552	-0.11921181
28	0xbd776b17	-0.060404863
29	0xbc81fd61	-0.01586789
30	0xbd27091f	-0.040780183
31	0x3dae42ef	0.0850886
32	0x3d01570a	0.031577148
33	0xbd02962a	-0.03188149
34	0x3dcc3f0f	0.09972965
35	0x3ce3845f	0.02777308
36	0xbd53c119	-0.051697824
37	0xbc26e2d5	-0.010185917
38	0x3d9c0051	0.07617248
39	0xbccc9552	-0.024973545
40	0xbdc983d8	-0.098396
41	0xbcee5de9	-0.029097514
42	0x3dfc9667	0.123333745
43	0xbd344c50	-0.04401809
44	0x3d4dcd92	0.050244875
45	0xbd886792	-0.066603795
46	0xbb854ffb	-0.0040683723
47	0x3dce1660	0.100628614
48	0x3d8244a8	0.063607514
49	0xbd5844e3	-0.05280007
50	0xbcfa4209	-0.030549066
51	0xbd5346c8	-0.051581174
52	0x3c8145ab	0.01578029
53	0x3da89c3d	0.08232925
54	0x3b7b14ff	0.0038312075
55	0x3dbf997b	0.09355446
56	0xbd25d5b5	-0.04048701
57	0x3d5ecee1	0.054396514
58	0x3dd4251b	0.1035864
59	0x3db4abda	0.088218406
60	0xbda18237	-0.07886165
61	0x3d6aff90	0.05737263
62	0xbd3702aa	-0.044680275
63	0xbdb31b36	-0.087454244
64	0x3ce910c1	0.028450372
65	0x3de1fc66	0.11034469
66	0xbc98bab4	-0.018643714
67	0xbc56d079	-0.013111227
68	0xbddd99c7	-0.10820346
69	0xbda0e8ee	-0.07856928
70	0x3d172e45	0.03690936
71	0x3c9ae615	0.01890854
72	0x3d13146b	0.035908144
73	0x3d1380cb	0.0360115
74	0xbd053ae1	-0.032526854
75	0x3d83ea38	0.06441158
76	0x3de739c9	0.112903185
77	0x3c864cb9	0.016394006
78	0x3d4c8b3b	0.049937468
79	0xbdb7afa9	-0.089690514
80	0x3cfadd88	0.030623212
81	0xbb9c9512	-0.0047785128
82	0x3dd5385a	0.10411139
83	0xbd96f5bf	-0.07371091
84	0xbdfb6fba	-0.122771695
85	0x3d2081cd	0.039186288
86	0x3dd22f90	0.10262978
87	0xbdcd6d9c	-0.10030672
88	0x3da0200e	0.07818614
89	0x3d2184fa	0.039433457
90	0x3db84b70	0.089987636
91	0xbd5143ef	-0.051090177
92	0x3dea1d92	0.11431421
93	0x3decb61c	0.11558172
94	0x3d08bae9	0.033381376
95	0x3d9a8256	0.07544391
96	0x3d3469ea	0.04404632
97	0xbdc6e3c7	-0.09711414
98	0x3d5c4924	0.05378069
99	0x3d1ab0ff	0.037766453
100	0x3d4f7ae7	0.05065432
101	0x3c9eb8f2	0.019375298
102	0xbd685ac1	-0.056727175
103	0x3dc225e0	0.0947988
104	0xbdce6c63	-0.10079267
105	0xbdf13e8d	-0.11779509
106	0xbc247aab	-0.010039012
107	0xbc1831b9	-0.009289199
108	0xbd43d6bf	-0.04781222
109	0x3d17986f	0.037010606
110	0x3dcc4775	0.09974567
111	0x3da9d2cc	0.082921594
112	0x3d434714	0.047675207
113	0xbcb4f6af	-0.022090284
114	0xbcdc4d0e	-0.026892211
115	0x3dd51bca	0.10405691
116	0x3d162d6b	0.036664408
117	0xbc977a72	-0.018491004
118	0x3d9987f9	0.07496638
119	0x3dc5b7ee	0.096542224
120	0x3c582ce0	0.013194293
121	0x3d9d1ce4	0.07671526
122	0xbe06f445	-0.13179119
123	0xbdf8563f	-0.12125825
124	0x3da6e238	0.081486166
125	0x3ca80a46	0.020512711
126	0xbd209f63	-0.039214503
127	0x3dd9b147	0.10629516
128	0x3d65e7e1	0.05612934
129	0xbc8be9e6	-0.017079305
130	0xbcc8def7	-0.02452038
131	0xbd9b6e22	-0.075893655
132	0x3d5b3aac	0.05352275
133	0x3d883ecc	0.066526026
134	0x3db75e90	0.08953583
135	0x3d6435ce	0.055715375
136	0x3dc64c01	0.09682465
137	0x3d8279de	0.063709006
138	0x3da8bd34	0.08239213
139	0xbc19787c	-0.009367105
140	0x3c441f5e	0.011970369
141	0xbe01d635	-0.1267937
142	0x3c6a6602	0.014306547
143	0x3dc90c8b	0.098168455
144	0x3da71879	0.08158965
145	0xbd6780c6	-0.056519292
146	0x3c93923a	0.018014062
147	0x3cae0cf8	0.021246418
148	0xbd3dfd7a	-0.046384312
149	0xbe234a4c	-0.15946311
150	0x3cd99951	0.026562365
151	0x3ce5ef7a	0.028068293
152	0xba8f869f	-0.0010950154
153	0xbd05f19e	-0.032701127
154	0x3d67eea0	0.056624055
155	0xbd4cb065	-0.04997291
156	0xbde7dadd	-0.11321042
157	0x3da94939	0.08265919
158	0xbbf4dfca	-0.007472967
159	0xbc2ecfe8	-0.010669686
160	0xbda492cb	-0.08035811
161	0x3d2fed15	0.04295071
162	0x3c96bd04	0.018400677
163	0x3a84bc80	0.0010126978
164	0xbd8d27a5	-0.06892327
165	0xbd80807a	-0.06274505
166	0x3adee557	0.0017005604
167	0x3de548c1	0.11195517
168	0xbd1f7987	-0.038934257
169	0x3c1e7859	0.009672248
170	0x3ce9f994	0.028561391
171	0x3da8f900	0.08250618
172	0xbd5b8b3e	-0.05359959
173	0x3d56bd14	0.052426413
174	0xbd738384	-0.059451595
175	0xbd0f9cb5	-0.035061557
176	0x3d6adbb9	0.05733845
177	0xbd4509f7	-0.048105206
178	0x3d1a21b6	0.037629806
179	0x3c3df125	0.011593138
180	0x3d9215ad	0.071330406
181	0x3d8a3c8d	0.067498304
182	0x3d5919e3	0.053003203
183	0x3db4e000	0.08831787
184	0xbdc7db49	-0.09758622
185	0xbd612d03	-0.054974567
186	0xbdab34c7	-0.08359676
187	0x3dee2a1f	0.11629128
188	0x3d7a2480	0.061069965
189	0x3d2da176	0.04239031
190	0xbdc3d49e	-0.09562038
191	0x3d820b13	0.063497685
192	0xbd849ee0	-0.064756155
193	0x3dffb3c2	0.12485458
194	0xbd533e0a	-0.051572837
195	0xbdd5fd67	-0.10448723
196	0x3e098cb7	0.13432585
197	0x3bce36ac	0.0062931385
198	0x3a7313cb	0.0009272664
199	0xbda45ac1	-0.080251224
200	0xbdbab1dc	-0.09115955
201	0xbd32d935	-0.043664176
202	0x3d7e276c	0.062049314
203	0x3c92e989	0.017933624
204	0x3d0cf5a6	0.034413956
205	0x3db34f03	0.08755305
206	0x3c93853f	0.018007873
207	0x3e0dc1af	0.13843416
208	0xbc9e2441	-0.019304397
209	0x3ca8972b	0.020579895
210	0x3de4b115	0.11166588
211	0x3d2e6026	0.042572163
212	0xbdcd501e	-0.10025047
213	0x3d99d1ab	0.07510694
214	0x3ddccc1e	0.1078112
215	0xbd94feea	-0.072751835
216	0x3ca3edc2	0.020010833
217	0x3d5b20af	0.053497966
218	0xbd0a76d6	-0.033804737
219	0xbd92a77c	-0.07160851
220	0x3dc47424	0.095924646
221	0x3c60ea93	0.013727802
222	0x3dd482de	0.103765234
223	0x3d9747d1	0.07386745
224	0x3dd9f25a	0.10641928
225	0x3d4ee891	0.05051476
226	0xbdcfcad8	-0.10146111
227	0x3cd2e0dd	0.025741989
228	0xbcaf7fca	-0.02142324
229	0xbe11a06a	-0.1422135
230	0xbb780075	-0.003784207
231	0xbde79728	-0.11308128
232	0xbd0ad290	-0.033892214
233	0xbc0000a4	-0.007812653
234	0xbe0da4a9	-0.13832344
235	0x3d3fd437	0.046833243
236	0xbbe812bf	-0.007082313
237	0x3d10f61e	0.035390966
238	0xbdccf566	-0.100077435
239	0x3c5a769d	0.013333944
240	0x3dcad15e	0.09903215
241	0xbd1b44e6	-0.037907504
242	0x3c6e5962	0.014547678
243	0xbdc0bdd7	-0.09411209
244	0x3d28b71a	0.041190244
245	0x3d32206f	0.043487962
246	0x3d58d433	0.052936744
247	0x3dde2660	0.10847163
248	0x3ddd841e	0.10816215
249	0xbd263c54	-0.040584877
250	0xbd5c7809	-0.053825412
251	0xbd7545d6	-0.059881054
252	0xbdab0dc2	-0.083522335
253	0xbe1db704	-0.15401846
254	0xbd58aaff	-0.05289745
255	0xbb012faf	-0.001971226
