checkpoints_quadruped/model_epoch_40.pth (torch, 424942 bytes, 30 tensors)

pos_embedding f4 [1, 49, 64]
00000000: 0d3f ca3d 6a6b 3cbd a2af d73c db21 a63c
00000010: 6fc6 3c3d 77df 4abc 169e 86bd 6dd3 c8bd
00000020: 3fd8 adbd 6992 8f3b 9ffa 10bc 0d66 96ba
00000030: b355 213d 223c 94bc 0687 09be 24cd 18bd
00000040: 7788 faba 93da bd3d 9884 12bc 453d b1bd
00000050: a6b4 3f3d b83d 24bc 03d8 d83d ef06 cd3c
00000060: 0def ce3d f58d 97bd 4fcf 9abd 1a1d 553d
00000070: a472 a9bc 7a8a 943d a5fb f3bc e556 c43d
00000080: 8f89 ed3c 0e2e 81bc 9441 b53b b15f 773d
00000090: 8249 edbd f334 483d 3d4f 0d3d 84af 15be
000000a0: dffa 25bd 7c18 163c 4132 5cbd 54eb 093e
000000b0: 94df e1bc dd46 df3d a2f1 083d 42bb 393d
000000c0: 61e9 41bd 3309 343a 6b2c a73d f45f e33c
000000d0: 10e1 3d3d 5570 4bbd 9e69 3fbd 4acd 89bd
000000e0: 203d 12be 1ea6 bdbd fd26 93bb aa2f c33d
000000f0: 47d4 76bd 69ac 01be fd15 d43c 7c71 b93d
00000100: f5b6 5a3d 6790 f33c 4863 593c e25c 7bbc
00000110: 34cb ecbb 3069 bbbd 948f 593d efa7 193d
00000120: 2bc2 cfbc 50c5 babc 7904 d33c 2ec7 dd3d
00000130: 85eb 9c3b 336a e2bb b0a5 4dbc 03cd a8bd
00000140: 4144 afbc e0d5 dc3d 2174 a03b 4744 c8bd
00000150: 4a42 cc3c 70cc 69bd 8ebc 1abd 4e65 e6bd
00000160: ece4 903d e466 03be fd9a acbb c048 1c3d
00000170: 3c81 4dbd 449d 28bd 05b2 a9bd dc54 1cbd
00000180: 13d3 eb3b ccdb 9cbc e37d a73d 3f1a dcbd
00000190: 827f d8bd 7aea 91bd b65e f1bb 5075 273c
000001a0: c3ca 743b 63c7 a2bd b76c d2bc 3198 f43d
000001b0: bea0 013d d365 553d c044 bb3c 1fad 9a3d
000001c0: dd01 323b a15f 973d 03cd 123d 30ee babd
000001d0: 478b 2a3d b799 823d 775e 953d 36c8 f33b
000001e0: cf47 083e d537 39bd 7f59 10bc 4142 65bd
000001f0: 5d15 22bd 8e28 e7bd 39aa d0bc b4ac a53d
00000200: 4c08 0d3d f4bf f0bc f182 d23b 5bf6 753c
00000210: b175 2f3c 5582 00bd dab5 a5bd a052 b23d
00000220: ad20 9dbd d527 bf3c cd51 523d fda0 f9bb
00000230: db8d 3b3d fb29 95bd 72d7 bdbd 4529 15bd
00000240: bd73 b3bc 0ea6 463d e407 473d 8221 86bd
00000250: cdf0 2a3d 237c e3bc 05a5 d53d fe5e dcbd
00000260: c6df 313d cfd7 37bd aa30 07be 7e9a efbc
00000270: c9dd 8ebd a0de 5c39 7036 46bc 80bf 90bd
00000280: 6ab4 01bd 6280 86bd f72a 12bd 3a67 283d
00000290: 34b2 bcbd 4df1 f8bc b953 6f3d e222 8ebd
000002a0: 30ee fd3a d0a5 68bc 202e 393d 4551 173e
000002b0: 2aaf 573d 3467 c03d 6420 3cbd 94d5 773d
000002c0: b8ee e13d 5987 3cbd 3ec5 cb3d 5398 2dbd
000002d0: 7ac7 473d 811e cc3c b0e2 4fbd cf34 613c
000002e0: 5ec5 0abc 41f5 8abc 48c4 9cbc 9ffe 283b
000002f0: 82f9 713c dabb febd dc6f b93d debe da3d
00000300: cfc0 973d e39c 44bc 85a4 bc3c bd6a 313d
00000310: 09f5 863c af5a 48bb 8b86 bcbd 2acd 8ebc
00000320: 8427 31be 6b5d 0fbb 026f 243d ba0c 033d
00000330: a5bd 7c3d 49d2 9ebd 6436 88bd 00bd 0a3d
00000340: 0f27 0fbd 8e7f ab3d f560 b13c 14a8 c7bd
00000350: 611f e23c 6b6a ebbc 517c c43d d5c5 533d
00000360: ced5 043e 3f9a 9fbd 19f1 0fbe 8133 0d3e
00000370: cecc bd3c f7d8 ecbb 67a2 a5bd 9c7a ac3c
00000380: 78a6 2f3d f66b 88bd bb48 c6bc dfe1 a53b
00000390: 9082 8fbd 14ec 643d 9b75 a4ba 6689 d1bd
000003a0: 2d07 bbbc fe56 f6bb 5e4b 5ebd 4ecf 263e
000003b0: 674f acbc c54f 1a3e e42a 2fbc 05c1 813c
000003c0: 8753 94bd 8d47 f03c 6bc3 b53d 28be 36bc
000003d0: 5b49 593d 40ed a3bd 7a6e 61bd 89e1 603c
000003e0: 3de8 5fbd 4a2b 94bd 3819 c4bd bdf0 033d
000003f0: 8b25 4c3c dcbf 5fbe 9fb0 2f3d 1bbd 163e
0.09875307 -0.046000876 0.026328865 0.020279815 0.04608768 -0.01238238 -0.06573121 -0.09805951
-0.08488511 0.004381467 -0.008848815 -0.0011474505 0.03938837 -0.01809508 -0.13430414 -0.037305012
-0.0019114156 0.09270205 -0.008942746 -0.08654264 0.04680314 -0.0100244805 0.10588076 0.02502772
0.10104189 -0.07400123 -0.07559072 0.052029707 -0.020684548 0.07252975 -0.02978308 0.09586886
0.028996257 -0.01576903 0.005531499 0.060393993 -0.11586286 0.04887862 0.034499396 -0.14617735
-0.040522452 0.009161111 -0.053758863 0.13468677 -0.02757243 0.10902188 0.033433564 0.0453446
-0.047341708 0.0006867826 0.08162769 0.027755715 0.046357214 -0.049667675 -0.046731584 -0.06728609
-0.1428113 -0.092602 -0.0044907317 0.095305756 -0.060261037 -0.12663426 0.025889391 0.090548486
0.053397138 0.029731942 0.013268299 -0.015341969 -0.007226372 -0.09150922 0.053115442 0.03751367
-0.025361141 -0.022799164 0.025758969 0.10829006 0.0047888183 -0.0069096326 -0.01255171 -0.08242228
-0.02139485 0.10782981 0.004896656 -0.09778648 0.024933953 -0.057079732 -0.037777476 -0.11249791
0.070749134 -0.12832218 -0.0052674995 0.038155317 -0.050172076 -0.041165605 -0.08285908 -0.038166866
0.007196793 -0.019147776 0.08178308 -0.107471935 -0.10571195 -0.07124801 -0.0073660268 0.010220841
0.00373523 -0.07948186 -0.025686605 0.11943091 0.031647436 0.05209906 0.022859931 0.075525515
0.0027161755 0.07391287 0.035840046 -0.09127462 0.04163673 0.06376975 0.07293408 0.0074396385
0.13308643 -0.04521926 -0.0088104 -0.055971388 -0.039571155 -0.11287032 -0.025471793 0.08089581
0.03443174 -0.029388405 0.006424301 0.015012349 0.010709212 -0.031374294 -0.08091326 0.08707166
-0.07672248 0.023334423 0.051347543 -0.0076180683 0.04578958 -0.07283398 -0.092696086 -0.03641631
-0.021905774 0.048498206 0.04859151 -0.0654936 0.04173355 -0.027769154 0.104318656 -0.10760306
0.043426298 -0.044883545 -0.13202158 -0.029248472 -0.06975896 0.00021063769 -0.01209794 -0.07067776
-0.031666197 -0.06567456 -0.035685506 0.04111407 -0.09213677 -0.030388499 0.058429454 -0.06940247
0.0019373354 -0.014199689 0.045210004 0.14777096 0.052657284 0.093946844 -0.045929328 0.06050642
0.1103186 -0.046027515 0.0994973 -0.042381596 0.04877422 0.02491689 -0.050753295 0.013745501
-0.008469908 -0.01696265 -0.019136563 0.0025786532 0.01476896 -0.124381736 0.090545386 0.10680936
0.07409822 -0.012000295 0.023027668 0.043314684 0.016474264 -0.003057163 -0.092053495 -0.017431814
-0.1730023 -0.002187575 0.040144928 0.03199456 0.061704297 -0.077549525 -0.06650999 0.03387165
-0.03494936 0.083739385 0.021652678 -0.09748855 0.027602853 -0.028737267 0.09594024 0.05170234
0.12972185 -0.07793092 -0.14056815 0.13789178 0.023168948 -0.0072280127 -0.080876164 0.021054558
0.042883366 -0.06661217 -0.024204602 0.0050623263 -0.07007325 0.055889204 -0.0012547256 -0.10231285
-0.02283057 -0.0075176945 -0.054271095 0.16290018 -0.021033956 0.15069492 -0.010691378 0.01583911
-0.07242494 0.029330993 0.08875164 -0.011153735 0.053048473 -0.08004236 -0.055037 0.013725647
-0.05466484 -0.07234819 -0.095751226 0.032212008 0.012460123 -0.21850532 0.04289305 0.14720576

feature_encoding.0.weight f4 [64, 1]
00000000: b5b6 72be 2d9b 1fbf cfd9 213f e14d 97be
00000010: de90 59bf 33fb 1dbf fb4f 0abf 4fd3 463f
00000020: b696 813f a03f 7bbf 9905 c3be cea3 86bd
00000030: d619 38bf 9e60 5cbf 7f1f 02bf c9e0 5fbe
00000040: 30eb 9cbc a42a 62bf 1fd5 1cbe e2d3 36bf
00000050: 13ff 1bbf 136d 6d3e 796d 7c3f 0cdd e83e
00000060: b4c4 64bf fe57 6d3f c56d bd3e 7a91 4fbf
00000070: 114d 54be acc8 5dbf dd6a 5e3f 8dd3 44be
00000080: e3e8 133f 6629 443f 8ced 40bf 1a27 b53e
00000090: 5fd0 4a3f 8b9e abbe 2373 53bf 934e 3fbf
000000a0: ff74 b7be c620 15be d454 c73e 35c0 ed3d
000000b0: 894e 063f 6c3c a5be 821c 8d3e 427a f03e
000000c0: c759 743f 0670 12bf d483 113f 623f 0a3f
000000d0: 4b86 573f b49a 4fbf bd48 2bbf 9c0a c1bd
000000e0: 29ff d53e 2f49 5ebf d350 6a3f ec7b 9c3e
000000f0: ea6e ac3e b6e0 60bf cddc 523f 0ae5 e33b
-0.2370251 -0.62346154 0.63222975 -0.29551604 -0.84986675 -0.61711425 -0.5402829 0.7766618
1.0124118 -0.9814396 -0.38090208 -0.06574212 -0.7191442 -0.86084926 -0.5082931 -0.21863092
-0.019155115 -0.88346314 -0.15315674 -0.7141706 -0.6093609 0.2318614 0.9860454 0.45481145
-0.89362645 0.9271239 0.3699781 -0.81081355 -0.20732524 -0.86634326 0.8688181 -0.19221325
0.5777723 0.7662567 -0.7536247 0.35381395 0.792242 -0.33519396 -0.8259756 -0.7472927
-0.35831448 -0.14563283 0.38931906 0.11608926 0.52463585 -0.3227266 0.27560812 0.46968275
0.9544949 -0.57202184 0.5684178 0.54002964 0.8418929 -0.81095433 -0.66907865 -0.09425852
0.41796234 -0.8683042 0.9152958 0.30563295 0.3367837 -0.8784288 0.82368165 0.006954794

feature_encoding.0.bias f4 [64]
00000000: 9651 953e 133c 1bbc 1212 493f b860 dcbe
00000010: e812 093f 58b6 22bf 84f8 083e 37ec 8dbe
00000020: 5a85 14bf c792 c4be 66f4 f2be 6e79 dd3d
00000030: 8821 f2be 4df9 1c3f 2f4b 283f 3b62 60bf
00000040: 160d 44bc 64b2 0fbd 4f6f c8bc 20b4 c7be
00000050: bd02 243f 53bb 0fbe b7ec 183f ee7f 7d3f
00000060: 8cf0 2e3f 8221 413f 36d2 afbe c21f 5e3f
00000070: 834b 3abf ab7d 3fbf e9d0 5a3f 4bf0 25bf
00000080: 5d38 b83c dbe3 37bf a4b1 343f 654b 563f
00000090: 6434 84bf 4b69 43bf cb1b 3dbf 21d2 1fbf
000000a0: 1c9e ddbe c1ee 813d 0828 f53e 0b95 d4be
000000b0: 560c 5d3c 83e8 663f 0670 793f 114c 323f
000000c0: 537c 783f a857 713f 0d94 e7bc 02c8 413f
000000d0: 5349 63bf 4776 cf3e f094 fc3e bda0 7b3f
000000e0: 7e79 8bbf a871 87be 42c4 d63e 932e 183f
000000f0: 202d 243e 8bb8 89be 9f55 89bf 869c 563f
0.29163808 -0.009474772 0.785432 -0.4304254 0.53544474 -0.63559484 0.13376051 -0.2771928
-0.5801598 -0.38393232 -0.47452086 0.108141765 -0.47291207 0.613179 0.6573972 -0.8764989
-0.011966011 -0.035082236 -0.024467139 -0.39004612 0.6406668 -0.14036302 0.597362 0.9902333
0.68335795 0.75441754 -0.34340066 0.8676721 -0.7277147 -0.7480113 0.8547502 -0.6481978
0.022487814 -0.71832055 0.7058356 0.8370879 -1.0328488 -0.7633254 -0.73870534 -0.62430006
-0.4328469 0.06344367 0.47882104 -0.4151996 0.013491711 0.90198535 0.9743656 0.6964732
0.97064704 0.9427438 -0.028268838 0.7569581 -0.8878376 0.40519926 0.4933238 0.9829214
-1.0896451 -0.264539 0.41946608 0.59446067 0.16032839 -0.26898608 -1.0729254 0.83832586

feature_encoding.1.weight f4 [64]
00000000: c72d 7d3f 274b 743f 608f 713f 536e 813f
00000010: 547f 723f f6c5 763f 86f6 7b3f e525 6f3f
00000020: c44e 723f a6f7 793f a423 873f d416 7d3f
00000030: 98ed 7e3f 747a 6f3f 8646 703f c1d3 973f
00000040: 3ec9 883f 52cd 753f 7474 853f e6f2 723f
00000050: 4472 6e3f c3c1 7b3f 06a2 733f c804 733f
00000060: f2aa 683f 6c09 6d3f 7429 773f aa1f 6a3f
00000070: e32f 993f 98f5 7f3f 7bcc 603f 4072 853f
00000080: 5c99 813f e377 7a3f 406b 643f 45ae 753f
00000090: 7042 763f 17bb 823f 409e 813f 8b3e 813f
000000a0: f690 7e3f d218 823f 6535 773f 594f 653f
000000b0: cb9d 773f 33c8 683f 1bc3 763f 4074 6e3f
000000c0: e4fd 653f 1867 633f 9f8d 793f 15b9 743f
000000d0: b54f 793f 659f 743f e098 703f a4ff 713f
000000e0: cff6 823f f60f 713f d3a8 793f 51ef 793f
000000f0: 6b62 7c3f 71f7 713f 728c 733f ee9e 723f
0.98897976 0.95427173 0.943594 1.0111793 0.9472554 0.96395814 0.9842304 0.934172
0.94651437 0.97643507 1.0557752 0.9886296 0.9958129 0.93546224 0.9385761 1.1861497
1.0686414 0.9601642 1.0426164 0.94901884 0.93143106 0.9834253 0.95169103 0.9492917
0.9088584 0.925925 0.9654763 0.91454566 1.1967739 0.9998412 0.8781201 1.0425491
1.0124927 0.9783918 0.8922615 0.9596904 0.96195126 1.0213345 1.0126419 1.0097212
0.9943994 1.0163825 0.9656585 0.895742 0.9672515 0.9093048 0.9639146 0.93146133
0.8984053 0.88829184 0.9748172 0.9559491 0.9738725 0.95555717 0.9398327 0.945307
1.023157 0.9416498 0.9752323 0.9763079 0.98587674 0.9451819 0.9513618 0.9477376

feature_encoding.1.bias f4 [64]
00000000: fa84 b8bb 94ae 36bd 8fcd 6abd cf83 083d
00000010: bc6e 2ebd cbd8 48bd 021c 58bc f999 4abd
00000020: 0f57 90bd 2807 ecbc d634 31bc b77d e23c
00000030: 6b95 0fbc b033 50bd 20a4 5dbd dbd8 d93c
00000040: 66c6 033b bf05 44bd ea70 503c 644b ebbc
00000050: bd1f 45bd e517 7b3c 80a8 8cbd cca6 3fbb
00000060: 43e0 a5bd e38d 95bd e1ef 94bc 5aa2 aebd
00000070: 5956 f53c 6b62 e5bc 5e0e 9dbd d5a8 633d
00000080: 1797 82bb 3a7d 17bd de88 e0bd ff55 c6bc
00000090: b796 37bd 095c 35bc 3f97 b5bc 9783 1cbd
000000a0: c924 a5ba a3cf 4a3c b48d c4bc a17a d5ba
000000b0: c7fa f6bb a8a4 8bbd 7711 4abd 67ff 2dbd
000000c0: dbe3 b7bd 9389 e7bd 4737 c8bc ad93 5ebd
000000d0: ed1c 9fbc 34b1 4abd 45c0 a7bd b9ac d4bc
000000e0: 9735 39bd 9d20 51bd 4b9b 54bc e514 773c
000000f0: 1ea2 8b3b ae43 35bd 1b82 acbc 2f94 18bc
-0.0056310864 -0.044600084 -0.057324942 0.033328827 -0.042586073 -0.049034875 -0.013190271 -0.049463246
-0.07047855 -0.028812006 -0.01081582 0.027647836 -0.008763651 -0.050830543 -0.0541116 0.026592663
0.0020107268 -0.047857042 0.012722233 -0.028722472 -0.04812597 0.015325521 -0.06868076 -0.0029243706
-0.08099415 -0.07302453 -0.01818079 -0.0852706 0.0299484 -0.02800103 -0.07668756 0.055580933
-0.0039852965 -0.03698466 -0.10963605 -0.024210928 -0.044821467 -0.011069306 -0.022166846 -0.03821143
-0.0012599464 0.012378606 -0.02399335 -0.0016287157 -0.007537219 -0.06818515 -0.049333062 -0.0424799
-0.08979007 -0.11305537 -0.02444042 -0.054340053 -0.019422973 -0.0494854 -0.081909694 -0.025961267
-0.045217123 -0.051056493 -0.012976478 0.015080665 0.0042612692 -0.044253998 -0.021058133 -0.0093126735

layers.0.norm1.weight f4 [64]
00000000: 6288 803f ac92 823f c90b 823f 420b 843f
00000010: ced7 803f 3d0d 823f ead2 813f adea 833f
00000020: 0e57 833f 37b4 833f d8da 843f ec49 8c3f
00000030: 6989 823f f95a 813f 7062 813f 6f47 8f3f
00000040: 2063 873f 0bf5 853f 97c5 853f f947 833f
00000050: 3131 823f 90df 843f 4343 813f cb3f 853f
00000060: 2659 7f3f 9d26 813f a4ce 853f beb5 7f3f
00000070: b2fa 863f 564e 8b3f 8e12 823f 4a44 8d3f
00000080: aaf4 803f 40a8 8b3f c247 813f ed1a 833f
00000090: e6bc 813f e730 863f da25 863f 3a9b 843f
000000a0: 6726 853f d921 823f 9cf3 8b3f 1a88 833f
000000b0: 1005 873f ae2c 7f3f 9944 833f b5e8 823f
000000c0: fcb0 823f a029 7f3f 87d7 813f 3223 843f
000000d0: ed81 813f a0cc 853f 5eb6 823f 78e1 813f
000000e0: f0f9 813f b54a 853f 6503 843f 348a 823f
000000f0: 73cd 853f e056 833f 9965 833f 84ec 873f
1.0041621 1.0201011 1.0159847 1.0315936 1.0065858 1.016029 1.0142491 1.0305992
1.0260942 1.0289372 1.0379286 1.0960059 1.0198184 1.0105888 1.0108166 1.1193675
1.0577126 1.0465406 1.0450925 1.0256339 1.0171262 1.0380726 1.0098652 1.0410093
0.99745405 1.0089909 1.0453687 0.9988669 1.0545256 1.0883281 1.0161912 1.1036465
1.0074666 1.0910721 1.0100024 1.0242592 1.0135772 1.0483674 1.0480301 1.0359871
1.0402344 1.016658 1.0933719 1.027591 1.054842 0.9967755 1.0255309 1.0227267
1.0210261 0.9967289 1.0143899 1.0323241 1.0117775 1.0453072 1.0211904 1.0146933
1.01544 1.0413424 1.0313536 1.0198426 1.0453323 1.0260887 1.026538 1.0619054

layers.0.norm1.bias f4 [64]
00000000: 73ab ef3b 0a62 593c cba5 98bc cc40 063c
00000010: aa8d 1abb e643 5b3c 9bf7 dd3c 31f0 a93c
00000020: f7b8 923c 09b8 333c dc98 0a3c 1f7d 0e3d
00000030: d362 363c a660 4fbc d740 9dbc 4e16 0e3c
00000040: 52ca 623c b6ee bd3b c1e3 903c 0019 853c
00000050: 58e0 c1bb a618 b1bb dc3b 633c 122d 90bc
00000060: 1a44 15bc 4e76 e8bb 6d5c 8fbc 76c5 94bc
00000070: 1841 a5bb 1f9a 403b be8a 15bc 2eaf 8bba
00000080: b459 ba3c 106d 803c 2a92 69bc c9e9 19bc
00000090: 4026 243c 6145 783c 2782 7c3c 6132 103c
000000a0: 85f3 483c 49ac 4f3c fce1 f23a eaa5 d4ba
000000b0: 72d0 913c ac9b 10bd 204c 83bc fdb0 f3bb
000000c0: 26f5 f9bb 6fc6 1dbd f526 de3b 8620 b7bb
000000d0: 8fbf aa3c f88c 8a3c 7631 ddbb 5ca1 5e3b
000000e0: 3bea 6c3b e33c 9f3c aa3a 953c ecd2 0e3a
000000f0: c61b 91b9 4c13 a2bc 6fcd c73b 34ce dabb
0.0073141395 0.013268003 -0.018633744 0.00819416 -0.0023582974 0.0133828875 0.027095607 0.020744415
0.017910464 0.01096917 0.008459296 0.034787294 0.01113196 -0.01265732 -0.019195957 0.00867231
0.013842182 0.005796279 0.017686727 0.016247272 -0.0059166364 -0.0054045497 0.013869252 -0.017599616
-0.009110475 -0.007094181 -0.017500127 -0.018160563 -0.00504316 0.0029388738 -0.009127317 -0.0010657066
0.022747852 0.015677005 -0.01425604 -0.009394118 0.010018885 0.01515326 0.01541189 0.008801074
0.012265091 0.012675353 0.0018530483 -0.0016223763 0.01779959 -0.03530471 -0.01602751 -0.00743687
-0.007628101 -0.03851932 0.0067795464 -0.005588594 0.020843295 0.016912922 -0.006750281 0.003397069
0.0036150354 0.019438213 0.01821645 0.00054483 -0.00027677248 -0.019784592 0.0060974876 -0.0066774134

layers.0.attention.in_proj_weight f4 [192, 64]
00000000: 1785 9e3d 7e61 173e 60fe bc3d 6539 09be
00000010: ae03 813d 625f 60bd 94d5 113d 7c59 63bd
00000020: 7997 22be 0c9a afbc c3a0 5f3d 0940 47bd
00000030: 9df4 09be dea1 4d3d e76e 803c 4544 19be
00000040: 815b d7bd 0c83 313e b0d0 c1bd 07f2 afbd
00000050: b378 84bd a8a3 493d f082 d13d 46b2 ae3d
00000060: d54c 583c d51b d4b9 c9d8 14bd 1732 b0bb
00000070: 2592 e4bd cd1c 0ebe a1c8 743d 0c6c 81bc
00000080: 19d0 ae3b 8e17 07be 3c5b 783d 414d 1dbc
00000090: 85f3 cdbb bd48 9bbc 9227 943b 8aff 4cbd
000000a0: 0394 05be 025c fcbd 80f3 8dbd ae2e 623d
000000b0: 7a7b 29bc b3f9 e8bc 3112 4f3e 18a6 043e
000000c0: cea4 22bd 3407 f83d 4924 3bbd bb79 0ebe
000000d0: e8fd c0bc 9ae7 5b3e e277 273e 2bd2 053e
000000e0: 3bfc bcbd 6e31 93bc f01f eebd b5b2 3bbd
000000f0: 26bb 02be b1be bb3d 52b9 15bd 4e2c e9bd
00000100: 07b1 ccbd 48e9 afbd e2c2 39be c29b 01bd
00000110: 7c48 b9bd 7878 2d3e 0878 273e 3802 a3bd
00000120: a1e5 0f3e 9c5d 023e c49b 7c3d 44ef b1bd
00000130: 5d1c ce3d be5b 963d 8a3d 8abd e67d 2e3e
00000140: 3cf8 d23d df5e 283e 7e33 363e f580 403e
00000150: 11ed 9b3b 95e1 83bd ab74 16be 951c 133d
00000160: d758 d83c 33e0 8c3d bac8 f43c 4a14 b73b
00000170: ffcd 203d d303 3e3e 4903 e6bd bda2 e9b9
00000180: c9d8 b73d ddb2 42bc b339 dcbd 93c0 8abe
00000190: e745 8ebc e188 70bc 103a 843e 40fa 873e
000001a0: d6e3 75bd 6b18 343e b4f3 10be 4589 cbbd
000001b0: 7fd6 153e d96f 0b3d eed1 e63c 7f9d e6bd
000001c0: 5c67 02be 0525 59bc ccc9 b0bc bb6e 24bd
000001d0: 7423 f73a a11d 66bd e003 3cbe 8733 37be
000001e0: 855b 69bd 0be9 c5ba 21eb 643d 87e8 12be
000001f0: b2ef e83b 9922 393c 0bb6 e33d 6c52 4dbd
00000200: bc21 32be 27c7 023e fbff 8d3b 49f5 afbd
00000210: 16ae 11be f349 013e e749 8abd 0751 653e
00000220: 1b37 86bd dfa9 643e f1a4 833b dad7 1d3e
00000230: f68b a63d fadc 0bbe 6994 bf3c da9a 673e
00000240: af75 2abc 79af c0bb 6106 253e 202c 333e
00000250: 277e f4bc 2d02 a2bd 054f cc3c 2ace 8abe
00000260: 87bf c33d 06f1 423d 13da af3d 97c6 27be
00000270: 3d5b 9e3d 310d 883e da92 86bd 0ad3 e13d
00000280: baf1 d2bd ec93 f93b e680 d3bd 9c1c 91bd
00000290: 0606 cf3d 98c5 383e 6aaf aa3e 011d 833e
000002a0: e28f b1bc f4f5 773e 2df1 07be 4c77 9ebd
000002b0: 9613 043e f255 81bc 14ed 19be 39c1 d4bd
000002c0: cba1 eb3a ae07 4ebe eef6 8fba 6c0a 3fbe
000002d0: cb09 343d 671e 13be bd3b 743c dce3 c9bd
000002e0: 676d b1bb 85a3 babc 7348 dd3d 13e1 0dbe
000002f0: a34c 85bd b49f 983e 69a4 0e3e e934 b2be
00000300: e52a 18be a28b fdbc d7eb b93d 9321 09bb
00000310: a2cd 14be 3280 623d a031 12bd 48f1 fb3d
00000320: e57d 033c 1218 b33b b3f4 873d f198 d2bd
00000330: 71e0 2a3e 69f7 5fbe e06d b1bd 47a5 94bd
00000340: 7145 9ebd ac0a 20be 39b8 533e c411 25ba
00000350: edfe 3dbe 2da0 ec3d 23ab 343e 4cdb 723c
00000360: 765b fbbd 3066 7dbd b0a3 17bc 9378 a4bd
00000370: 2efa cfbc d972 613d 5550 223e 99cd f83d
00000380: a5a7 b53c f349 18be 2585 bfbd 2ed8 13be
00000390: 820d f43c 6a7b b9bd 317f 783e 461c 033c
000003a0: dd00 393e 3da9 d6bc dfa3 223e 51ab c03d
000003b0: 7674 483e 9a8e d3ba a9fa 1cbe a4ce 0b3e
000003c0: b7ac 71bd 9406 67be 7997 223d 8cc1 9f3d
000003d0: 6834 003d 7c77 08be b0b2 be3c d71e 05be
000003e0: 61b1 74bd e073 713d 6036 323e db81 803d
000003f0: 7a89 df3c 4697 be3d fde4 e7bd 2b5f 21be
0.077402286 0.14783284 0.09228206 -0.134008 0.0629953 -0.054778464 0.035604075 -0.05550526
-0.15878095 -0.02143576 0.054596674 -0.048645053 -0.13472219 0.050203197 0.015677882 -0.14967449
-0.105155 0.17335147 -0.09463632 -0.08591085 -0.06468334 0.04922834 0.102300525 0.08530097
0.013201912 -0.00040456527 -0.036339555 -0.005377065 -0.11160687 -0.13878174 0.059761647 -0.015798591
0.005334866 -0.13192579 0.060633883 -0.009600938 -0.0062851333 -0.018955583 0.0045213187 -0.05004839
-0.13044743 -0.123222366 -0.069312096 0.0552203 -0.0103443805 -0.028439378 0.20221783 0.12953985
-0.03970795 0.12110749 -0.0456889 -0.13913624 -0.023558572 0.21475068 0.16354325 0.13068454
-0.09227797 -0.017967906 -0.11627185 -0.045824725 -0.12766704 0.09167231 -0.03655369 -0.113854036
-0.09994703 -0.08589417 -0.18140748 -0.031642683 -0.090470284 0.16940486 0.16354382 -0.079594076
0.1405244 0.12731022 0.061671987 -0.086882144 0.100640036 0.07341717 -0.06750019 0.17040214
0.10301253 0.1644244 0.1779308 0.18799193 0.004758485 -0.06439511 -0.14692943 0.03591593
0.02640955 0.068787 0.02988087 0.0055871354 0.039258953 0.18556146 -0.11231095 -0.00044562473
0.08976895 -0.011883465 -0.10753193 -0.27100047 -0.017367316 -0.014681072 0.25825548 0.26558113
-0.060031734 0.1758744 -0.14155465 -0.099382915 0.14632605 0.034042213 0.028176274 -0.11260509
-0.12734741 -0.013253455 -0.0215806 -0.040144663 0.001885517 -0.0561806 -0.18360853 -0.1789075
-0.056972045 -0.001509936 0.0558883 -0.14346515 0.007108652 0.011299753 0.11118706 -0.05012743
-0.17395681 0.12771283 0.0043334938 -0.08591706 -0.14226565 0.12625866 -0.06752377 0.2239419
-0.06553479 0.22330426 0.0040174653 0.15414372 0.08132164 -0.13658515 0.023386197 0.22617665
-0.0104040345 -0.005880293 0.16115715 0.17497301 -0.02984531 -0.07910571 0.024940023 -0.27110416
0.09558015 0.04759314 0.08586516 -0.1638435 0.07732246 0.26572564 -0.065709785 0.11026581
-0.10300012 0.0076165106 -0.1032732 -0.07085535 0.10108571 0.18044126 0.33336955 0.25608066
-0.021675054 0.24214917 -0.13275595 -0.07737598 0.12898096 -0.015788052 -0.15031844 -0.10388417
0.0017977295 -0.20120117 -0.0010983625 -0.1865632 0.04395465 -0.14367066 0.014906821 -0.09857914
-0.005414653 -0.02278305 0.10804834 -0.1385539 -0.06508758 0.29809344 0.13929905 -0.34805992
-0.14860113 -0.030950371 0.09078186 -0.0020924553 -0.14531568 0.055298038 -0.035691857 0.1230188
0.008025621 0.005465516 0.066384695 -0.102830775 0.1668718 -0.21871723 -0.08663535 -0.07258087
-0.07728089 -0.15629071 0.20675744 -0.0006296898 -0.18554278 0.115539886 0.17643408 0.014822792
-0.12273304 -0.06186503 -0.009255335 -0.0803081 -0.02538785 0.055041168 0.15850957 0.1214859
0.022174666 -0.1487196 -0.09351567 -0.14437935 0.029791597 -0.090567425 0.2426727 0.008002346
0.18066736 -0.026203746 0.15882824 0.09407676 0.19575676 -0.0016140521 -0.15329994 0.13653046
-0.059002604 -0.22561103 0.039695237 0.07800588 0.03129998 -0.1332683 0.023278564 -0.13000046
-0.059739474 0.058948398 0.17403555 0.06274768 0.027287234 0.09306197 -0.11322973 -0.1575896

layers.0.attention.in_proj_bias f4 [192]
00000000: 4fce 823d 932f 30bc c654 19bd 290d 0ebd
00000010: b051 543d 5681 a0bd e6a2 9abd 3a31 1cbd
00000020: ef02 963a 7571 a3bc 627f de3d 9389 acbc
00000030: 1adf 6dbd 5244 853d d2fa ea3b ad77 b6bc
00000040: 2217 f23b bafb 753b a8f4 413c 589a ae3c
00000050: 62a2 35bd 16b7 bd3a 7bc6 733b a263 1cbd
00000060: 9ff3 6e38 d585 6f3b 47db c33b 9e39 63bc
00000070: b867 323b 4b3d 7fbc dd1b 80bb 78c6 8abc
00000080: d518 08bb c81e fabc 7105 243d 39a4 9b3b
00000090: ec4d 283a 436e 09bd b1ed 13bb ba11 883d
000000a0: 91fa 283c 28ac 763c 7a88 f2bb f746 a7bb
000000b0: 349d 13bc 95e2 6fbb 04fd cb3c 8001 e9bc
000000c0: 8ba8 01bc d117 adbd c16e f9ba 44a2 b43b
000000d0: 22ee 0cbc 8331 0e3d 52cd 783c 60c6 923a
000000e0: 825d 84bc c0b0 51bc 519f 853c 2b1b cdbc
000000f0: 4a1b 91bb 403a 87bb beb3 86bb 5aed 1c3b
00000100: 73a7 0639 5a17 75ba 231d 73ba 3001 4c3a
00000110: 5789 5939 8295 81b9 55ee daba 4885 faba
00000120: f1d6 8d39 4870 d3b9 ed1c 31ba 40bd 963a
00000130: 1451 c738 d145 c0ba 9a78 47ba c535 b13a
00000140: bb0f 3c3a ae9c 52b8 eaf6 2a39 d60b de39
00000150: 3e59 a939 a2d8 58b9 3366 db38 9123 88b9
00000160: 5e3e 06b9 9d13 9338 8bbf 04ba 3fe2 8c39
00000170: f8b8 c7b8 55a7 81b9 ce00 afb8 ded4 eb38
00000180: d760 c0b8 81a0 4bba 47bd ea39 78f8 d0b8
00000190: 1372 a3b8 22f8 a23a 7ff6 ad39 900e 93b9
000001a0: 9a6e b1b8 9845 fe39 917d e7b8 23b9 69b9
000001b0: 0e38 3238 10c2 b9b9 7d2a 46b8 810b 0f39
000001c0: 8f54 0b3b d8b6 963b 9951 3dba 9e2d 9a39
000001d0: da6b 32ba 9f07 4e3a 9216 d2b9 c8ae 523a
000001e0: 9328 1839 34e8 1a3b 00b3 beba 0927 07b8
000001f0: 3017 5f3a 9c6c 4139 9749 c8b9 830c 2c39
00000200: 6aa6 e5ba 01b7 463c 5fb9 3439 b622 043c
00000210: 56fb 703c 3b52 16bc a778 643c e5f7 5c3c
00000220: 5fe5 dc3b 190b c13b b6b5 febb f712 a1bb
00000230: 91d3 81bb dc20 b8bc 2ea9 8c3c 3a0b f3ba
00000240: 633c 46bc 7217 99ba 8d6d 1b3c 12bd 8e3a
00000250: 1ab4 3a3c 5576 4abb cc13 1ebc 7b48 0bbb
00000260: f5fd ebbb 6e0d 4d3b 3407 983a 335d 17bc
00000270: 5f53 20bc 9675 aa3c 9644 68bc 7eb8 733c
00000280: f4af 94bb f30e 79bb 8027 b1bc 922f c9bb
00000290: 340c 9cbb d0d5 913c 6ba0 283c 5523 36bc
000002a0: a194 eabb c175 953c b89d 10bb 3d65 d93a
000002b0: c789 b33c 4859 a6bb c592 983c 6a75 a73a
000002c0: 6ea0 15ba 6ca1 6d3b a3da 3abb bc01 5a3a
000002d0: a4fd 06bc 39cc 81bc 9717 56bc 50ab 45bc
000002e0: 30f5 ba3b 838a 03bb ad0e 4bbc 5094 08bc
000002f0: d248 5f3b b459 47bb 58a1 b13c 60d5 15bc
0.063870065 -0.01075353 -0.037434362 -0.03468052 0.051835716 -0.07837169 -0.07550602 -0.038132884
0.0011444966 -0.019951561 0.1086414 -0.021061694 -0.058074094 0.06507172 0.0071710134 -0.022273863
0.0073880116 0.0037534074 0.011838116 0.021313831 -0.044344313 0.001447412 0.003719716 -0.038180955
5.697051e-05 0.0036548276 0.0059770676 -0.0138687175 0.0027222466 -0.015578578 -0.0039095716 -0.01694034
-0.0020766754 -0.030532256 0.04004425 0.0047498015 0.00064203027 -0.03355242 -0.0022572095 0.06644006
0.010313646 0.015055694 -0.007401523 -0.005104895 -0.009009648 -0.003660356 0.02490092 -0.028443098
-0.007913719 -0.08451808 -0.00190302 0.0055125076 -0.008601697 0.034715187 0.015185671 0.0011198036
-0.01615787 -0.012798488 0.01631132 -0.025037369 -0.004428302 -0.004126817 -0.0041107824 0.0023945183
0.00012841616 -0.0009349488 -0.0009274056 0.00077821594 0.00020745896 -0.0002471619 -0.0016703109 -0.0019113207
0.0002705376 -0.00040328712 -0.00067563244 0.0011500493 9.5041614e-05 -0.0014669244 -0.00076092186 0.0013520053
0.0007173975 -5.021382e-05 0.00016304446 0.00042351958 0.00032300683 -0.00020680067 0.0001046177 -0.0002596644
-0.0001280247 7.0131595e-05 -0.00050639425 0.00026871447 -9.5235126e-05 -0.0002472947 -8.3448e-05 0.00011245323
-9.173311e-05 -0.00077677524 0.0004477298 -9.964494e-05 -7.793694e-05 0.0012433568 0.00033180785 -0.00028048875
-8.460619e-05 0.00048498507 -0.00011038327 -0.0002228958 4.2490712e-05 -0.00035430538 -4.724645e-05 0.00013641828
0.0021260118 0.0045994334 -0.0007221937 0.00029407156 -0.0006806232 0.0007859412 -0.00040071137 0.00080369087
0.00014510965 0.002363694 -0.0014549196 -3.2222863e-05 0.000851023 0.00018446374 -0.000382018 0.00016407859
-0.0017520909 0.0121285925 0.00017235194 0.008064916 0.014708361 -0.009174879 0.013944781 0.013486837
0.0067412104 0.0058912155 -0.0077731265 -0.004915591 -0.0039619883 -0.022476606 0.017170515 -0.0018542774
-0.012099358 -0.0011679961 0.009486568 0.0010890088 0.011395479 -0.0030893285 -0.009648275 -0.0021252919
-0.007201905 0.0031288522 0.0011598826 -0.009238529 -0.009785502 0.020808022 -0.014176508 0.014875529
-0.004537577 -0.0038003295 -0.02162528 -0.006139704 -0.004762197 0.017802149 0.010292153 -0.011116822
-0.007158831 0.018244626 -0.0022066664 0.0016585957 0.021916283 -0.005076561 0.018624673 0.0012776081
-0.0005707805 0.0036259545 -0.0028511665 0.00083162985 -0.008239184 -0.015844451 -0.013067148 -0.01206477
0.005705498 -0.0020071573 -0.012393636 -0.008336142 0.0034070504 -0.0030418457 0.02168338 -0.009145111

layers.0.attention.out_proj.weight f4 [64, 64]
00000000: 195a f13b 1601 0abd 300f 87bd c0b2 ddbd
00000010: bbb5 2abd 2993 2abd bdfd bcbb dcfb a6bc
00000020: 4c0f 893d 39f7 183e 9d0e 193c 5abf 9d3b
00000030: 031c 63bd 6b5d 033d 077e c23d b4e5 78bd
00000040: e2e2 353d 49c1 cb3d 896f 6dbd 41de 653b
00000050: 3863 3abd 9e36 023d eb97 c23d 0af0 663c
00000060: 349f 2dbd 6f67 a63d 79a2 66bd 426e 9bbd
00000070: f93a 043d aa46 f4bd ab48 af3d eac6 e1bd
00000080: 09d2 20bb a4ba 9cbc 0a52 a83d 36ab 893d
00000090: 82dd 11bd a25f c63d 682e a73c 1fd8 08bd
000000a0: 61eb 1d3c 8bd5 2abd e715 993c e75c eabb
000000b0: 11bc 913d 07b4 9abd 7e33 e03c 31c6 7a3d
000000c0: c79f fc3d c070 813c 779e d4bc ae4a aabd
000000d0: d124 a63c 2189 acbd 1a97 02bc 1db2 e6bd
000000e0: 16be abbd 11c8 efbc 2643 aabd da7c 283d
000000f0: 1d8f c4bd ffdb b9bd 6c95 94bd 31f8 ff3c
00000100: cd7c 743a 171a 9fbd 1abb b43d 1a27 673d
00000110: 0e63 8dbd fc9c 88bd b26f 15bd 1117 b2bd
00000120: c1a8 e43c a848 3a3d 29c9 6a3d 2106 c7bd
00000130: d7a7 3a3d 2a4a 033e 31e0 8e3d 5d9d acbc
00000140: 73c4 bc3c 220e a33c a345 4abd 190c 88bc
00000150: b78b 7cbc 6058 22bd 1262 093d 1c51 ecbd
00000160: 2cc1 82bc a325 16be d6de a23d f5b2 d3bd
00000170: 2fde 62bd 715a 9a3d 29ed e63d 4d9a e13a
00000180: 54bc a6bc 647f 4dbd e8aa a63d 0d37 0fbe
00000190: cf5e e2bc 3ee8 10ba 7dd5 48ba 7e4d 03be
000001a0: dd94 663d 45b3 833c 24ea dabd 9efd b33d
000001b0: b612 993d f2c8 82bd a1af c33c 4a77 bf3d
000001c0: c0dd b53d b6a1 933d bc84 f8bb e9e2 4b3d
000001d0: 9537 a0bc 2f99 2a3d bc4e 8ebb 5603 983d
000001e0: 661a 4abd bbe9 9dbc 83ac edbc 7139 743c
000001f0: 35bd 503d c328 c0bc 910d 5bbc 69e0 663c
00000200: 25e5 ac3d f4b5 e33c b9fd 30bd 299b 88bd
00000210: d7db 763d 821a 64bd 506d 52bc 1116 903d
00000220: 375b e5bc f2a6 213d 0447 6c3d a02f d53d
00000230: 9aae d8bd 5229 febd 8b4b a43d 0fdf 49bc
00000240: e9d8 f33d 760d c23d d405 8dbd 93d6 993d
00000250: 0d48 e53c 7775 8b3d c57e 5dbd e565 fdbd
00000260: 8362 0d3d 6e58 18bc c1a1 cebd bb5b 23bd
00000270: 144d da3c f7ee c03d 7450 25b9 d3f6 9f3d
00000280: 5e2a a3bd b920 fbbd c73a 87bd 91b2 ab3d
00000290: 1ea9 ccbc acd8 fd3c b6f2 d5bc 5367 043d
000002a0: 3fdb e9bc d28b 1ebc ce83 9b3c 5fd7 14bd
000002b0: 3e00 8ebd 4003 56bd 99f9 8c3d 41f6 13bd
000002c0: b974 bf3b c79e 90bd 3022 0bbd 5efe ea3c
000002d0: 82f5 dabd d909 c73d b30a 013e eda8 38bc
000002e0: ff99 133e 56c4 56bd 77a7 71bd 530d e9bd
000002f0: c4ba 0a3d ff1a ffbd 8ae1 513c a7d5 33bd
00000300: 99dc ae3d f9fe 4e3d c840 8d3d 5ea1 003d
00000310: d639 0b3e 6032 e03d ff58 24bc 6334 02bc
00000320: 94d0 31bd 762c febd 2c41 6b3d 4e41 64bd
00000330: f726 013d f89c f03c 434b 51bd 214c e8bd
00000340: 4a68 513d d57f ae3d ebfa 403d db0f a33d
00000350: 9e47 283d d0cd 18bd 7c9e d1bd de98 b4bd
00000360: 39c7 b0bd 9a26 20bd 1ed7 e53d d0ec 85bd
00000370: 501a cb3c 1fb4 b5bd 50e4 79bd c8fc d43c
00000380: f1a9 c53d d041 893c b606 cbbd 49eb 8f3d
00000390: 74d0 8abd 2945 943c 74d7 3fbc 4bac 203b
000003a0: fa3d db3d 1e37 0d3d 10e7 e93c 8dd1 e33c
000003b0: 8210 e1bc a7d2 6ebd 70c5 9ebc 987d 47bd
000003c0: f9fb c33d 452b 6cbd fe67 c83d bc66 16be
000003d0: 2187 efbc b032 b53d e413 be3d e15c 10be
000003e0: 827d dabd b4d4 acbd ecad c2bd ea78 003d
000003f0: f9bb 01be 72f8 52bd c575 3dbc a1a9 88bd
0.007365477 -0.033692442 -0.06594694 -0.108251095 -0.041677218 -0.04164425 -0.0057675526 -0.020383768
0.06692371 0.14938058 0.009341863 0.0048140706 -0.055446636 0.032071512 0.09496694 -0.060765937
0.044405825 0.099489756 -0.057967696 0.00350751 -0.04550478 0.03179037 0.09501632 0.014095316
-0.042388156 0.08125197 -0.05630729 -0.075893894 0.032282803 -0.119275406 0.08558782 -0.11024268
-0.0024539253 -0.019131966 0.08218773 0.06722109 -0.035611637 0.09686209 0.02040787 -0.033409234
0.009638638 -0.041707557 0.018687202 -0.007152188 0.07115949 -0.07553869 0.027368303 0.061224166
0.123351626 0.015800834 -0.025954468 -0.08315025 0.020281227 -0.08424593 -0.007970596 -0.11264441
-0.083858654 -0.029270204 -0.08313589 0.041134693 -0.09597609 -0.09075164 -0.072550625 0.031246277
0.0009326458 -0.07768648 0.08824749 0.056433775 -0.06903659 -0.066705674 -0.036483474 -0.08695806
0.0279125 0.045479447 0.057320748 -0.09717966 0.04557022 0.1282126 0.06976355 -0.02107113
0.023042893 0.0199042 -0.049382817 -0.016607331 -0.01541417 -0.039635062 0.033540793 -0.11538908
-0.015961252 -0.14662795 0.07952659 -0.10336868 -0.055387672 0.075367816 0.112757035 0.0017212123
-0.020353474 -0.050170317 0.081380665 -0.13985844 -0.027633099 -0.0005527771 -0.0007661207 -0.1282253
0.05629431 0.016076693 -0.1068919 0.08788608 0.07474272 -0.063859835 0.023887457 0.093489245
0.08880186 0.07208578 -0.0075841825 0.049776945 -0.019557754 0.041649994 -0.004342882 0.07422511
-0.04934158 -0.01927649 -0.029012924 0.014906273 0.050961692 -0.023456937 -0.013369934 0.0140915895
0.08442143 0.027796723 -0.04321072 -0.066702195 0.06026825 -0.055689342 -0.012843445 0.07035459
-0.027997596 0.039465852 0.057684913 0.104094744 -0.105801776 -0.12410225 0.08022221 -0.012321248
0.11906607 0.09475224 -0.06885877 0.0751163 0.027988458 0.06809514 -0.054075975 -0.123729505
0.034517776 -0.009298427 -0.10089446 -0.039882403 0.026648082 0.09420579 -0.00015765597 0.0781075
-0.07967065 -0.12262101 -0.06603008 0.08383668 -0.024982985 0.030987106 -0.02611671 0.0323251
-0.028546927 -0.00967689 0.018983748 -0.036338206 -0.0693364 -0.052249193 0.068835445 -0.036123518
0.005842772 -0.070615344 -0.03396815 0.028685745 -0.10691358 0.09718675 0.12601738 -0.011270744
0.14414214 -0.052433334 -0.058997598 -0.113794945 0.03386952 -0.12456321 0.01281012 -0.043904927
0.085381694 0.05053613 0.06897122 0.03140389 0.13596281 0.10947108 -0.010030984 -0.00794706
-0.043411806 -0.12410824 0.0574352 -0.055726342 0.0315313 0.029371724 -0.051097166 -0.113426454
0.05112485 0.08520476 0.047114294 0.079620086 0.041083924 -0.037305653 -0.102353066 -0.088182196
-0.08631749 -0.039099313 0.11222671 -0.06539309 0.02479282 -0.08872246 -0.06100875 0.025999442
0.096515544 0.016755015 -0.099133894 0.07027299 -0.067780405 0.018099384 -0.011709083 0.0024516757
0.107051805 0.034476392 0.028552562 0.027809883 -0.027473692 -0.058306362 -0.019381255 -0.04870376
0.09569544 -0.057658453 0.0978546 -0.14687628 -0.02923924 0.088475585 0.092811376 -0.1409793
-0.1066847 -0.084390074 -0.09505829 0.031365313 -0.12669362 -0.051506467 -0.011563723 -0.06672979

layers.0.attention.out_proj.bias f4 [64]
00000000: 361a bb3a 9294 3b3b e661 923b 9358 a5bb
00000010: 2617 97bb efbf b53b 93d8 f53a 158c 97bc
00000020: db4b 9639 0b0c 963b 363f 2f3b 6cb4 3abc
00000030: 4178 203a 069c 88bc f5a7 e33b 3563 7f3b
00000040: ec01 f23b 5179 f3bb 6314 1a3c 4c65 933c
00000050: 2523 0bba 46c5 e439 520e 90bc a9af be3a
00000060: f109 66bb 15fd a7bc 39aa ca3b 5516 35bc
00000070: 88d1 97bb 6b3b 9e3b bd6a babb 71fa fdbb
00000080: 6ec2 5cbc ccdd 6abb 9407 87bc b955 073c
00000090: fe78 c93b 1fa2 89bb 780d 743c 086f e5bb
000000a0: 3a5e 1a3c faba 45bc 8523 3b3b f9f5 56ba
000000b0: 283e 3039 f21c f33b fea8 52b9 dc78 6dbc
000000c0: b535 89bb 2f5a 6ebc 8c09 8c38 4fd8 003c
000000d0: f34f 3c3b 71e0 c33a f9e2 aebb 0253 03bb
000000e0: 3cbb ccba 5309 223c e72d 3b3c 77b9 8a3b
000000f0: 14ce 0e3c d110 e43b cf4b 413c ed6e 19bc
0.0014274779 0.002862249 0.004467237 -0.0050459593 -0.004610914 0.005546562 0.0018756561 -0.018499414
0.00028666746 0.0045790724 0.0026740558 -0.011395555 0.0006121435 -0.01667596 0.0069475123 0.0038969044
0.007385483 -0.0074302335 0.009404275 0.017992638 -0.0005307666 0.0004363453 -0.017584953 0.00145482
-0.003510114 -0.020506421 0.006184843 -0.011052688 -0.0046331324 0.0048288605 -0.0056889937 -0.007750802
-0.01347409 -0.0035837768 -0.016483106 0.008260184 0.0061484566 -0.0042002345 0.014895789 -0.0070017613
0.009421879 -0.0120685045 0.0028555107 -0.0008200105 0.00016807823 0.007419222 -0.00020090115 -0.014494147
-0.0041873106 -0.014547869 6.6774985e-05 0.007864072 0.0028734177 0.0014944208 -0.005337116 -0.002003849
-0.0015619765 0.009889918 0.011424518 0.004233535 0.008716125 0.0069600125 0.011797859 -0.009364826

layers.0.norm2.weight f4 [64]
00000000: 9c4c 883f 8e37 7f3f 7e17 7c3f 3506 8b3f
00000010: f2aa 803f f613 833f ead2 823f ddb7 803f
00000020: 92f4 7c3f 0b86 7f3f 0e16 813f 36d7 7a3f
00000030: aa0e 823f 2a7d 7c3f 4209 7d3f 5465 893f
00000040: fe81 853f cdb2 7f3f 3a27 883f d33a 7d3f
00000050: e53d 7c3f 6b31 823f f79b 7c3f 7441 823f
00000060: d2e0 7b3f 8ece 7f3f 5ecc 843f 3167 803f
00000070: d21e 893f a318 823f 26b0 713f d245 873f
00000080: 8283 873f 5b6d 793f aea3 813f e002 813f
00000090: c3a2 803f 0f63 873f cdb6 7e3f 1366 863f
000000a0: 8ccc 873f 457a 833f 676a 833f 7603 803f
000000b0: da97 813f 3299 843f c5e9 813f 56b6 803f
000000c0: 6734 753f 71a7 7f3f 7e04 863f a102 7e3f
000000d0: aced 7f3f afc2 7a3f 2e53 803f 1fcd 803f
000000e0: 7d99 863f 84dd 7f3f 720a 803f 8ce9 833f
000000f0: 62f8 823f 3095 813f cbe9 803f 4ce2 813f
1.0648379 0.99694145 0.98473346 1.0861269 1.0052168 1.0240467 1.0220616 1.0056111
0.98810685 0.9981391 1.0084856 0.97984636 1.0160725 0.98628485 0.9884225 1.0734048
1.0430295 0.99882203 1.0636971 0.98917884 0.98531944 1.0171331 0.98675483 1.0176225
0.98389924 0.9992455 1.0374868 1.0031492 1.0712531 1.0163769 0.94409406 1.0568182
1.0587008 0.9743249 1.0128076 1.0079002 1.0049671 1.0577105 0.9949768 1.04999
1.0609298 1.0271689 1.0266846 1.0001056 1.0124466 1.0359251 1.0149466 1.0055645
0.95783085 0.9986487 1.0470121 0.9922276 0.99972034 0.97953314 1.0025384 1.0062598
1.0515591 0.9994738 1.0003188 1.0305648 1.023205 1.0123653 1.0071348 1.0147185

layers.0.norm2.bias f4 [64]
00000000: 8939 c23c d010 183c c535 60bb 6618 94bc
00000010: 7701 fbbb da46 96bc fc62 a4bb d1cd 1e3d
00000020: d25c f1bc d8af 0f3c e986 923c ea63 233d
00000030: c806 383c 7892 d2bc e61f 17bd df78 07bc
00000040: fab5 943a af4c 133b 8df8 523c b0ea d7bc
00000050: 82b4 123c 91a6 56bc 259c 9d3b 36f9 213c
00000060: 0fb5 c13c cc4a af3c b785 5abc 7ee3 b53b
00000070: 8d38 08bd d1b9 293c 8178 8fbd e7aa f83b
00000080: 3b35 b43b 3232 e6bc fdb7 a43c a243 70bc
00000090: 604c 88bc 2fbb 193b cecc 80bc 66cd 6b3c
000000a0: 7982 b3bb 3165 be3b f003 eabb c4ad 1d3d
000000b0: 6f34 703c f07a 4c3c 844c 59bb 4e5e f2bb
000000c0: c829 3cbd c903 f23b 2827 56b9 11bd 01bc
000000d0: 21ae 773c 31bc 56bd 3aef 19bd 67ef 993c
000000e0: 671f 83bb 2168 64bc 847e b53b 7a1a 653c
000000f0: 91ab 33bd 6d54 3abb e774 a8bc e4ad 953c
0.023709076 0.009281352 -0.0034211737 -0.01807804 -0.0076600867 -0.018344332 -0.0050166827 0.0387705
-0.029463205 0.008769952 0.017886596 0.039890207 0.0112320855 -0.025704607 -0.036895655 -0.008268564
0.0011345737 0.0022476127 0.012876642 -0.026357025 0.008954169 -0.013101236 0.0048098736 0.009886077
0.023645906 0.02139797 -0.013337544 0.005550801 -0.033257056 0.0103592435 -0.07005406 0.0075887325
0.0054995096 -0.028100107 0.020107264 -0.014664562 -0.016637981 0.0023457517 -0.015722658 0.0143922325
-0.0054782 0.005810403 -0.0071415827 0.038495794 0.014660939 0.012480482 -0.003315718 -0.007396496
-0.045938283 0.007385705 -0.00020423217 -0.007918612 0.015117199 -0.052425567 -0.03758166 0.018790914
-0.004001546 -0.013940842 0.0055387635 0.013983363 -0.04386479 -0.002843167 -0.020563556 0.018271394

layers.0.ffn.0.weight f4 [256, 64]
00000000: 4b64 38bc cc7f 2bbd 3ab6 bfbd 4c11 b8bd
00000010: fcf3 023c 0aaa 3bba 3f7e 27bd ebd1 0b3d
00000020: 4d99 52bd f42d 163d f402 113c 6c51 403d
00000030: d850 033d d561 9e3c bc3a 22bc 39c2 f73d
00000040: 54b5 6c3d 9ec8 aebd e4b7 e83c 1bb2 f23d
00000050: f4a5 bc3d 08e1 623d ca45 b43d a327 cabd
00000060: 5309 f3bd 5918 3a3c d756 cdbd 9cf9 f1bd
00000070: 89c4 79bd d9ae 7ebc e77a 28bd e42a ad3d
00000080: f7b9 ff3c 765d 03bd 8cc3 ce3d c514 e13c
00000090: 3156 56bd af9a 2abc 008e 9c3d e1db ccbc
000000a0: efeb c8bd ae14 f1bc 1efb fb3d 76e0 34bd
000000b0: 17d8 4a3d ff40 84bd b04c 73bb 3559 cd3d
000000c0: 5c34 823d 721c 53bd c71f febc 5b6a 56bd
000000d0: c116 7c3c 6e22 aa3d 1f16 8a3b b6c6 c03d
000000e0: f57e 26bd 6693 603d da38 d33d 84b6 b43d
000000f0: a934 a4bd 48b8 6b3d 814f 3abd e3ab b1bd
00000100: ccd9 ea3c d1db e13d 5786 a1bc 19c2 43bc
00000110: 2a5d ddbd 5f84 9fbd 0ea8 153d 48e2 a03c
00000120: 49b7 173d 9e2d 123d d991 fcbc fba2 833d
00000130: 3717 e73d 6046 873c cc7c 4e3d 5714 b6bd
00000140: 2bad fa3c 94c9 9bbb df07 d53d 6873 96bd
00000150: 00ce fbbd 0257 243d 99da d03d a86d cebd
00000160: 5642 a03d da0f 203d e593 b93d 7977 50bd
00000170: b8d7 eb3d 61d4 ed3d 1417 083d abf3 9a3d
00000180: ff78 303d 0a1b c4bd b19c 5c3d 2a09 1a3d
00000190: 0955 553d d204 a83c 2c5d 68bd a236 c23d
000001a0: 4324 cebd b3ad eebd 7aea 26bc 9f46 18bc
000001b0: db68 44bd 4431 183d 60af cb3d 515d a83d
000001c0: 623d 3f3d 3343 b8bc 2d58 e4bc 1d5d d43d
000001d0: 8c7c 193d 0a53 95bc 27f2 9a3d 15cc c23d
000001e0: d833 6c3c e90e 9e3d 8e72 07be 6db6 f9bd
000001f0: f29a a83d 0e9c ac3c a3d5 1bbd e8df d73d
00000200: d097 603d f6b3 86bc 7939 c9bc 6fd2 9bbd
00000210: 51a9 5a3d 44c1 883d 824b b83d 3db1 633d
00000220: ff63 c73d 336b 823d 2260 aa3d 4ba7 1abc
00000230: a8a5 453c f2dd 01be e2b5 603c c002 c93d
00000240: df1a a63d f353 66bd ec59 903c 9e89 af3c
00000250: b13a 3cbd 32a1 23be f623 da3c 846e e33c
00000260: da7c 71ba 02c9 05bd e036 683d 7b55 4cbd
00000270: a3bc e7bd 0f9d ab3d e6c0 e9bb 9468 28bc
00000280: 92e3 a3bd 8a22 323d 62ab 943c 6f31 4b3a
00000290: 869c 8cbd 49cd 81bd 00d2 113b eff8 e53d
000002a0: 6abf 1cbd 09f6 1d3c c5e2 e93c 8fe9 a83d
000002b0: fcde 5bbd 31ec 543d 26be 74bd 9a48 0fbd
000002c0: cd3e 6b3d 9d6e 46bd 3a4e 153d dd19 393c
000002d0: b66d 923d ecaa 893d 48b0 583d 80c4 b33d
000002e0: 508b c7bd 1026 60bd 6215 abbd 9e4d ee3d
000002f0: 4082 793d 71d3 2e3d 35b4 c4bd 42c4 803d
00000300: f0be 85bd 06e9 fe3d 6b25 54bd 25be d4bd
00000310: 2c4d 093e 427f de3b 6d70 b33a 8291 a2bd
00000320: 4c4f babd 92ff 32bd acdd 7d3d 430d 983c
00000330: d34e 0e3d e9b0 b23d 3d94 8f3c 8fff 0d3e
00000340: 5ead 9bbc 4753 aa3c 694b e53d 6412 2d3d
00000350: 0e51 cdbd 2690 9a3d 7325 dc3d c98d 95bd
00000360: 019d a33c d21d 593d 24a5 09bd 9a09 93bd
00000370: d045 c53d a2d2 673c 652a d43d 540a 983d
00000380: 283f da3d d0d1 503d d6f6 cfbd 9586 cf3c
00000390: 486b aebc 7fed 10be 1ab5 6bbb 89f3 e6bd
000003a0: 145a 09bd 6ba8 eabb 7570 0ebe f5a1 413d
000003b0: 1cc5 eabb 6c6b 113d 1e1c cdbd 5383 5a3c
000003c0: ac2f ca3d ea4f 1cbd 7e11 7a3c c6b0 c1bd
000003d0: 8202 2a3d 0ea8 313d 8a22 583d a993 dd3d
000003e0: 84bf dd3d d6b1 26bd 5165 5ebd 5a8f 75bd
000003f0: 6974 abbd 6aac 1dbe 3220 57bd 2f70 ffba
-0.01125438 -0.041869923 -0.09360929 -0.08987674 0.007992741 -0.00071588217 -0.040891882 0.03413574
-0.05141573 0.036664918 0.008850802 0.04695265 0.03205952 0.01933376 -0.009901699 0.12097592
0.057790115 -0.085343584 0.028407998 0.11850377 0.092113405 0.055390388 0.08802374 -0.09870841
-0.11867013 0.011358344 -0.10026329 -0.11815187 -0.060978446 -0.015544617 -0.041132834 0.08455446
0.031216605 -0.032071553 0.10095891 0.027475724 -0.052328292 -0.010412856 0.07644272 -0.02500719
-0.09810626 -0.029428806 0.12303756 -0.044159375 0.049522486 -0.064577095 -0.0037124567 0.100267805
0.06357643 -0.0515408 -0.031021012 -0.052347522 0.015386284 0.08307348 0.004214063 0.09412901
-0.04064842 0.05482807 0.10313578 0.088238746 -0.08017857 0.05754879 -0.045485977 -0.08675363
0.028668307 0.11028255 -0.019717379 -0.011948132 -0.10808785 -0.0778892 0.036537223 0.01963915
0.03704003 0.035688035 -0.030831264 0.064275704 0.11283725 0.01651305 0.050411984 -0.08890598
0.030600151 -0.0047542546 0.10401892 -0.07346231 -0.12295151 0.04012204 0.10197944 -0.10079509
0.078251526 0.039077617 0.09061412 -0.050895188 0.115157545 0.11612774 0.033225134 0.07566007
0.04308414 -0.0957547 0.05386037 0.037606396 0.05208305 0.020510111 -0.05672948 0.09483077
-0.1006551 -0.11654224 -0.0101877395 -0.009294181 -0.04795156 0.03715636 0.099455595 0.08220924
0.0466894 -0.02249298 -0.027874077 0.103693224 0.037472293 -0.018228073 0.07565718 0.09511582
0.014416657 0.07717688 -0.13227293 -0.12192998 0.082326785 0.021070506 -0.038045537 0.105407536
0.05483228 -0.016443234 -0.024563538 -0.076084964 0.05338413 0.066774875 0.08998777 0.05558895
0.097358696 0.06368103 0.08319117 -0.0094393 0.012063421 -0.12682322 0.013715239 0.09814978
0.08110594 -0.056232404 0.017621003 0.021427926 -0.04595441 -0.1597946 0.026628476 0.027762659
-0.0009212025 -0.0326624 0.056692958 -0.049886208 -0.113152765 0.08379566 -0.007133591 -0.01027884
-0.0800239 0.04348997 0.018148128 0.00077512016 -0.06865792 -0.06337983 0.0022250414 0.11229121
-0.038268484 0.009641179 0.028550515 0.08247673 -0.05367945 0.051983062 -0.059751652 -0.034981348
0.05743294 -0.048445333 0.036451556 0.01129767 0.07149832 0.06722054 0.05290249 0.08777714
-0.097433686 -0.0547238 -0.08353688 0.11635898 0.06091523 0.042682115 -0.09604684 0.06287433
-0.06530559 0.124467894 -0.051793497 -0.1038783 0.13408345 0.0067900727 0.0013690122 -0.0793791
-0.09097156 -0.043700762 0.06197898 0.018561011 0.03474314 0.08725149 0.01752674 0.13867019
-0.019003566 0.020791663 0.11196024 0.042253867 -0.100252256 0.075470254 0.1074933 -0.07302434
0.019972326 0.053006954 -0.033604756 -0.07179566 0.09632456 0.01414934 0.103596486 0.07423845
0.10656577 0.050981343 -0.10154502 0.025332728 -0.02129139 -0.14153098 -0.00359661 -0.112769194
-0.03353317 -0.0071611903 -0.13910086 0.047273595 -0.0071646105 0.035502836 -0.100151286 0.013336974
0.09872374 -0.03816215 0.0152629595 -0.09457545 0.041506298 0.04337316 0.052767314 0.108191796
0.10827544 -0.04069694 -0.05429584 -0.059951164 -0.08371813 -0.15397802 -0.05252094 -0.0019488389
