checkpoints_quadruped/model_epoch_10.pth (torch, 424942 bytes, 30 tensors)

pos_embedding f4 [1, 49, 64]
000000 df 30 b6 3d 0f d0 8d bd 5a dd 0b 3d d3 d8 84 3c
       0.0889604 -0.0692445 0.034146644 0.016216671
000010 7c ab 26 3d 57 db 05 bb 82 d7 0e bd 3a d7 67 bd
       0.040690884 -0.0020424926 -0.034873493 -0.05660174
000020 1b 29 4f bd 4d fc 89 bb fe ee 04 bc 75 cf cc 3a
       -0.05057631 -0.004210985 -0.008113621 0.0015625792
000030 1d 38 e6 ba 50 29 2d bd 32 f6 b3 bd 7c 78 04 bd
       -0.001756433 -0.042275727 -0.087871924 -0.032341465
000040 d3 e0 b6 3c 2e ba 95 3b d5 53 8a 3b 86 3b 8a bd
       0.022324001 0.0045693135 0.0042214193 -0.067496344
000050 db e7 64 3d 8f 72 c3 bc 8f cf 01 3e 79 b6 08 3d
       0.055885177 -0.023858337 0.12676834 0.033377144
000060 cd 11 ca 3d a7 bd bf bd f9 97 ae bd fa 77 03 3d
       0.098666765 -0.09362345 -0.0852508 0.03209684
000070 21 8a c2 bb 95 60 fd 3c 06 24 c3 bb 58 55 ce 3d
       -0.0059368764 0.030929843 -0.005955222 0.10074872
000080 c6 35 9b 3c 1e 16 16 bd c1 8a 15 3d a5 82 06 3d
       0.01894654 -0.036642186 0.03650928 0.032839436
000090 1d 24 94 bd b7 b4 4b 3d 9d 36 9e 3c 3b 54 e0 bd
       -0.072334506 0.04973289 0.019313151 -0.10953566
0000a0 2d 82 8d bd 15 fa 33 3d d0 c2 78 bd 4b 65 c6 3d
       -0.06909595 0.04393967 -0.060732663 0.09687289
0000b0 27 77 e9 bc 67 4f 2f 3d f2 f2 a0 3c 74 16 fb 3c
       -0.0284992 0.042800333 0.019647095 0.030650355
0000c0 44 f0 d0 bc 2d 3b 9a bc 86 3e b7 3d e1 56 9d 3c
       -0.025505193 -0.018827045 0.08947472 0.019206466
0000d0 11 22 00 3d e2 25 1d bd 8a e4 97 bd 70 4a c0 3c
       0.03128249 -0.038366206 -0.07416637 0.023472995
0000e0 81 c7 eb bd 77 8c aa bd be 9e 0e 3c de 03 b0 3d
       -0.11512662 -0.08327573 0.008704839 0.085944876
0000f0 46 37 87 bd 18 43 c3 bd 72 ed fc 39 b1 af 9c 3d
       -0.066023394 -0.095342815 0.00048242096 0.07650698
000100 de 22 31 3d f9 14 89 bc d9 14 22 3d 95 69 95 bc
       0.043246143 -0.016733633 0.039570663 -0.018238822
000110 6c bd 16 3b 77 7e c9 bd 8c b2 fc 3c e8 bf 3f 3d
       0.0023001088 -0.098385744 0.030846857 0.046813875
000120 21 64 25 bc 90 f8 96 bc 38 60 8f 3d da 68 07 3d
       -0.010094673 -0.01842907 0.07000774 0.03305898
000130 0a 80 4f bc 47 11 17 bd da 06 2a bd 93 9d 3d bd
       -0.012664804 -0.03688171 -0.04151044 -0.046292853
000140 65 de d7 3c f2 d1 54 3c 6b 19 52 bd 86 31 39 bc
       0.026351163 0.012989508 -0.05129377 -0.011303311
000150 09 bc 2b 3d f4 35 8d bd 31 ea 34 3d 68 af ea bc
       0.04192737 -0.06895056 0.044168655 -0.028648093
000160 7b f6 76 3d e8 94 84 bd 22 0f 25 bd 96 02 c0 bb
       0.060293656 -0.06473714 -0.040297635 -0.0058596833
000170 49 86 69 bd c4 6a 84 3c 94 35 57 bd af 59 8a bc
       -0.05701283 0.016164191 -0.05254133 -0.016888468
000180 e2 34 53 bc 01 b2 be bc a2 0c 04 3c 38 fd 6e bd
       -0.012891026 -0.023278238 0.0080596525 -0.058346957
000190 22 14 91 bd ac e4 95 bc 7c 26 ed 3c 78 11 62 3c
       -0.07083918 -0.018297516 0.028949015 0.01379811
0001a0 71 6e 59 3c 41 76 52 bd 94 9f bd bc a4 0d c3 3d
       0.01327096 -0.051382307 -0.023147382 0.09524086
0001b0 84 41 84 3a 75 67 82 3c db 94 90 bc 4e 63 65 3d
       0.0010090326 0.015918473 -0.017649105 0.056002907
0001c0 02 5c 3e 3d 44 f5 8c b7 3b 8d 1c 3d 0e cd 63 bd
       0.046474464 -1.6803511e-05 0.038220625 -0.055615477
0001d0 ac 89 9f 3b 86 15 4d 3c 9a 89 f6 bc 92 28 13 3d
       0.0048687067 0.012517339 -0.03009491 0.035927363
0001e0 df 79 3e 3d bc 96 8f bd da c7 11 3d 98 d4 f8 3c
       0.046502944 -0.07011172 0.035590984 0.03037481
0001f0 3f 88 58 bc 88 3d a5 bd b6 9c 8f bc a0 ba 4e 3d
       -0.013216077 -0.08068377 -0.01753078 0.05047095
000200 b2 39 ff 3c 47 85 47 bd 80 46 48 3c 33 e5 3f 3c
       0.031155441 -0.048711088 0.01222384 0.01171236
000210 fb 57 ef 3c 68 06 41 bd 1a b4 58 bd f2 d1 c1 3d
       0.029216757 -0.04712525 -0.052906133 0.09463872
000220 37 a3 51 bd 4c 03 86 3b 45 b6 5f 3d 82 ad 3f bc
       -0.051181044 0.0040897485 0.054617185 -0.011699082
000230 b1 8d 8c 3b e3 30 6a bd f1 9c a7 bd 23 28 f3 bc
       0.004289352 -0.05717553 -0.08184231 -0.029682225
000240 8e 4d 94 bc 77 e9 af 3b 45 53 e9 3c f2 6d 48 bd
       -0.018103387 0.0053684074 0.028482089 -0.048932977
000250 f4 10 26 3d ad a4 43 bd 5c 0d f0 3d cc f7 98 bd
       0.04054351 -0.04776447 0.11721298 -0.074691385
000260 2e f7 92 3d 06 bf 41 bc 99 a8 ee bd 49 d9 ca bb
       0.07176052 -0.011825329 -0.11653251 -0.006190453
000270 b3 03 1e bd 00 8e 5e bd d8 1a 15 3c 79 94 43 bc
       -0.038577747 -0.05433464 0.009100638 -0.011937254
000280 02 f8 22 bd 92 8f 75 bd d5 62 67 3c 16 73 b4 bb
       -0.0397873 -0.059951372 0.0141226845 -0.0055068834
000290 d1 f7 0e bd 70 31 b9 bc 8f ea 60 3d 3a 5b 2e 3c
       -0.034904305 -0.022606581 0.054911193 0.010641867
0002a0 b4 e9 36 bc e5 be a0 bc db ab 3f 3c 16 fd 9a 3d
       -0.011164118 -0.019622276 0.011698688 0.075678036
0002b0 52 ab 4a 3d 56 72 9a 3d c2 b2 d8 bc 9f 46 f8 3c
       0.04947979 0.07541339 -0.026452426 0.030307112
0002c0 d5 69 4b 3d 24 1a d6 3c bc 82 9b 3d fe 43 79 bd
       0.049661476 0.026135512 0.07593295 -0.060855858
0002d0 f0 28 3f 3d 11 ab 3e 3d f6 4d 88 bd 23 cd 8d 3d
       0.0466699 0.04654986 -0.06655495 0.06923892
0002e0 a6 4a 11 bd a7 e8 05 bd bf 48 b7 bc a7 a3 18 3c
       -0.03547158 -0.032692578 -0.022373555 0.0093163615
0002f0 fd 3d 3f bc 98 d5 9a bd a6 fb d7 3c 59 98 b2 3d
       -0.011672494 -0.07560271 0.026365113 0.08720464
000300 39 71 6c 3d 23 b3 46 bd d0 21 7f 3c a1 e6 29 3d
       0.057725165 -0.04851068 0.015572026 0.04147971
000310 96 5f 8c 3c 00 cd 90 3b 20 66 a0 bd 37 21 ae 3c
       0.017135423 0.004418969 -0.07831979 0.021256072
000320 7d fd 2b be 97 4b 88 bc 12 a4 f5 3a 14 8c 01 3d
       -0.16795917 -0.016637607 0.0018740913 0.03162773
000330 61 8c d5 3c 20 b4 b4 bd 6c b3 74 bd 47 d2 d9 3c
       0.026067914 -0.088234186 -0.059741423 0.026589526
000340 68 fc 83 bd f8 a8 b4 3d 8a ae 48 bc 60 7e b1 bd
       -0.06444627 0.08821291 -0.012248645 -0.08666682
000350 e6 b6 68 3c 58 c6 b6 bc 7d 3e d2 3d e7 4f 47 3d
       0.014203763 -0.022311375 0.10265825 0.048660185
000360 a4 5b ff 3d fa 92 52 bd 89 a6 05 be 49 cf eb 3d
       0.12468651 -0.0514097 -0.1305181 0.11514146
000370 2f 3d 2d 3d 93 b0 04 bd 4b 15 46 bd ca 87 e3 3b
       0.042294677 -0.032394957 -0.04836015 0.0069436776
000380 71 78 47 3d 39 50 9f bd fb b8 21 3c c6 c3 15 bc
       0.048698846 -0.07778973 0.009870763 -0.009140914
000390 c4 32 20 bd a1 ee 36 3d 0e 09 e7 ba 0c c1 d1 bc
       -0.039110914 0.044661168 -0.00176266 -0.025604747
0003a0 6e e4 35 bd 44 a2 92 bb 77 62 24 bd e0 17 c3 3d
       -0.0444073 -0.00447491 -0.040132966 0.09526038
0003b0 90 e1 8f 39 eb 6d d0 3d 04 10 01 3c 1d 49 41 3d
       0.00027443143 0.10177215 0.007877354 0.047188867
0003c0 5a b2 86 bd e3 0c 52 3d 58 6f b6 3d 57 77 ec bc
       -0.065769866 0.05128182 0.08907956 -0.0288655
0003d0 c2 97 93 3d d0 a7 68 bd f9 c5 98 bd a8 36 15 3d
       0.0720668 -0.056800663 -0.07459635 0.036429077
0003e0 30 2b 69 bd 64 e7 5a bd 9a 48 aa bd fa 78 4f 3d
       -0.056925952 -0.053443328 -0.08314629 0.05065248
0003f0 f9 05 2c 3c 03 ac 3a be ac ad 9e 3c d0 48 27 3e
       0.010499471 -0.1822968 0.019369923 0.1633637

feature_encoding.0.weight f4 [64, 1]
000000 16 32 66 be 4e eb 1f bf 23 22 22 3f 41 d3 9f be
       -0.22480044 -0.6246842 0.6333334 -0.3121586
000010 31 6f 5a bf 5f ce 20 bf 03 70 0a bf 3d 3a 4b 3f
       -0.85325915 -0.628149 -0.54077166 0.7938574
000020 e8 9e 81 3f b7 fa 79 bf 2f 40 c0 be ae dd 87 bd
       1.0126619 -0.97648185 -0.37548968 -0.06634079
000030 fc 83 35 bf c6 05 60 bf 01 20 05 bf 61 c9 52 be
       -0.7090452 -0.8750881 -0.5200196 -0.20584632
000040 c2 27 85 bc 46 76 62 bf 57 61 19 be ad 93 33 bf
       -0.01625431 -0.8846172 -0.14978538 -0.7014721
000050 8e 3a 1e bf ea db 65 3e b9 18 7c 3f ce 43 ea 3e
       -0.618081 0.22447172 0.98475224 0.45754856
000060 35 fd 64 bf a9 c6 6c 3f 08 ea ba 3e 60 ab 51 bf
       -0.89448863 0.9249063 0.36506677 -0.8190212
000070 63 8f 45 be 86 09 5d bf 97 1c 64 3f a1 fc 2d be
       -0.19292979 -0.86342657 0.89106125 -0.16990902
000080 c6 07 0f 3f 37 0b 41 3f be 3a 44 bf 10 be be 3e
       0.55871236 0.7540774 -0.76652133 0.3725438
000090 d1 90 4b 3f bc 96 b2 be af 4d 51 bf a3 11 43 bf
       0.7951785 -0.34880626 -0.8175916 -0.76198786
0000a0 b5 af b9 be 04 22 0b be dd 34 cc 3e cc ba dd 3d
       -0.36266866 -0.13587195 0.3988408 0.10826644
0000b0 6a 64 08 3f 98 ed b0 be 53 73 8d 3e f1 fb fe 3e
       0.5327822 -0.3455627 0.27627048 0.4980159
0000c0 32 b8 7a 3f db 5f 16 bf 89 02 13 3f ac 2e 06 3f
       0.9793731 -0.58740014 0.57425743 0.52414966
0000d0 95 4d 51 3f f2 1d 51 bf 03 c1 2b bf 7c e8 be bd
       0.81759006 -0.8168632 -0.6709139 -0.093216866
0000e0 ac 11 dc 3e c5 32 5e bf b5 07 6a 3f e8 8e a1 3e
       0.42982233 -0.8679622 0.9141801 0.3155434
0000f0 25 f8 ad 3e 6a 54 61 bf fd b7 4d 3f bd 32 f3 3c
       0.33978382 -0.8801943 0.8035887 0.02968728

feature_encoding.0.bias f4 [64]
000000 5d 2d 91 3e 6c 4d 71 bb 4a b3 4c 3f d8 2f d1 be
       0.28354922 -0.0036819829 0.79961073 -0.40856814
000010 86 fe 09 3f ca e2 1d bf 18 f6 c9 3d 0b 16 83 be
       0.53903997 -0.6167418 0.09861392 -0.25602755
000020 9e 36 0c bf 92 e4 c1 be e1 9b ec be 93 8f ae 3d
       -0.5477084 -0.37869698 -0.46212676 0.08523478
000030 db bd f8 be a6 e5 1a 3f c7 c0 25 3f 30 be 5b bf
       -0.48582348 0.60506666 0.6474728 -0.8583708
000040 34 f5 66 bd cf 21 15 bc b0 3f bb bc 2a 21 cd be
       -0.056386188 -0.009102299 -0.022857517 -0.40064365
000050 a2 44 23 3f cd 96 3c be 03 7e 21 3f 74 1f 79 3f
       0.637766 -0.18416901 0.63082904 0.9731362
000060 0d 9c 30 3f 77 5a 43 3f f5 e6 c8 be 18 5d 5d 3f
       0.68988115 0.76309913 -0.39238706 0.86470175
000070 23 14 38 bf 4c 68 3b bf b1 61 57 3f 58 14 2e bf
       -0.71905726 -0.7320602 0.8413344 -0.6799979
000080 85 07 54 3c ff 43 37 bf ee 9c 35 3f b0 fe 52 3f
       0.012941246 -0.7158813 0.7094258 0.8241987
000090 5e 95 80 bf f0 33 3a bf a5 a8 34 bf c7 da 13 bf
       -1.0045583 -0.727355 -0.7056983 -0.577557
0000a0 d0 4d d7 be db 40 13 3d 69 4d ee 3e 23 c7 fe be
       -0.42051554 0.035950523 0.46543434 -0.49761304
0000b0 ff 14 97 3c 1f 9c 68 3f 43 e3 7a 3f b5 76 2e 3f
       0.018442629 0.9086322 0.98003024 0.6814988
0000c0 50 78 78 3f 09 e2 6f 3f 26 29 9d bc 10 0c 48 3f
       0.9705858 0.9370428 -0.01918466 0.78143406
0000d0 42 d0 5f bf b0 7b c8 3e 01 c5 fe 3e ed df 7b 3f
       -0.8742715 0.39156866 0.49759677 0.9838856
0000e0 5a c1 82 bf e7 bc 86 be 32 39 d8 3e 7f df 13 3f
       -1.0215256 -0.26315996 0.42231137 0.577629
0000f0 f3 3c 05 3e 46 6f 8a be 59 77 88 bf 75 0b 55 3f
       0.13011532 -0.2703802 -1.0661422 0.8322061

feature_encoding.1.weight f4 [64]
000000 de c7 7c 3f e9 81 78 3f 6f 0f 7a 3f e6 62 7f 3f
       0.98742473 0.9707323 0.976798 0.9976028
000010 eb 6a 77 3f fc 9e 7a 3f 44 a7 7f 3f 72 72 78 3f
       0.9664752 0.9789884 0.998646 0.9704963
000020 42 b7 7a 3f 58 59 7e 3f 52 a9 82 3f fb 27 7d 3f
       0.9793588 0.9935508 1.0207922 0.9888913
000030 a0 3c 80 3f d3 ba 75 3f ac 43 75 3f 07 ca 8e 3f
       1.0018501 0.95988196 0.95806384 1.1155404
000040 6a 37 84 3f f5 a3 7a 3f 08 7b 83 3f 18 15 78 3f
       1.0329411 0.9790643 1.0271921 0.96907187
000050 ae 71 75 3f da ce 7e 3f 85 06 7d 3f 34 97 79 3f
       0.95876586 0.9953438 0.98838073 0.9749634
000060 24 17 6e 3f 55 1d 79 3f 6f 18 7c 3f a1 28 70 3f
       0.9300406 0.9731038 0.9847478 0.93811995
000070 a9 fa 8b 3f 66 9c 80 3f 00 25 6e 3f 88 62 84 3f
       1.093587 1.0047729 0.9302521 1.0342569
000080 f1 0d 81 3f 82 50 7c 3f 7c 18 70 3f 5c cf 7d 3f
       1.008238 0.98560345 0.9378736 0.9914453
000090 fc 52 7d 3f 5a 25 82 3f a2 d2 7f 3f 51 c7 81 3f
       0.9895475 1.0167649 0.99930775 1.0138952
0000a0 62 bf 7a 3f 42 c2 81 3f 00 59 7c 3f 8e 86 6f 3f
       0.97948277 1.0137408 0.98573303 0.9356469
0000b0 80 0d 7d 3f e9 37 71 3f ea d6 7b 3f 42 5a 78 3f
       0.98848724 0.9422594 0.9837481 0.9701272
0000c0 87 60 71 3f 74 b0 6d 3f 37 29 7e 3f 2d 67 7b 3f
       0.94287914 0.9284737 0.9928164 0.9820431
0000d0 e4 05 7c 3f 07 f8 78 3f f8 22 76 3f 82 39 78 3f
       0.9844649 0.9725346 0.9614711 0.9696275
0000e0 11 f6 80 3f a1 b2 76 3f 13 f6 7c 3f d9 ad 7e 3f
       1.0075094 0.96366316 0.9881298 0.9948402
0000f0 97 7b 7d 3f 77 12 79 3f 48 f7 79 3f e8 b5 79 3f
       0.9901671 0.972938 0.97642946 0.9754319

feature_encoding.1.bias f4 [64]
000000 e2 6e 3c bb 5a f6 c2 bc 90 d2 b4 bc 5d 76 62 3d
       -0.0028752615 -0.02379911 -0.02207306 0.05528866
000010 71 c0 b5 bc 8c a2 c2 bc a9 59 8e bc 25 4b c4 bb
       -0.02218649 -0.023759149 -0.017376738 -0.0059904032
000020 5e 09 cd bc 63 d0 6c bc b6 a9 f4 bb 15 7e 9e bb
       -0.02502888 -0.01445398 -0.00746652 -0.0048368075
000030 d3 7d 5a bc af 23 10 bd fb 7f 2d bd 2c 8e e2 3c
       -0.013335663 -0.03519028 -0.04235838 0.027655683
000040 6f 43 8f 3b a0 61 9f bc 93 1e 6e 3c ce 7e 98 bc
       0.0043720524 -0.01945573 0.014533657 -0.018615153
000050 79 f3 c7 bc 0c e3 d0 3b 1b fe 9c bc 70 2f 14 3c
       -0.024408089 0.0063747223 -0.019164136 0.009044513
000060 9d f9 6b bd f1 0b ae bc 3b 96 7e bc 85 39 85 bd
       -0.057611097 -0.021245928 -0.015538747 -0.065051116
000070 1c 0c ba 3c af 08 40 bc fb 77 34 bd 97 69 39 3d
       0.022710852 -0.01172082 -0.044059735 0.045266714
000080 09 d0 88 ba d6 5e ea bc e9 40 6c bd f7 3b 32 bc
       -0.0010437976 -0.028609674 -0.05767909 -0.010878555
000090 f6 ec c0 bc 9b 8f 44 3c 83 40 9f 39 8e d6 9d bb
       -0.023550492 0.011997129 0.00030374908 -0.0048168367
0000a0 05 07 3d 3c 09 4c f7 3b cc 57 a2 bb 4e ad 0a bc
       0.011537318 0.007546906 -0.004954314 -0.008464171
0000b0 3a 45 83 3c 1f d2 29 bd 3f 1d c5 bc d8 88 bf bc
       0.01602422 -0.041460153 -0.024061797 -0.023380682
0000c0 4d 53 66 bd 44 a6 93 bd c7 b4 6c bb c3 20 d6 bb
       -0.056231786 -0.07209447 -0.0036118494 -0.006534667
0000d0 d2 18 ae bb d1 7b 0c bd 17 97 20 bd eb f2 68 bc
       -0.0053130174 -0.034297768 -0.03920659 -0.014218072
0000e0 18 ba c8 bc d8 0a 02 bd 9e 6a 34 ba d1 83 80 3c
       -0.024502799 -0.031748623 -0.0006882342 0.015687855
0000f0 66 bf 06 bc 7b ed b2 bc 72 94 3a bc a9 6d 58 bc
       -0.008224344 -0.021841755 -0.011387931 -0.013209739

layers.0.norm1.weight f4 [64]
000000 73 c0 80 3f 36 b3 82 3f da 41 82 3f ce 03 84 3f
       1.0058731 1.0210941 1.0176346 1.0313661
000010 dc 01 81 3f d4 38 83 3f fe 12 81 3f 47 4a 82 3f
       1.0078692 1.0251718 1.0083921 1.0178918
000020 df 45 82 3f c8 34 84 3f c7 aa 81 3f 8e 4a 89 3f
       1.0177573 1.0328608 1.0130242 1.0725877
000030 96 45 82 3f 9d e1 81 3f f4 84 80 3f 40 af 88 3f
       1.0177486 1.0146977 1.0040574 1.0678482
000040 62 07 86 3f df 7c 84 3f af fa 84 3f 7a 54 82 3f
       1.0471003 1.0350608 1.0389003 1.018203
000050 e0 c2 81 3f 1b cb 83 3f 8e 5e 82 3f 53 e9 83 3f
       1.0137596 1.0296358 1.0185106 1.030558
000060 03 d8 80 3f 3b 7f 81 3f d8 8e 83 3f a3 d9 7f 3f
       1.0065922 1.0116953 1.0277967 0.9994146
000070 1b 0b 84 3f a1 da 88 3f 8a 24 82 3f 07 d4 88 3f
       1.0315889 1.069172 1.0167401 1.0689706
000080 e3 b9 81 3f 96 6d 87 3f 68 b4 80 3f cf a5 81 3f
       1.0134853 1.0580318 1.0055056 1.0128726
000090 f5 07 81 3f d0 b5 86 3f 72 80 83 3f ee 69 84 3f
       1.0080553 1.0524235 1.0273573 1.0344827
0000a0 4b 6a 82 3f 38 21 81 3f 6a 88 89 3f 56 10 83 3f
       1.0188688 1.0088263 1.0744755 1.023936
0000b0 ef 0b 85 3f d4 78 80 3f e6 65 83 3f 06 eb 81 3f
       1.0394267 1.0036874 1.0265472 1.0149848
0000c0 a5 c6 82 3f 92 08 80 3f 2f 47 82 3f eb 89 84 3f
       1.0216872 1.0002615 1.0177974 1.0354589
0000d0 f7 c5 80 3f a4 21 85 3f f6 e6 81 3f 3b 9d 82 3f
       1.0060414 1.0400891 1.0148609 1.0204233
0000e0 ef af 80 3f e4 a1 83 3f 8b ca 83 3f 29 5b 82 3f
       1.0053691 1.028378 1.0296186 1.018407
0000f0 28 aa 84 3f 3f 30 82 3f 78 23 82 3f a9 d4 85 3f
       1.0364428 1.0170974 1.0167074 1.0455524

layers.0.norm1.bias f4 [64]
000000 43 68 e2 3b d1 35 b2 3a d2 37 26 bb bc e1 71 3b
       0.0069094016 0.0013596361 -0.0025362861 0.003690823
000010 96 47 88 3a b4 d4 6c 3b cb f0 af 3c 91 ad 26 3c
       0.0010397311 0.0036137523 0.021477124 0.010173217
000020 c9 9e 46 3c 10 61 07 3c cf 2b b2 3a 1b b5 a7 3c
       0.012122818 0.008262888 0.0013593378 0.0204721
000030 6a 18 b6 3b d8 c6 d2 bb 2f 45 91 bc 23 93 1c bb
       0.0055571096 -0.0064323954 -0.017733185 -0.0023891411
000040 88 84 26 3c d6 97 3e bb ca 58 0d 3c 14 44 2f 3c
       0.010163434 -0.00290822 0.008627126 0.010697383
000050 36 1f 06 3b 2a 36 53 bb 6c 5c 4e 3c 34 77 fb bb
       0.002046538 -0.003222833 0.012595277 -0.007674122
000060 a7 d4 94 bb 21 41 ad bb bc 65 71 bc 8c ec 06 bc
       -0.0045419517 -0.005287305 -0.014733728 -0.008235108
000070 03 53 8e bb 5a b0 f5 bb 1f 50 5c bb 3b fc ab bc
       -0.004343392 -0.0074978294 -0.0033617092 -0.020994296
000080 4c 7c a1 3b 15 61 f7 39 ab f0 01 bc 70 90 14 bb
       0.0049281474 0.00047183843 -0.007930915 -0.00226691
000090 c3 93 1f 3c 16 d7 9a 3b 14 cd 00 3c 4f 37 52 3b
       0.009739819 0.0047253473 0.007861394 0.0032076424
0000a0 4e 77 18 3c e4 56 53 3b c9 84 dd 39 c9 e9 6f bb
       0.009305788 0.0032247836 0.00042251337 -0.0036607853
0000b0 f5 c9 f8 3b 7b 9f b6 bc 4f 83 84 bb ab dd 0e 3b
       0.0075924345 -0.022292843 -0.0040439735 0.0021799605
0000c0 26 57 00 bb 18 25 bb bc cf 6c 9a 3b 8d 77 13 3c
       -0.0019583195 -0.022844836 0.004712678 0.009000671
0000d0 b5 4f 78 3c a7 04 a8 3b 8a 33 01 bc 41 16 89 3b
       0.015155722 0.0051275077 -0.007885823 0.004183561
0000e0 34 7f a8 ba 00 78 d2 3b d1 1a 84 3c 3a 85 9a bb
       -0.0012855292 0.0064229965 0.016126068 -0.004715589
0000f0 ca 03 d8 bb 8b 49 81 bc 5f 25 c8 3a c1 8f 9e ba
       -0.0065922486 -0.015782138 0.0015269927 -0.0012097285

layers.0.attention.in_proj_weight f4 [192, 64]
000000 55 ec 29 3d 5d 7e 18 3e 98 7c c8 3d 07 b6 10 be
       0.04148515 0.14891954 0.09789389 -0.14131938
000010 c0 2a 52 3d f2 1e 59 bd e1 75 08 3d c6 8d 1c bd
       0.0513103 -0.053008027 0.033315543 -0.038221143
000020 b3 ce 1d be 6a 87 f1 bc 5e a6 4f 3d 9f 4d b8 bc
       -0.1541088 -0.029483516 0.05069577 -0.02249795
000030 b7 97 e7 bd 43 3b 0f 3d 89 5f 06 bc f9 84 e3 bd
       -0.11308234 0.034968626 -0.008201488 -0.11109347
000040 d3 aa a8 bd 11 7d 2f 3e 88 02 a7 bd 0d c5 c2 bd
       -0.08235707 0.17137553 -0.0815478 -0.09510241
000050 fe 2d a6 bd 4c 20 94 3d 49 8c ed 3d 2d 3a a4 3d
       -0.08114241 0.07232723 0.11599023 0.08018909
000060 1f 2c d9 3b 64 16 dc 3b 48 65 f2 bc 31 ec c3 bc
       0.006627574 0.0067165364 -0.02958931 -0.023916336
000070 a7 57 8b bd 6d 0c 23 be b9 73 a2 3d 9d 2f 01 3d
       -0.06803828 -0.15922709 0.079322286 0.03153955
000080 cb 30 48 3c 2c 6d 04 be 55 1b d0 3c a2 21 f0 bc
       0.012218664 -0.12932271 0.025403658 -0.029312912
000090 9e 9c 61 3b 4e ec 49 bc f6 65 3c bc 61 6f 89 bd
       0.0034425627 -0.012324406 -0.011498919 -0.06710697
0000a0 0c e3 1c be 2d 03 8e bd 12 aa 37 bd 58 c1 a2 3d
       -0.15320987 -0.069341995 -0.044839926 0.07947034
0000b0 09 c3 29 3d 28 e9 26 bd c8 7c 25 3e 13 ec f9 3d
       0.041445766 -0.0407497 0.16160882 0.12203231
0000c0 b0 dd 71 bd 14 96 d3 3d 18 39 0d bd e8 1d fd bd
       -0.05904931 0.103313595 -0.034478277 -0.1235922
0000d0 a5 93 a4 3c 54 fa 47 3e 16 32 18 3e cd 4a e9 3d
       0.020089934 0.19529086 0.14862856 0.1139122
0000e0 84 37 97 bd 19 8f 94 bc d3 d0 e5 bd 66 cb b6 bc
       -0.07383636 -0.01813464 -0.11221471 -0.022313785
0000f0 e5 f8 d9 bd dd ce b7 3d 84 11 28 bc f3 70 bb bd
       -0.10643176 0.08975003 -0.010258082 -0.09152403
000100 75 61 04 be 5a 7e 75 bd cb 60 20 be 6c 52 7d bc
       -0.12927802 -0.05993495 -0.15661924 -0.015461545
000110 d3 ea d5 bd 51 58 1a 3e d1 ab 26 3e 2a b9 b4 bd
       -0.1044518 0.15072753 0.1627648 -0.0882438
000120 7e 3c 13 3e a4 0a ad 3d 1b f3 49 3d 3a c3 bd bd
       0.14378545 0.08449295 0.04930411 -0.09265752
000130 2e b1 9a 3d 9a 6b 81 3d bf 36 68 bd bc 08 1d 3e
       0.075533256 0.063193515 -0.056692835 0.15335363
000140 61 ff 00 3e c3 b3 1b 3e 05 f2 24 3e a7 e2 f4 3d
       0.1259742 0.15205292 0.16107948 0.11957293
000150 9d 05 b1 bb df c8 47 bd ee 31 08 be 15 f5 98 3d
       -0.0054022805 -0.04877555 -0.13300297 0.07468621
000160 0a 80 59 3c a3 04 8e 3d 8a e9 cc 3d e2 58 08 bc
       0.013275156 0.06934478 0.100054815 -0.008321973
000170 16 82 cb 3c da d8 eb 3d fd b2 f2 bd 61 2b 9c 3c
       0.024842303 0.115159705 -0.118505456 0.019063653
000180 04 1d e8 3d 06 3c 86 bb a7 cc c8 bd 63 75 56 be
       0.11333659 -0.004096511 -0.09804659 -0.20943217
000190 08 71 10 bd 3a 2b 59 bc 05 58 2b 3e b1 65 2a 3e
       -0.035264045 -0.013254935 0.16732796 0.16640355
0001a0 a4 26 3a bd 3b 9d 28 3e de 6c 12 be e7 0c 7a bd
       -0.045447007 0.16466229 -0.14299342 -0.06104746
0001b0 55 03 30 3e c9 2b 21 3d 2d 28 9e 3d 01 71 d8 bd
       0.17188771 0.039348397 0.07722507 -0.10568429
0001c0 c7 f2 bc bd 4a fe 2d bc 27 51 84 bc 2b d9 03 bd
       -0.092259936 -0.010619709 -0.016151978 -0.03218953
0001d0 c1 16 99 3c 4b c3 a4 bd 1f c9 2a be e9 0d 37 be
       0.018687608 -0.08045062 -0.16678284 -0.178764
0001e0 bb 61 e9 3a b5 51 d3 bc 7a bf 91 3d 93 de 14 be
       0.0017805615 -0.025795797 0.071165994 -0.1453803
0001f0 63 5f 26 3d 14 ea 67 bd 14 77 25 3e f9 70 81 bc
       0.04061831 -0.05661972 0.16158706 -0.01580094
000200 f8 4b 0b be 08 ba 14 3e b5 cb 29 3c ec b8 60 bd
       -0.13603199 0.1452409 0.010363509 -0.054863855
000210 73 da 1f be 38 80 d5 3d 17 46 a5 bd fa 70 43 3e
       -0.15610676 0.104248464 -0.08070009 0.19086066
000220 3f 99 4d bd fd b5 28 3e dd d5 af bc 41 15 14 3e
       -0.050194975 0.16475673 -0.021464283 0.14461233
000230 f5 a0 1f 3d 9d ad 13 be 53 0d 82 3d 2c 04 4f 3e
       0.03897186 -0.14421697 0.06350198 0.20216435
000240 e8 df 4c 3c c1 48 28 bd 48 7e 15 3e 19 c4 08 3e
       0.012504555 -0.04108501 0.14598954 0.13356055
000250 76 9b 05 bd e9 f6 2f bd d5 8a 14 bc 61 f0 7b be
       -0.032618962 -0.04296008 -0.009066303 -0.24603416
000260 ff d0 ac 3d 2b c4 ef 3c 7a 4f 1a 3e 94 74 33 be
       0.084383 0.029268345 0.1506938 -0.1752494
000270 0f f4 63 3d e4 25 42 3e a2 02 a0 bd cd f3 12 3e
       0.055652674 0.18959767 -0.07813002 0.14350815
000280 49 df d1 bd 4d e5 98 3c 4a 95 8d bd 1d d0 a2 bc
       -0.102476664 0.018664027 -0.0691324 -0.019874627
000290 ea 25 cf 3d 4c b9 2f 3e ce b1 80 3e 9c 8c 1b 3e
       0.101146534 0.17160529 0.25135654 0.15190357
0002a0 b6 2b 74 bc 56 37 50 3e e4 17 07 be d4 f3 2f bd
       -0.014903 0.20333609 -0.13192707 -0.042957142
0002b0 02 83 25 3e 14 97 32 3c fa 88 d1 bd 90 ef cd bd
       0.16163257 0.010900278 -0.10231204 -0.100554585
0002c0 5f 47 29 3d de c3 3a be c4 c7 38 3c eb 48 3e be
       0.04132783 -0.1823878 0.011278097 -0.18582503
0002d0 ec 5c d2 3d e9 bd 1e be 75 5d 74 3d 2c 7f 9b bd
       0.1027163 -0.15502132 0.05965944 -0.075926155
0002e0 8d 68 9f 3d ef c0 78 bd dd 65 c7 3d 30 16 0f be
       0.07783613 -0.06073087 0.09736226 -0.13973308
0002f0 e4 2f 06 bd c7 00 69 3e 58 cc 43 3e 1d ec 98 be
       -0.032760516 0.22754203 0.1912092 -0.2986764
000300 b6 03 19 be ed 01 32 bc 27 2a bc 3d 84 db cc bc
       -0.14942822 -0.010864717 0.091877274 -0.025007017
000310 ec 29 fd bd 3a 6a 7d bb 74 5e 1c bc 14 89 ef 3d
       -0.123615116 -0.0038668052 -0.009544004 0.116960675
000320 6a c2 b8 3c 35 9c 54 bc 05 38 02 3d 80 6a f6 bd
       0.022553641 -0.012976696 0.031791706 -0.12032032
000330 0c 10 05 3e 2c b4 42 be 03 ab 09 bd 8b d7 f4 bd
       0.12994403 -0.19014043 -0.033610355 -0.11955174
000340 a1 13 9e bd 18 42 1e be 67 33 32 3e 64 7a 53 bd
       -0.07718588 -0.154549 0.17402421 -0.051630393
000350 66 90 21 be 17 5e c5 3d 71 31 21 3e cf d7 4c 3c
       -0.1577774 0.09637087 0.15741517 0.012502625
000360 f5 32 c1 bd 11 af b4 bd cb 70 f2 3c 74 4c 73 bd
       -0.094335474 -0.08822454 0.0295948 -0.059399083
000370 1e 49 91 bd 68 77 cf bc 4b 19 07 3e ea 46 d7 3d
       -0.07094024 -0.025325492 0.13193242 0.10511573
000380 fe b6 5e bc 81 0d 07 be 4a cb 49 bd 30 72 0d be
       -0.013593433 -0.13188745 -0.049266137 -0.1381309
000390 c8 a3 c1 3b 86 30 fc bd cd 58 2f 3e 29 c5 5a bd
       0.005909417 -0.123139426 0.17123719 -0.053410683
0003a0 79 3d 20 3e 85 a4 a2 bd 7e fd fb 3d b6 1f fa 3d
       0.1564845 -0.07941536 0.12304209 0.1221308
0003b0 52 95 43 3e 08 ec e6 3c b4 1c 06 be 7c f5 07 3e
       0.1909993 0.02818872 -0.13096887 0.13277239
0003c0 84 cc 66 bd 96 6a 41 be 24 dd 48 3c 03 15 81 3d
       -0.056347385 -0.18888316 0.012259755 0.06302836
0003d0 1e fe 4d 3d 8c 89 f6 bd 2b 2f 9a 3d 83 69 c7 bd
       0.050291173 -0.12037954 0.07528528 -0.09736922
0003e0 31 be 2c bc ae 8d 19 3d 2c 68 0e 3e 10 6b 29 3d
       -0.010543392 0.037488632 0.13906926 0.04136187
0003f0 96 96 1b 3a 75 67 6b 3d f9 95 b5 bd 48 e7 ec bd
       0.000593522 0.05747171 -0.08866496 -0.11567551

layers.0.attention.in_proj_bias f4 [192]
000000 03 6f 3c 3d c5 ba 8b bc a7 ab 65 bd c3 7b cd bc
       0.046004307 -0.017056832 -0.056071904 -0.025083428
000010 4e d4 3d 3d d0 6a 97 bd a3 7b 79 bd 3b f9 f5 3a
       0.046345048 -0.0739342 -0.060908925 0.0018766293
000020 2b f4 7a bc 43 a8 1e bc bf b6 05 3e c4 91 09 bd
       -0.015317003 -0.009683671 0.13057993 -0.03358628
000030 24 36 18 bd 65 69 5d 3d 3e 6b 8e 3c f3 0f 07 bd
       -0.037161008 0.05405559 0.017385121 -0.032974195
000040 1e 56 07 3c e0 34 ab bb b1 b7 97 3b ac 25 a0 3b
       0.008260278 -0.005224809 0.004630052 0.0048873033
000050 93 e6 b6 bc a6 8e 56 bb 29 79 70 3b d1 6e ad bc
       -0.022326743 -0.0032738834 0.003669331 -0.021171005
000060 69 0a d0 ba b4 18 a2 3b 6f e6 6a 3a 11 47 e9 bb
       -0.0015872243 0.0049467925 0.0008960729 -0.0071190675
000070 85 1b 34 ba 13 bd 25 bd 26 3a 82 b9 4c 99 1f 3a
       -0.0006870556 -0.04046352 -0.00024838856 0.00060882117
000080 53 6a b9 bb 43 4a 2a 3b 90 b4 0b 3d 14 4c 6a 3b
       -0.005658427 0.0025984205 0.034107745 0.0035750913
000090 b0 ea af ba 08 d3 32 bd 56 e9 51 3c 7a 9e 6c 3b
       -0.0013421383 -0.043658286 0.012811979 0.0036105202
0000a0 30 2b 93 3b 7e 9e f4 ba 93 ff c4 b9 52 55 1d bc
       0.0044912323 -0.0018662957 -0.0003757445 -0.0096028615
0000b0 c4 5b 35 3b 08 a5 f5 39 65 23 28 bc cd 1e 3a bc
       0.0027673105 0.00046853 -0.010262345 -0.011359883
0000c0 90 13 14 bc 69 e2 0d be 46 87 bf 3b e0 7c ec bb
       -0.009037867 -0.138559 0.0058449833 -0.0072170347
0000d0 87 b1 1f bc 99 02 99 bc 7d 74 1d 3d cb dd 26 bc
       -0.009746916 -0.018677996 0.03844117 -0.0101847155
0000e0 df 0b e1 bc a1 04 1a bd c2 12 d5 3c 5c a0 d0 bc
       -0.02747148 -0.03760207 0.026009921 -0.02546709
0000f0 99 05 8d bc ec 20 7d 3c 42 20 a8 bb d1 c9 e9 bb
       -0.017214583 0.015449744 -0.0051307986 -0.007134654
000100 4e ab 98 ba e0 1a 14 ba a3 9a 25 3a 60 12 8a 37
       -0.0011647732 -0.00056497566 0.0006317293 1.6459438e-05
000110 c5 3c 04 b9 4c 10 9e 3a c3 07 ac b9 34 03 15 ba
       -0.0001261114 0.00120593 -0.0003281218 -0.0005684376
000120 f4 19 cb 39 22 2e 81 b8 ac ee 69 bb 4d 8d 09 3b
       0.00038738514 -6.159792e-05 -0.0035695238 0.0020988763
000130 6e 70 b7 b8 86 4b 49 ba ab bf b2 ba 0b 6c f2 3a
       -8.747062e-05 -0.00076787954 -0.0013637444 0.0018495334
000140 19 42 0e 39 c3 ee f3 b8 03 54 3f 39 48 9c 49 39
       0.00013566799 -0.00011631616 0.00018246476 0.00019227073
000150 66 21 04 39 e0 ac 0d b9 37 7b cc 39 8d 54 07 39
       0.00012600943 -0.00013511209 0.00039001714 0.00012906101
000160 3c 1f d9 b8 d6 fb cb 38 95 45 3f b9 e4 e4 58 39
       -0.00010353184 9.7267024e-05 -0.00018241101 0.00020684634
000170 3b a6 c5 38 f4 32 f2 b9 8b 69 05 b9 71 6c 93 38
       9.424655e-05 -0.000461958 -0.00012723186 7.029705e-05
000180 49 0d 36 38 96 3f 6b 39 29 10 5a 39 49 e0 50 38
       4.3404554e-05 0.00022435034 0.0002079612 4.9799946e-05
000190 5b d7 34 36 df 9f 02 39 25 62 e0 39 0a f0 d2 b9
       2.6947444e-06 0.00012457323 0.00042797733 -0.00040233164
0001a0 e4 24 d6 b9 36 b3 17 b9 2f 90 61 38 c6 7b 09 b9
       -0.00040844746 -0.00014467243 5.377846e-05 -0.00013111447
0001b0 f7 09 6f 38 0d f1 ab b9 95 1f 0c 39 c2 1b 3f b9
       5.699132e-05 -0.00032795258 0.00013363206 -0.0001822552
0001c0 e3 f7 95 3a ba 0d 13 3b d0 6e 9a b9 e9 cc e6 37
       0.0011441674 0.0022438602 -0.0002945573 2.7513555e-05
0001d0 c7 4b 39 b9 22 ec eb b8 37 61 ba b9 7f 8c 1a 3a
       -0.00017671204 -0.000112496564 -0.00035549115 0.00058955693
0001e0 c6 8e 73 3a d5 60 05 3b d1 d6 06 ba 50 bc a4 b8
       0.0009290989 0.0020351906 -0.00051437045 -7.855205e-05
0001f0 53 68 cd 38 66 33 22 ba 8f 33 d8 b9 e5 7b 69 b9
       9.794594e-05 -0.00061874685 -0.00041237145 -0.00022266766
000200 33 67 ee ba 36 e9 f2 3b e2 fc 66 3b 8e ba c3 3b
       -0.0018188715 0.007413055 0.0035245945 0.005973167
000210 86 49 74 3c 5d 4b e7 bb f2 a6 0e 3c df 34 1e 3c
       0.0149101075 -0.0070585446 0.008706795 0.00965616
000220 77 45 e9 3b 70 5a 26 3c 5a 6a d3 bb 13 8f 64 bb
       0.0071188766 0.010153398 -0.006451887 -0.0034875318
000230 0f 6e 33 3b d1 0e 86 bc 12 cb 29 3c 2c 26 09 bb
       0.0027378832 -0.016364487 0.010363357 -0.0020927293
000240 fe cb d5 bb 8f 62 75 ba 7f 09 73 3a 8d f2 ee 3b
       -0.006524562 -0.00093606947 0.00092711294 0.007292098
000250 b7 99 2d 3b b1 a4 e7 3a f6 4b 10 bc 88 05 b9 3a
       0.0026489326 0.0017672983 -0.008807173 0.0014116028
000260 59 72 87 ba c3 4d 34 3b 2a 80 e0 b8 5d 1b 91 bb
       -0.0010333761 0.002751217 -0.00010705025 -0.004428311
000270 02 f2 72 bc 9c 11 a9 3c 93 6b 99 bb 30 c3 6a 3b
       -0.014828207 0.02063828 -0.0046820133 0.0035821907
000280 75 99 36 bb 04 d4 b2 b9 ae 55 86 bc 0d 68 df bb
       -0.0027862464 -0.0003410877 -0.016398277 -0.0068178237
000290 91 e7 2c bb 90 67 53 3c 58 ef 91 3b 9d 4a db bb
       -0.0026383142 0.012903109 0.004453581 -0.006692244
0002a0 dc f9 bd ba 44 ef 65 3c 67 f8 a9 bb 58 89 b9 ba
       -0.001449402 0.014034096 -0.0051870826 -0.0014155312
0002b0 d0 3e 3c 3c 5a 47 c8 bb b6 04 21 3c 24 b2 04 bb
       0.011489585 -0.0061120214 0.009827783 -0.0020247782
0002c0 8c 78 1f bb 31 81 21 39 02 75 32 39 df a7 4b 3a
       -0.0024333326 0.00015402284 0.00017018992 0.000776885
0002d0 36 f7 f3 bb 8f d4 61 bc ee 40 0d bc 08 45 06 bc
       -0.0074452413 -0.013783588 -0.0086214375 -0.008195169
0002e0 01 f1 de 3a d7 e7 70 bb c9 a3 cc bb 89 6c ec bb
       0.0017009081 -0.003675928 -0.0062451106 -0.007215087
0002f0 50 90 89 3a 4c a5 18 39 c2 36 a3 3c eb df c9 bb
       0.0010495279 0.00014557427 0.019923571 -0.0061607263

layers.0.attention.out_proj.weight f4 [64, 64]
000000 71 a0 e9 3c 73 98 16 bd 4c 97 8c bd d0 fc fa bd
       0.028518887 -0.03676648 -0.06864795 -0.122552514
000010 d3 9f 6b bd b9 a6 86 bd 08 81 a7 bc 49 c6 11 bd
       -0.057525467 -0.065747686 -0.02044727 -0.03558949
000020 b3 e0 95 3d 2f 5e 16 3e 00 81 d5 3c f0 d2 27 3b
       0.073182486 0.14684366 0.026062489 0.0025607906
000030 ae 21 9f bd b4 83 d6 3c 6b 5c a8 3d 0a 8f a0 bd
       -0.07770096 0.026185848 0.08220752 -0.078397825
000040 63 d4 48 3d e5 e8 e1 3d 73 e6 70 bd 89 97 9c 3c
       0.049030673 0.11030749 -0.058813524 0.019115226
000050 e3 46 64 bd 8c 26 ad 3c ba cd c9 3d 4b 6c 0a 3d
       -0.055731665 0.021136545 0.09853692 0.033794682
000060 f7 1c 27 bd 37 f4 5c 3d 3f 4e f3 bc d8 e7 2e bd
       -0.040799107 0.05394384 -0.029700397 -0.042701572
000070 13 82 7f 3d 10 d3 f1 bd c0 f7 b6 3d bf 45 f5 bd
       0.062379908 -0.11807835 0.08933973 -0.11976194
000080 b5 66 98 bc b3 17 b6 bc 11 b4 ac 3d 3f 0c 6e 3d
       -0.018603662 -0.022228098 0.084327824 0.058117148
000090 ad 7c 0e bd 06 e7 db 3d 46 ed c4 3c c6 45 e5 bc
       -0.03478687 0.107374236 0.024038922 -0.027987372
0000a0 74 08 e3 3b 77 23 75 bd fe dd 07 bb 4a c6 ef 3a
       0.006928498 -0.059848275 -0.0020731683 0.0018293348
0000b0 d8 2d 9a 3d e1 6a b6 bd 55 26 eb 3c 60 3a 88 3d
       0.07528275 -0.08907104 0.028704802 0.06651759
0000c0 61 d8 0a 3e da 50 23 3c 5a b8 2f bd d5 e3 98 bd
       0.13559105 0.009968007 -0.04290042 -0.074653305
0000d0 7c 0a 83 3c 10 17 ad bd c8 02 66 bb 79 66 f4 bd
       0.01599621 -0.084516644 -0.0035096873 -0.119336076
0000e0 58 21 b4 bd bd db f1 bc fd 01 ad bd 01 8e 08 3d
       -0.08795422 -0.029523725 -0.08447645 0.03333855
0000f0 03 64 96 bd 1d 62 bd bd ea 4b ad bd d6 16 3b 3d
       -0.073432945 -0.09247229 -0.08461745 0.045676075
000100 58 01 69 3c 78 4a 88 bd 9e d8 97 3d 61 b4 33 3d
       0.014221512 -0.06654829 0.07414363 0.043873195
000110 f5 a1 ab bd 36 3f a4 bd f5 ad 23 bd 09 3e b7 bd
       -0.083805 -0.08019869 -0.03996082 -0.08947379
000120 fb d8 30 3d f1 14 3a 3d 37 90 93 3d 6b 96 d5 bd
       0.04317568 0.045430128 0.07205241 -0.104290806
000130 c1 77 be 3c 4c cb e1 3d 08 08 8d 3d ab 07 08 bd
       0.023250462 0.11025104 0.068862975 -0.033210438
000140 bd 14 be 3c 3a 32 d4 3c 7d 82 21 bd e1 e3 c8 bc
       0.023203248 0.025902856 -0.039431084 -0.024522724
000150 6b 59 1a bc c1 33 38 bd d6 9d 8c bc e3 15 c8 bd
       -0.009420733 -0.04497123 -0.017165106 -0.097697996
000160 66 78 d6 bc 2c 7c 12 be fd 44 99 3d fc c4 c9 bd
       -0.026180457 -0.1430518 0.074838616 -0.09852025
000170 59 dd 27 bd c6 f9 8b 3d 5d c4 d0 3d e6 91 09 3b
       -0.040982578 0.0683475 0.10193703 0.0020991503
000180 8e f1 0d bd 34 95 72 bd 9e 1b b7 3d a9 7e dd bd
       -0.034654193 -0.059224322 0.089408144 -0.10815174
000190 41 29 03 bd e4 b2 36 bd 4a a0 d0 bb 84 58 f8 bd
       -0.032021765 -0.044604197 -0.006366764 -0.12126258
0001a0 9b 64 bd 3d 84 79 37 3c c4 bb eb bd 23 47 da 3d
       0.092477046 0.011198405 -0.11510423 0.106580995
0001b0 bb f6 af 3d d7 ad ac bd f2 5c d5 3c 82 36 e7 3d
       0.08591982 -0.08431595 0.026045296 0.112896934
0001c0 4b 07 ab 3d e9 00 85 3d 3d 68 8c bc 24 49 ab 3d
       0.083510004 0.06494314 -0.017139548 0.0836356
0001d0 46 70 1a 3c 24 2c 22 3d e8 16 01 bc 93 a4 97 3d
       0.009426182 0.039592877 -0.007878996 0.07404437
0001e0 47 ec 30 bd e1 f7 e4 bc 21 76 2e bd f9 c6 ff 3a
       -0.04319408 -0.02795023 -0.042593125 0.0019514255
0001f0 7c 41 c6 3d 6a ef f7 bc 3d 1d 84 bc 0e b3 51 3c
       0.09680459 -0.030265529 -0.016127223 0.012799038
000200 1a 60 c4 3d c8 cc e1 3c ce ba 69 bd 30 27 90 bd
       0.095886424 0.027563468 -0.057062916 -0.070387244
000210 fe 99 82 3d a6 f0 59 bd c0 fc f5 bc d5 7e 7a 3d
       0.06377028 -0.053208016 -0.030027747 0.061156113
000220 91 57 2e bd ea fe 32 3d 52 14 7a 3d 4a e1 11 3e
       -0.04256398 0.043700136 0.061054535 0.14246097
000230 97 89 e7 bd f1 b9 ef bd 17 9b 91 3d 7f 4d 6b 3b
       -0.1130554 -0.117053874 0.07109659 0.0035904346
000240 25 5e ef 3d c2 22 af 3d 41 5a 85 bd 43 e9 ab 3d
       0.116878785 0.085515514 -0.06511355 0.083941005
000250 ee 43 14 3d 89 df 8f 3d 03 26 9f bd a7 f3 04 be
       0.036197595 0.07025058 -0.07770922 -0.12983571
000260 52 2a 15 3d c3 7c be bb 6c 13 c5 bd 7b 41 5c bc
       0.036417313 -0.0058132126 -0.09622845 -0.013443346
000270 43 85 01 3d e5 11 d7 3d 19 f3 08 b9 5a 65 aa 3d
       0.03162123 0.1050146 -0.00013060532 0.083201125
000280 1b 96 8c bd 8d 3a fc bd 32 2a aa bd b1 52 88 3d
       -0.06864568 -0.12315855 -0.08308829 0.06656397
000290 64 b5 11 bd da 6b 86 3c 9b f7 c1 bc b2 bf ac 3c
       -0.03557338 0.01640885 -0.023677638 0.021087501
0002a0 22 e9 1a bd 27 bd 3c bc 60 45 7d 3b ad 23 2d bd
       -0.03781999 -0.011519707 0.0038646087 -0.04227035
0002b0 6f 2a 8f bd 7a 4f 53 bd e5 a7 9a 3d 96 5c 3d bd
       -0.069905154 -0.051589467 0.075515546 -0.046230875
0002c0 63 57 a2 bc a9 3a 77 bd aa 4b b3 bd cb 84 13 3d
       -0.01981706 -0.060358677 -0.08754666 0.036015313
0002d0 e0 ad 60 bd 39 41 db 3d 7e 15 f9 3d 4c 21 33 bc
       -0.05485332 0.107057996 0.121623024 -0.010933232
0002e0 12 a0 d3 3d 55 da 05 bd f7 ae 28 bd a8 5d ff bd
       0.10333265 -0.03267892 -0.041182484 -0.124690354
0002f0 f8 ad 81 3d 6d 42 fd bd 7b 36 3a bc f3 2a 8f bd
       0.0633201 -0.12366185 -0.011365528 -0.06990614
000300 76 d8 a8 3d d1 5a 51 3d 75 fa 8f 3d 71 8b 1d 3d
       0.08244412 0.051112 0.07030193 0.03846306
000310 87 7f 04 3e fd 3f f1 3d ab 6f 4e 3c 47 6d 1d 3b
       0.12939273 0.11779783 0.012599866 0.0024021433
000320 9c 56 2a bd 84 23 09 be 84 79 51 3d ba 2e 89 bd
       -0.041586503 -0.13392454 0.051141277 -0.066983655
000330 0a 49 08 3d 41 58 15 3d d8 0f 69 bd ae d7 e2 bd
       0.03327278 0.03646112 -0.056899875 -0.11076294
000340 74 e0 71 3d bb f3 a3 3d 2a c0 09 3d 12 84 c7 3d
       0.059051946 0.08005472 0.033630528 0.09741987
000350 a6 f0 ea 3c a2 d9 1c bd ab 80 a4 bd d9 00 c4 bd
       0.028679203 -0.03829349 -0.08032354 -0.09570474
000360 af 0d 85 bd 65 ce 49 bd d8 44 07 3e 21 2e 98 bd
       -0.064967506 -0.0492691 0.13209856 -0.074306734
000370 32 d9 bd 3c 06 b8 cd bd d2 a7 3e bd 50 33 88 3c
       0.023174856 -0.10044865 -0.046546765 0.01662603
000380 28 eb cc 3d 6d 6c 09 3d 7a 83 b5 bd 72 22 86 3d
       0.1000579 0.03355067 -0.08862968 0.06549539
000390 a5 68 9a bd 7e 36 56 3d 57 79 dd bc 72 e1 20 3c
       -0.075394906 0.05229806 -0.027035398 0.009819375
0003a0 6f 0d a6 3d 60 82 22 3d 67 b7 2a 3d fc 93 2e 3c
       0.08108031 0.039675117 0.041678812 0.010655399
0003b0 97 dc 16 bd 80 99 11 bd b5 28 bf bc c4 2e e3 bc
       -0.036831465 -0.03554678 -0.02333484 -0.02773226
0003c0 bd 6e bd 3d 62 bf 4e bd f2 19 d0 3d 60 49 f8 bd
       0.09249637 -0.050475486 0.10161199 -0.1212337
0003d0 6c e9 18 bb 07 b3 e0 3d 6c bb bb 3d 65 72 09 be
       -0.002333249 0.10971647 0.09166607 -0.13422544
0003e0 40 bc a1 bd ad 96 b1 bd 12 0d c9 bd 4e ff b1 3c
       -0.07897234 -0.08671317 -0.09816946 0.021728184
0003f0 e2 7c ec bd dc b3 6b bd 9e 54 58 bc 68 ac c0 bd
       -0.11547257 -0.057544574 -0.013203768 -0.09407884

layers.0.attention.out_proj.bias f4 [64]
000000 a7 07 ac 3a c3 fe 15 3b 28 fb e1 3b 86 6a 80 3a
       0.0013124839 0.0022887446 0.0068963952 0.0009797371
000010 80 33 f0 bb 39 ae dc 3b 04 bd 54 3b 33 b2 13 bc
       -0.007330358 0.006734636 0.0032461295 -0.009014654
000020 35 da db b9 5d 79 9a 3b 21 49 9d 3a 2f 81 c2 bb
       -0.00041933512 0.0047141747 0.0011999944 -0.00593581
000030 0a 42 8f bb 80 03 36 bc 5b 4a 20 3b 0f 7d 61 3a
       -0.004371886 -0.011109233 0.0024458382 0.0008601704
000040 82 b1 fb 3b b4 d8 3c bc 15 db 4a 3c b8 40 fa 3b
       0.0076810727 -0.011526275 0.012381335 0.0076371096
000050 ac 21 b5 b9 d8 44 2b 3a e7 c8 43 bc a9 da cb 3a
       -0.00034548098 0.0006533391 -0.011949754 0.0015552837
000060 b1 d5 92 3a db e2 e4 bb a6 55 40 3c 76 a9 13 bc
       0.0011202601 -0.006985051 0.01173917 -0.009012571
000070 17 9e 17 bc 02 29 56 3b 24 d1 1d bc dc 50 02 bc
       -0.009254 0.003267825 -0.009632383 -0.007953849
000080 78 5c 9f bb fd 2a 45 bb 45 0a 75 bc 8f c6 0a 3c
       -0.004863318 -0.0030085437 -0.014956062 0.008470192
000090 4d 9c a8 3b e7 d8 9d bb cd bc 19 3c 90 88 32 bb
       0.0051455856 -0.0048171165 0.0093833925 -0.0027242042
0000a0 51 cc 5d 3c a0 74 24 bc 18 8e ad b8 4a 1b 03 3b
       0.013537482 -0.010037571 -8.27575e-05 0.002000528
0000b0 b1 1d a0 bb dc a4 ae 3b f2 91 ca 3b b7 fc 6b bc
       -0.004886352 0.0053297114 0.006181949 -0.014403514
0000c0 9b 36 b7 bb af b0 d2 bb d6 be 15 bb 23 fc e1 3b
       -0.0055912263 -0.0064297537 -0.0022849343 0.006896512
0000d0 61 8b 18 3b 09 ab 66 b8 cb 33 64 bb 2c ac d6 bb
       0.0023276436 -5.4995562e-05 -0.003482091 -0.006551286
0000e0 c9 8e 39 ba f6 f9 a3 3b 59 4e 0c 3c 77 76 75 ba
       -0.00070784666 0.005004163 0.008563601 -0.0009363661
0000f0 ce 06 2c 3b bb 53 5b 3b b9 bb 1c 3c 00 2e c3 bb
       0.0026249173 0.0033466655 0.009566241 -0.0059564114

layers.0.norm2.weight f4 [64]
000000 2e bb 85 3f bc 79 7e 3f ad 06 7b 3f 43 37 86 3f
       1.0447748 0.994045 0.9805706 1.0485615
000010 14 4c 7f 3f 06 2e 81 3f 0d f3 81 3f 59 4d 7f 3f
       0.9972546 1.009217 1.0152298 0.997274
000020 4b 98 7c 3f d8 ef 7d 3f 9d 08 81 3f 14 b8 7b 3f
       0.9866988 0.991941 1.0080754 0.98327756
000030 6f 83 7a 3f 45 69 79 3f b1 36 7c 3f 2a 5a 84 3f
       0.978568 0.97426254 0.9852095 1.0340016
000040 f5 c6 81 3f 03 60 7d 3f 2d 9e 81 3f 39 59 7e 3f
       1.0138842 0.9897463 1.0126396 0.9935489
000050 82 97 7c 3f 79 63 7f 3f 67 40 7c 3f 3c 76 80 3f
       0.9866868 0.9976116 0.9853577 1.0036082
000060 bd 5f 7a 3f 20 4e 7f 3f 6b 72 83 3f 4b 65 80 3f
       0.97802335 0.99728584 1.0269293 1.0030912
000070 22 9e 83 3f 52 1f 80 3f cf 18 77 3f 29 40 82 3f
       1.0282633 1.0009558 0.9652223 1.017583
000080 00 ea 83 3f 55 fa 79 3f a6 92 7e 3f 44 66 7f 3f
       1.0305786 0.976476 0.9944252 0.9976542
000090 1e 8d 80 3f 82 98 83 3f a8 04 7c 3f b7 89 83 3f
       1.0043066 1.0280917 0.98444605 1.0276402
0000a0 e8 de 84 3f 39 3c 81 3f ac ba 81 3f 5e ec 7a 3f
       1.0380526 1.0096503 1.0135093 0.9801692
0000b0 31 07 81 3f 91 48 82 3f 21 b5 80 3f d4 b5 7e 3f
       1.008032 1.0178396 1.0055276 0.994962
0000c0 7a 23 79 3f 3a 46 7e 3f 14 5a 82 3f 28 1c 7e 3f
       0.9731976 0.9932591 1.018374 0.99261713
0000d0 c0 06 80 3f 6f 1e 7d 3f 81 68 7f 3f 16 f6 7f 3f
       1.000206 0.9887456 0.99768835 0.9998487
0000e0 5c 20 84 3f 36 a5 81 3f ad 75 81 3f cb 62 82 3f
       1.0322375 1.0128543 1.0114037 1.0186399
0000f0 6f f2 82 3f 13 be 80 3f 2f e9 80 3f 07 a8 80 3f
       1.0230235 1.0058006 1.0071162 1.0051278

layers.0.norm2.bias f4 [64]
000000 6b f5 b2 3c 9b 6f a1 bb 86 8d 42 bc 17 8f 3f bc
       0.02184554 -0.0049266345 -0.011874562 -0.01169183
000010 fe d1 91 bb f4 38 0c bc b7 1c 8f bb c1 20 d0 3c
       -0.004450082 -0.008558501 -0.0043674367 0.025406243
000020 78 0f a6 bc 4b fe 31 3a a9 68 3c 3c cf a2 09 3d
       -0.020271048 0.0006789907 0.011499562 0.033602532
000030 4d 5d 02 3c bf d2 a2 bc 9f f0 a4 bc 13 28 5a 3b
       0.007956815 -0.019875882 -0.020134268 0.0033288046
000040 ca e5 26 3c de 04 79 bb d8 e9 2c 3c 84 e6 49 bc
       0.010186622 -0.0037997286 0.0105538 -0.012323026
000050 f6 67 02 bc fa 45 d0 bb 5a 91 4e ba 80 db ef 3b
       -0.0079593565 -0.006355998 -0.00078799354 0.0073198676
000060 fd 3f 53 bb 1e 33 87 3c 4f 67 fc ba bd 31 32 b9
       -0.0032234185 0.016503867 -0.0019256863 -0.00016993932
000070 cc 97 60 bc 9c 84 f7 3b 47 2d 3f bd 8b 5d 14 3c
       -0.013708066 0.00755365 -0.04667404 0.0090555055
000080 47 fb be 3a 9d c6 87 bc 2a 60 ff 3b dc 66 a7 b9
       0.0014570736 -0.016574198 0.007793446 -0.00031929358
000090 07 09 3b bc 47 b7 c5 3b f3 01 89 bc bc 9c cd 3b
       -0.0114157265 0.0060338113 -0.016724562 0.0062747877
0000a0 33 12 c8 3b 18 9b cb 3a 2c f0 f0 3b 93 5d 07 3d
       0.006105685 0.0015533892 0.0073528495 0.033048224
0000b0 3c a0 46 3c 53 43 38 3c f6 cd 00 3a 86 0d ba bb
       0.012123164 0.01124652 0.0004913503 -0.0056778817
0000c0 59 5f ef bc 87 ba 66 bb 2c d3 96 ba 46 b5 15 bb
       -0.02922027 -0.0035206394 -0.0011507026 -0.0022843643
0000d0 4c 56 ac 3b bf 47 d7 bc 6b 9f a8 bc 92 68 23 3c
       0.005259311 -0.026279328 -0.020583829 0.009973662
0000e0 67 fd a3 b9 ef 37 91 3a 37 54 cc 3a c9 3a fd 3b
       -0.00031278582 0.0011079292 0.0015589063 0.007727955
0000f0 94 03 a3 bc 66 52 1c bb c4 34 36 bc f4 78 3c 3c
       -0.019899167 -0.0023852824 -0.011120979 0.011503447

layers.0.ffn.0.weight f4 [256, 64]
000000 83 2a 29 bd 29 d1 f5 bc e9 60 c6 bd 0a 20 c9 bd
       -0.041300308 -0.030006962 -0.09686453 -0.09820564
000010 16 78 58 3c 2d b0 97 3c 65 83 60 bd c9 1f 42 3d
       0.0132122245 0.018516624 -0.054812808 0.047393594
000020 b5 a8 9c bd 8b 77 28 3d e2 3c 8c bb d8 4b 0a 3d
       -0.07649366 0.04112963 -0.0042797187 0.033763736
000030 4a 55 58 3d b1 00 9c 3c c6 f7 a0 bc d6 37 d6 3d
       0.052815713 0.019043298 -0.019649398 0.104598686
000040 26 61 5d 3c d1 bd 87 bd e4 38 12 3b 01 e9 dc 3d
       0.0135119315 -0.066280015 0.0022311741 0.107866295
000050 19 9d d0 3d 71 12 98 3d e6 ad d7 3d fd c0 d0 bd
       0.10186214 0.074253924 0.10531215 -0.101930596
000060 58 ce de bd fa 0f b7 3c 32 1e ed bd c8 1d dc bd
       -0.10879201 0.022346485 -0.11578025 -0.10747868
000070 97 36 ac bd 9b 1f 20 bc bf 5f 02 bd c9 df 8f 3d
       -0.0840885 -0.00977316 -0.03182959 0.070251055
000080 83 e1 1b 3d 15 b7 c9 bc 5c ec dd 3d 22 52 d7 3c
       0.03805686 -0.024623433 0.108360976 0.026284281
000090 9f 92 5f bd 46 f6 20 bd 28 f3 a8 3d 2e 23 59 bd
       -0.05458319 -0.039297365 0.082495034 -0.053012066
0000a0 7c 14 d7 bd b8 9c 16 bd 2c 10 e8 3d 2d ce 80 bd
       -0.10501954 -0.036770552 0.113312095 -0.06289325
0000b0 83 d0 e3 3c 0d 4f 6c bd 38 c6 f1 ba 45 19 cd 3d
       0.027809387 -0.057692576 -0.0018445915 0.100145854
0000c0 85 43 8c 3d 33 b5 4f bd 0d 18 39 3b 89 e7 8a bd
       0.06848816 -0.050709914 0.0028243095 -0.06782443
0000d0 e9 29 3e 3d 63 c1 b9 3d ac bf 29 3c 65 9c a5 3d
       0.046426687 0.09070089 0.01036064 0.080864705
0000e0 7d 66 52 bd 04 db 96 3d d2 14 e4 3d 6d 3f b8 3d
       -0.05136727 0.07365993 0.11136784 0.089964725
0000f0 c4 a0 a5 bd 12 e4 85 3d 4b c2 1a bd a1 c4 a4 bd
       -0.08087304 0.065376416 -0.03778295 -0.080453165
000100 fe 56 60 3c 2e be d5 3d 68 be 8c bc cb d8 ae bc
       0.013692616 0.104366645 -0.017180637 -0.02134361
000110 07 24 d8 bd 77 37 ad bd 82 02 06 3d 59 db 00 3d
       -0.10553747 -0.08457845 0.032717235 0.031459186
000120 e9 df 5f 3d 6b e3 25 3d a2 97 15 bd 54 9c 60 3d
       0.054656897 0.040500086 -0.03652156 0.054836586
000130 6c f9 f5 3d 5f 85 73 3c 5f 80 49 3d db 66 be bd
       0.12010464 0.014863341 0.04919469 -0.09296962
000140 f0 18 fa 3b 92 36 04 3c 1d 88 ba 3d 15 91 99 bd
       0.0076323673 0.008069651 0.09107993 -0.07498375
000150 c1 cb fd bd 86 3f 24 3d 93 5d e8 3d 8f 57 cd bd
       -0.123923786 0.040099643 0.11345973 -0.10026466
000160 99 09 ac 3d d0 60 42 3d f2 16 9d 3d 8e fd 4b bd
       0.08400268 0.04745561 0.07670392 -0.049802355
000170 92 be e7 3d 5b 80 00 3e 4b 13 37 3d 07 c5 83 3d
       0.11315645 0.12548964 0.044696134 0.06434064
000180 29 e5 eb 3c 6e c0 c0 bd e9 dd 32 3d 36 53 25 3d
       0.028795796 -0.09411703 0.04366866 0.04036256
000190 74 bb 91 3d 04 cb 20 3b 2a ba 8b bd f1 ed be 3d
       0.07115832 0.002453507 -0.06822617 0.093227275
0001a0 50 9e f1 bd 8c 9d d5 bd fe 41 93 ba 0f 86 0f bd
       -0.11797774 -0.1043044 -0.0011234877 -0.035039958
0001b0 21 75 31 bd 2d d5 07 3d 27 0a bc 3d d6 7e ab 3d
       -0.043324593 0.033162285 0.09181624 0.083738014
0001c0 98 f8 3d 3d 1e cf d3 bc 97 c0 31 bd 22 99 d7 3d
       0.046379656 -0.025855597 -0.04339656 0.10527255
0001d0 9a fa 32 3d 9a a8 c1 bc 29 8e 95 3d 84 13 b8 3d
       0.043696024 -0.023639966 0.073025055 0.08988097
0001e0 34 f5 42 3b 0d d1 b2 3d 88 a0 01 be d9 8b e6 bd
       0.0029748203 0.087312795 -0.12658894 -0.112571426
0001f0 06 ce 90 3d 36 f4 17 3d da cc 08 bd 79 24 cb 3d
       0.07070546 0.037098132 -0.033398487 0.09919066
000200 d2 c7 be 3c 83 5f cb bc 71 c5 f3 bc 79 74 69 bd
       0.023288641 -0.024825817 -0.029757233 -0.056995843
000210 69 8f 49 3d 91 ab a4 3d 63 85 ab 3d 13 c4 4b 3d
       0.049209032 0.08040536 0.08375051 0.049747538
000220 5b b8 c9 3d 74 6c 72 3d 3f 57 b7 3d 8a 7a 3a bc
       0.09849616 0.05918546 0.08952188 -0.011381755
000230 ef 3e 63 3c ee eb 04 be c7 a1 8b 3b 5f f9 c3 3d
       0.013869985 -0.12980625 0.0042612287 0.09569048
000240 9c 62 ab 3d 31 f8 68 bd 9c a6 62 3c 50 95 ce 3c
       0.083684176 -0.05687732 0.013833668 0.025217682
000250 07 fb 4f bd 0e a5 1a be f8 51 a4 3c 26 08 11 3d
       -0.050776508 -0.15102026 0.020058617 0.03540816
000260 c3 22 87 bb 9d ae c7 bc cb 32 78 3d a5 8d 4a bd
       -0.004124017 -0.024375254 0.060595315 -0.04945149
000270 43 46 ca bd 72 16 d6 3d c8 d3 1d bc 90 a7 73 bc
       -0.098766826 0.104535 -0.009633012 -0.014871493
000280 25 e0 8f bd b7 09 38 3d 40 f2 82 3c 77 d4 7b 3c
       -0.07025174 0.04493114 0.015984654 0.01537048
000290 9a c7 7d bd 40 60 83 bd 3e 05 6d 3c 51 27 f1 3d
       -0.061957933 -0.064148426 0.014466582 0.11775077
0002a0 68 eb 91 bc 25 2a ec 3a cb f3 06 3d 5d 9b 9f 3d
       -0.017812446 0.0018017931 0.032947343 0.07793305
0002b0 f4 bd 90 bd ae 64 3f 3d dd 37 4a bd a5 20 de bc
       -0.07067481 0.046726875 -0.04936968 -0.027115176
0002c0 a9 b4 57 3d e0 f2 52 bd 4b 81 86 3c 39 84 9a 3c
       0.052662525 -0.051501155 0.016419074 0.018861877
0002d0 5f b2 9b 3d 65 e8 84 3d ba d9 3f 3d 2d 9d 8a 3d
       0.07602381 0.06489638 0.0468385 0.0676826
0002e0 f2 52 cf bd a8 2f 5d bd a6 31 ca bd df 97 ea 3d
       -0.101232424 -0.054000527 -0.09872751 0.11454748
0002f0 47 bc 71 3d 0c cf 63 3d 58 0b c5 bd ac e8 35 3d
       0.059017446 0.055617377 -0.09621304 0.044411346
000300 7f c1 ce bd 94 23 ca 3d 23 7c 75 bd 70 c4 c1 bd
       -0.100955 0.09870067 -0.05993284 -0.094612956
000310 5b 4e 03 3e 74 a2 28 3d 28 c6 07 bd ba 53 9c bd
       0.12822859 0.041170552 -0.03314796 -0.07633157
000320 dc a8 c2 bd b6 bc 21 bd cf 30 17 3d a6 86 f1 3c
       -0.095048636 -0.03948661 0.036911782 0.02948315
000330 90 0e 29 3d d7 b1 b9 3d 71 f9 54 3c cf 9d d0 3d
       0.041273654 0.090671234 0.012998925 0.101863496
000340 40 e6 7c bc 10 65 4e 3d f3 f3 ec 3d a2 f4 08 3d
       -0.015435755 0.05038935 0.11569967 0.033436425
000350 b2 b0 dc bd d2 34 a7 3d 40 0f cd 3d a1 d3 9d bd
       -0.107758895 0.081643716 0.10012674 -0.07706381
000360 93 2d 9b 3c 2a 7b 55 3d f5 a9 3b bd f3 12 92 bd
       0.01894263 0.05211941 -0.04581638 -0.071325205
000370 8e 5c cc 3d 08 7e e2 ba de 28 ca 3d e2 df 91 3d
       0.09978591 -0.0017279992 0.09871076 0.071227804
000380 f0 72 9d 3d e6 47 31 3d d5 03 d3 bd 9c 47 00 3d
       0.07687938 0.04328146 -0.10303465 0.031318292
000390 b4 9f ce bc 83 31 f2 bd a0 19 85 3a 91 28 cc bd
       -0.025222637 -0.1182585 0.0010154732 -0.09968675
0003a0 09 69 21 bd 4d ff 97 bc 40 20 f4 bd b5 ac 2e 3d
       -0.03940681 -0.018554354 -0.11920214 0.042645175
0003b0 27 08 85 3c 69 f6 6c 3d c6 24 c3 bd 7e 56 87 3c
       0.016239239 0.057852183 -0.09528498 0.016520735
0003c0 51 79 c6 3d 93 e2 0f bd ba 44 20 3c 21 6f b6 bd
       0.09691108 -0.035128187 0.009782011 -0.08907915
0003d0 eb c8 39 3d 6b 68 32 3d 8e 37 89 3d 82 a3 d0 3d
       0.045357626 0.043556612 0.06700049 0.10187437
0003e0 fa 8f ce 3d a1 8b a3 bc 9f 08 a4 bd 15 4d 89 bd
       0.10086055 -0.019964041 -0.08009457 -0.06704155
0003f0 cb bd c5 bd e5 a5 0b be f7 a4 39 bd 82 06 8b 3c
       -0.09655341 -0.13637502 -0.04532334 0.016970877
