checkpoints_quadruped/model_epoch_20.pth (torch, 424942 bytes, 30 tensors)

pos_embedding f4 [1, 49, 64]
000000 e1 2b b2 3d 75 c1 58 bd c2 95 2a 3d 4f ab af 3c
       0.086997755 -0.05291887 0.041646726 0.021443991
000010 6b 59 39 3d 81 ab a7 3b b6 c0 74 bd 0c 6c a4 bd
       0.04525129 0.0051168804 -0.059754096 -0.08028421
000020 1b 1f 8d bd 0f 45 88 3b 7f 14 01 bc 03 dc be 3b
       -0.068906985 0.004158623 -0.007878422 0.0058245673
000030 eb 73 e4 3c 35 a6 2e bd 28 5d 06 be 7e 1f e1 bc
       0.027887305 -0.042638976 -0.13121474 -0.027480837
000040 3c 7c 65 3c 0c bf 7d 3d b1 91 28 bc ce 5c be bd
       0.014006671 0.061949775 -0.010288642 -0.09295045
000050 99 28 53 3d 96 1f 7c bc fb 37 f8 3d f4 83 e0 3c
       0.05155239 -0.01538839 0.121200524 0.02740667
000060 9c 69 d3 3d 06 9d b7 bd 99 5b 91 bd 4d a7 5a 3d
       0.10322878 -0.08965497 -0.07097549 0.053382207
000070 0f 1c 2a bb e1 e5 5a 3d bf 0a 6d bc b9 51 e1 3d
       -0.0025956666 0.053441886 -0.014467894 0.110019155
000080 64 55 ef 3c 60 94 b9 bc 19 c5 32 3c e1 ca 65 3d
       0.029215522 -0.022653759 0.01091125 0.056101684
000090 71 1d e4 bd 59 ec 61 3d 1b f8 e5 3c 59 b3 11 be
       -0.11138428 0.05515704 0.028072407 -0.14228572
0000a0 32 c1 6f bd 53 3f 99 3c 39 36 69 bd de 70 dd 3d
       -0.058533855 0.018706953 -0.056936476 0.10812543
0000b0 5e 96 17 bd 41 e2 99 3d 56 95 e1 3c c9 6e 3d 3d
       -0.037008636 0.07513858 0.02753703 0.04624823
0000c0 89 08 28 bd d7 ed 02 bc b8 41 a6 3d c0 6c b2 3c
       -0.041023765 -0.007991276 0.081180036 0.021780372
0000d0 15 b5 41 3d 61 7d 53 bd 49 fc 85 bd f2 25 28 bd
       0.047291834 -0.051633243 -0.0654226 -0.041051812
0000e0 5b 13 14 be 2b 6f c1 bd 9e be 8a 3a c6 07 d1 3d
       -0.14460509 -0.09445032 0.0010585373 0.10206561
0000f0 e0 8e 7d bd f7 30 ed bd 14 3c 9e 3c 0a d6 b8 3d
       -0.061903834 -0.11581605 0.019315757 0.090252
000100 aa 87 3a 3d 38 bc 80 3c ea f4 8d 3c 97 ae 79 bc
       0.045539536 0.01571475 0.017328698 -0.015239379
000110 72 83 66 bc 7f ba b6 bd ce 29 3f 3d 58 f4 35 3d
       -0.014069425 -0.0892229 0.046670727 0.044422477
000120 16 a4 9f bc 3b b9 8f bc d3 6d f0 3c 6f 61 a4 3d
       -0.019487422 -0.01754438 0.029349243 0.080263965
000130 cc bc 04 3a 25 b9 05 bc 6c f2 9d bc 2f 2b 8c bd
       0.00050635333 -0.008161818 -0.019280635 -0.06844174
000140 b6 28 8f 3c fa 06 9c 3d 60 c1 9f bc e2 54 7e bd
       0.017475467 0.07618518 -0.019501388 -0.06209267
000150 46 98 cd 3c c7 63 80 bd 08 a5 66 bc cc df 98 bd
       0.025097024 -0.06269031 -0.014077432 -0.07464561
000160 67 d9 7d 3d 24 32 c9 bd 16 6a 1b bc 98 3c a9 3c
       0.06197491 -0.09824017 -0.009485742 0.020658776
000170 7b 92 34 bd 5d aa de bc 16 80 9c bd c5 18 f1 bc
       -0.044085007 -0.027180845 -0.07641618 -0.029430756
000180 69 73 b7 ba a8 6d bd bc ee 9c 4f 3d f8 91 ab bd
       -0.0013996187 -0.023123577 0.05068677 -0.08377451
000190 90 a3 e0 bd 91 d7 38 bd 23 85 c8 39 7b 9a 9d 3b
       -0.10968697 -0.045127455 0.00038246167 0.0048096753
0001a0 a2 12 ed 3b a3 d3 84 bd 49 7b d6 bc b9 5a e2 3d
       0.007234887 -0.06485679 -0.026181834 0.1105246
0001b0 eb 4a f8 3c a5 fc 3c 3d 20 05 58 3c 73 8d 61 3d
       0.030309161 0.046139378 0.013184816 0.055066537
0001c0 11 6c 83 3c b1 9b 3c 3d ee 26 cd 3c 57 20 9d bd
       0.016042741 0.046046916 0.025042977 -0.07672184
0001d0 69 72 cc 3c 03 a3 28 3d ea 3f 32 3d 01 a7 1d 3c
       0.024956899 0.041171085 0.043517984 0.009622336
0001e0 3a 38 d4 3d d2 fc 46 bd dd da cb 3a 70 13 f7 bc
       0.10362287 -0.048580952 0.0015552897 -0.030160636
0001f0 fd db c3 bc d1 90 df bd 8e 7d b9 bc 45 e3 a9 3d
       -0.02390861 -0.109162934 -0.022642877 0.08295301
000200 28 c3 53 3d 0d b4 16 bd a2 66 0b 3c 84 29 22 bc
       0.051699787 -0.036792804 0.008508356 -0.009897593
000210 f3 17 bc 3c 4c f4 19 bd c6 6e b9 bd ac 6d 98 3d
       0.022960639 -0.037586495 -0.090543315 0.07442793
000220 ea 55 35 bd 47 26 f7 3c f9 fb 79 3d 0c 54 17 bc
       -0.044271387 0.03016962 0.061031315 -0.009236347
000230 f5 c2 11 3d 11 ac 66 bd 8d 15 ce bd a6 c2 23 bd
       0.035586316 -0.05631644 -0.10062704 -0.039980553
000240 f8 05 b6 bc 8d 83 27 3d 77 91 45 3d 3e 54 32 bd
       -0.022219643 0.04089694 0.04823443 -0.04353737
000250 06 16 50 3d 5f c3 14 bd 47 83 e3 3d f3 a6 b6 bd
       0.050802253 -0.036319133 0.111090235 -0.08918562
000260 ce a8 92 3d ba 5e ce bc 87 3e 12 be 4e ed ed bb
       0.07161103 -0.025191654 -0.14281665 -0.007260955
000270 c0 e7 8f bd a9 0c 70 bd ad eb 08 bc 8c 93 1e bd
       -0.07026625 -0.058605824 -0.008356971 -0.03871493
000280 1f b8 3a bd 8f ef 8f bd 20 21 58 bc 71 1e 0c 3d
       -0.045585748 -0.07028114 -0.013191491 0.03420872
000290 e7 8d 9e bd 9e 3f 36 bd 52 23 8f 3d d6 a1 dd bc
       -0.077419095 -0.044494264 0.06989159 -0.027054708
0002a0 24 d4 e3 bb 7c 6e d5 bc 03 7c 68 3d aa 00 d8 3d
       -0.0069527794 -0.02605366 0.05675889 0.10547002
0002b0 ac 0d 3a 3d 52 8f b1 3d a3 16 3f bd 16 e0 44 3d
       0.045423195 0.08669914 -0.046652447 0.048065268
0002c0 70 9b c8 3d e7 95 78 bc ce 90 b0 3d e2 f4 36 bd
       0.09795272 -0.015172458 0.08621369 -0.044667132
0002d0 b3 e7 35 3d 70 8d 46 3d 5a 5b 73 bd 1f ca 4e 3d
       0.04441042 0.04847473 -0.05941329 0.050485726
0002e0 ef b2 a4 bc b5 11 b3 bc 69 37 4b bc 3b 41 36 3c
       -0.020104853 -0.02185903 -0.0124033475 0.011123951
0002f0 d7 2e 6c bc e8 eb b8 bd 84 0e 49 3d c9 ed 9f 3d
       -0.014415464 -0.090293705 0.04908611 0.07809026
000300 a4 40 92 3d d3 65 b5 bc fd 1d cd 3c d9 90 02 3d
       0.071412355 -0.02214328 0.025038714 0.03187642
000310 66 cd 5d 3c df 86 2a bb 8c ec b9 bd 49 61 0a 3b
       0.01353774 -0.002602033 -0.09078321 0.0021115115
000320 f0 8e 2d be 63 49 a1 3a 1e 76 eb 3c 57 d5 08 3d
       -0.16949058 0.0012305196 0.028742846 0.03340658
000330 a8 d4 58 3d 13 d9 a9 bd ff 38 9b bd 56 13 fc 3c
       0.05293718 -0.08293357 -0.075792305 0.030770939
000340 d7 3d 49 bd 7e 22 aa 3d e7 0d 90 3c a1 5e b5 bd
       -0.04913124 0.0830736 0.017584754 -0.0885594
000350 12 81 d0 3c d8 ee eb bc df 62 cf 3d 68 b2 44 3d
       0.02545217 -0.028800413 0.1012628 0.048021704
000360 d4 86 09 3e 45 6f 85 bd 41 18 0b be a9 b7 03 3e
       0.13430339 -0.065153636 -0.13583471 0.1286303
000370 f2 34 d2 3c 88 27 c9 bc d6 29 88 bd 6e c8 7b 3c
       0.025660012 -0.024554983 -0.066486046 0.01536761
000380 fc c5 45 3d a3 dc 99 bd 7c fa 13 bc e1 be f1 3a
       0.048284516 -0.07512786 -0.009031888 0.0018443727
000390 8a 1f 6f bd 17 1e 24 3d 99 dc 73 3b 80 4f 7a bd
       -0.058379687 0.04006776 0.0037210344 -0.061110973
0003a0 31 d5 0d bd 08 22 76 bc 3d e9 3c bd 53 d0 07 3e
       -0.034627143 -0.015022762 -0.04612087 0.13263063
0003b0 1f dc 0b bc 8b 33 fe 3d bf 0d 0d bc 4c 1e f1 3c
       -0.008536368 0.12412175 -0.008609234 0.029433392
0003c0 b5 53 88 bd b9 23 15 3d b5 01 b8 3d 8a f3 6f bc
       -0.06656591 0.03641102 0.089847006 -0.014645467
0003d0 9c ea 83 3d 01 55 89 bd d5 87 82 bd 6a 76 06 3d
       0.064412326 -0.06705666 -0.06373564 0.032827772
0003e0 24 04 48 bd f3 ba 8d bd 2d d8 b1 bd 6a 3e 24 3d
       -0.048832074 -0.06920423 -0.086838104 0.040098585
0003f0 be b7 0b 3c 85 e6 51 be 4c bf f7 3c 5a bf 1b 3e
       0.008527694 -0.20498092 0.030242585 0.15209714

feature_encoding.0.weight f4 [64, 1]
000000 44 e4 6e be 42 0b 20 bf ee f5 21 3f e0 ba 98 be
       -0.23329264 -0.6251718 0.63265884 -0.29830074
000010 f6 b2 5a bf 81 e1 1d bf 7b f0 0a bf b1 07 48 3f
       -0.8542932 -0.61672217 -0.54273194 0.78136736
000020 c3 1a 81 3f de 23 7b bf 27 0c c2 be b8 38 87 bd
       1.0086292 -0.98101604 -0.37899897 -0.06602615
000030 f2 2d 37 bf 90 15 5e bf c1 65 03 bf 4a 22 5a be
       -0.7155448 -0.8675165 -0.5132714 -0.21302143
000040 4f 76 be bc 7d fd 61 bf b2 3e 1e be 69 38 36 bf
       -0.023249773 -0.8827742 -0.15453604 -0.71179825
000050 d3 df 1c bf 81 fe 6c 3e 83 77 7b 3f 1d 7d e7 3e
       -0.6127903 0.2314396 0.98229235 0.4521264
000060 07 a0 64 bf 44 c7 6c 3f 36 27 bf 3e 6c 3b 50 bf
       -0.8930668 0.92491555 0.37334603 -0.8134067
000070 cd 61 4d be 54 51 5d bf 36 f7 5f 3f 7c 43 37 be
       -0.2005684 -0.8645222 0.8748659 -0.17896837
000080 f0 37 12 3f 59 5c 42 3f 14 72 41 bf d3 41 b7 3e
       0.57116604 0.7592216 -0.75564694 0.35792407
000090 82 18 4c 3f a6 8f ad be e3 7c 52 bf 29 1f 41 bf
       0.79724896 -0.33898658 -0.8222181 -0.7543817
0000a0 e1 d4 b6 be 24 ad 0d be b2 63 c8 3e bc d0 e2 3d
       -0.3570929 -0.13835579 0.3913856 0.11074969
0000b0 c6 96 07 3f 07 a6 a8 be b5 99 8e 3e 94 d0 f2 3e
       0.52964437 -0.3293917 0.27851644 0.47424757
0000c0 3e 4f 75 3f d5 da 13 bf 88 65 12 3f ed 2c 09 3f
       0.9582404 -0.57755786 0.57186174 0.53584176
0000d0 97 7f 54 3f 57 53 51 bf f1 18 2b bf ae 7c c1 bd
       0.83007187 -0.8176779 -0.6683493 -0.09447609
0000e0 ea 60 d9 3e ed 17 5e bf 3b 7e 6a 3f 94 ae 9d 3e
       0.42456752 -0.8675526 0.9159886 0.30797255
0000f0 38 ea ae 3e 33 21 61 bf 13 ee 50 3f 11 4e 7b 3c
       0.3416307 -0.87941283 0.8161327 0.015338437

feature_encoding.0.bias f4 [64]
000000 b6 01 94 3e 4e 6b 09 bc bd 43 4a 3f 18 5e da be
       0.28907555 -0.0083874 0.7900961 -0.42649913
000010 d1 cc 09 3f cd e9 22 bf ed 27 f8 3d 97 bd 89 be
       0.5382815 -0.63638 0.1211699 -0.26902458
000020 ef bc 13 bf 12 3d c4 be bc b8 f0 be 30 47 d4 3d
       -0.57710165 -0.38327843 -0.4701594 0.103651404
000030 f8 ec f3 be 10 e5 1c 3f 34 77 27 3f 2c e5 5e bf
       -0.4764173 0.6128702 0.65416265 -0.8706844
000040 8f c6 cd bc 46 7a dc bc 6e 26 9e bc ec fa c7 be
       -0.025119094 -0.026913773 -0.019305434 -0.39058626
000050 fa 9b 23 3f 6c f9 20 be 71 e4 1b 3f fb 40 7c 3f
       0.63909876 -0.15720147 0.6089545 0.9853665
000060 92 a6 2f 3f 52 85 41 3f c6 db b3 be 2e 78 5e 3f
       0.6861354 0.75594056 -0.3512861 0.8690213
000070 71 f1 38 bf 61 da 3d bf 23 37 59 3f 6a 99 28 bf
       -0.7224341 -0.74161345 0.84849757 -0.6585909
000080 68 a4 d1 3c 9d c5 3a bf f0 a8 35 3f 50 46 55 3f
       0.02559109 -0.72957784 0.70960903 0.83310413
000090 6b 79 83 bf 6f 7f 3f bf 3b 1c 3a bf 66 cd 1a bf
       -1.0271429 -0.74803823 -0.72699326 -0.60469663
0000a0 49 c4 dc be ca de 50 3d 41 13 f3 3e 5c 7a e6 be
       -0.43118504 0.05099372 0.47475627 -0.45015228
0000b0 07 31 40 3c c9 56 67 3f f5 b1 79 3f 9a cd 31 3f
       0.011730439 0.903668 0.97537166 0.6945435
0000c0 9c 91 78 3f 9a 7c 70 3f 09 60 c4 bc fb 09 43 3f
       0.9709718 0.93940127 -0.023971574 0.76187104
0000d0 a4 05 62 bf 80 f0 cc 3e 47 a3 fd 3e 1e 0a 7c 3f
       -0.88289857 0.40027237 0.49538633 0.9845294
0000e0 08 2c 88 bf cf 0b 87 be 00 b3 d6 3e 36 dd 16 3f
       -1.0638437 -0.26376197 0.4193344 0.5893129
0000f0 4b 9a 18 3e c9 d2 8a be 70 c8 89 bf 2a 45 56 3f
       0.14902608 -0.2711394 -1.0764294 0.83699286

feature_encoding.1.weight f4 [64]
000000 f1 48 7d 3f 5b 57 76 3f cc cb 74 3f a7 1d 81 3f
       0.98939425 0.96227044 0.9562347 1.0087174
000010 db ff 74 3f 79 ec 78 3f c4 1b 7e 3f f4 e7 71 3f
       0.95702904 0.9723583 0.99261117 0.9449456
000020 5f 9e 74 3f b7 e5 7c 3f 26 bf 85 3f 6a 74 7d 3f
       0.95554155 0.9878802 1.0448959 0.9900576
000030 81 7b 7f 3f 54 46 72 3f b9 63 72 3f ce c3 95 3f
       0.99797827 0.9463856 0.94683415 1.170038
000040 ea 7e 85 3f 7e 96 77 3f dd b4 84 3f 10 39 75 3f
       1.0429356 0.9671401 1.0367695 0.95790195
000050 81 2b 71 3f 6b 6a 7d 3f e3 0a 77 3f 0d d8 74 3f
       0.94207007 0.98990506 0.96500987 0.9564217
000060 38 aa 6a 3f 21 9c 71 3f 4a ef 78 3f a7 6a 6c 3f
       0.91665983 0.9437886 0.97240126 0.9235024
000070 88 f8 93 3f 5d 4b 80 3f 8f 04 65 3f d6 eb 82 3f
       1.1560221 1.0022999 0.8946008 1.0228221
000080 ad 5f 81 3f 7a 80 7b 3f 8f 8f 68 3f 1c d2 78 3f
       1.0107323 0.98242915 0.90844053 0.971956
000090 54 39 7a 3f 27 8f 82 3f 3c 90 81 3f 5c cc 81 3f
       0.97743726 1.0199937 1.0122142 1.014049
0000a0 9f 29 7d 3f 5f ac 81 3f 16 d2 78 3f 1b 57 68 3f
       0.98891634 1.0130728 0.97195566 0.9075791
0000b0 53 40 7a 3f 5e 95 6b 3f d8 c4 78 3f 82 3a 72 3f
       0.977544 0.9202479 0.9717536 0.94620526
0000c0 28 a6 69 3f 03 04 67 3f 2a 97 7b 3f 8e c6 76 3f
       0.9126916 0.90240496 0.98277533 0.9639672
0000d0 3d 52 78 3f 7c 52 77 3f f9 7c 72 3f 13 e7 74 3f
       0.97000486 0.96610236 0.94721943 0.9566509
0000e0 c7 4c 82 3f ae 67 73 3f d2 fe 7a 3f 66 d4 7b 3f
       1.017968 0.9508008 0.98045075 0.9837097
0000f0 6b 84 7d 3f 4a 1f 75 3f 6b 1b 76 3f ea aa 75 3f
       0.9903018 0.9575087 0.96135587 0.9596392

feature_encoding.1.bias f4 [64]
000000 6c 5e 82 bb 1e 9a 1b bd 07 0e 39 bd b3 f0 1d 3d
       -0.003978541 -0.037988774 -0.045179393 0.038559627
000010 b7 18 06 bd 58 06 35 bd 8d f3 53 bc a3 ac 0a bd
       -0.032738414 -0.044195503 -0.012936485 -0.033856045
000020 b5 4a 73 bd 2d 13 b5 bc 34 ef 19 bc 52 9e a7 3c
       -0.059397418 -0.02210387 -0.009395409 0.020461235
000030 b5 41 1d bc 25 12 31 bd c2 2f 48 bd 19 ea eb 3c
       -0.009598185 -0.043230195 -0.04887367 0.02879815
000040 5d ec 1d bb b0 5d 1b bd 12 94 8a 3c 93 38 af bc
       -0.0024097182 -0.037931144 0.016916309 -0.021389281
000050 24 9b 20 bd c6 2c 5a 3c be 4b 4a bd bb 97 56 3b
       -0.039210454 0.013316339 -0.04938864 0.0032744247
000060 37 ff 93 bd 76 a8 5d bd b7 97 38 bc 6a e7 9f bd
       -0.07226413 -0.054115735 -0.01126664 -0.078078106
000070 33 ce dd 3c 77 ca b0 bc 1d f4 87 bd 4e da 44 3d
       0.027075863 -0.021580918 -0.06638358 0.048059754
000080 16 83 c2 b5 b6 47 1c bd 4f 27 ba bd 96 76 84 bc
       -1.4492277e-06 -0.038154326 -0.09089529 -0.016169827
000090 69 74 0d bd 4b bb 25 bb 45 3b 50 bc 50 a0 bf bc
       -0.034534846 -0.0025288637 -0.012709443 -0.023391873
0000a0 8c 84 9f 3a ec d3 14 3c f3 c1 86 bc 73 b5 09 bc
       0.0012170239 0.009083729 -0.016449904 -0.008405077
0000b0 c3 d2 b3 b9 01 dd 77 bd ff be 2e bd 2c 0e f6 bc
       -0.0003429857 -0.0605135 -0.042662617 -0.030036055
0000c0 c1 2f a1 bd 2e 9f c9 bd dd b6 87 bc 29 e2 27 bd
       -0.078704365 -0.09844814 -0.016566688 -0.040987168
0000d0 03 9e 92 bc 89 72 2b bd 1f 9e 88 bd 47 1a b7 bc
       -0.017897611 -0.041857276 -0.06670784 -0.022351397
0000e0 4c 90 13 bd 1a 82 2f bd 02 8d 15 bc 7c bd 72 3c
       -0.036026284 -0.042848684 -0.009127857 0.014815684
0000f0 bb 2f 0b b8 c9 f9 12 bd f4 45 9f bc 6b ff 49 bc
       -3.3184635e-05 -0.035882745 -0.019442536 -0.012328963

layers.0.norm1.weight f4 [64]
000000 55 47 80 3f f0 de 82 3f dc 0c 82 3f 84 20 84 3f
       1.0021769 1.0224285 1.0160174 1.0322423
000010 72 b0 80 3f 55 af 82 3f b2 9a 81 3f ee df 82 3f
       1.0053847 1.0209757 1.0125334 1.0224588
000020 7a 04 83 3f 30 de 83 3f 22 b6 83 3f 10 21 8b 3f
       1.0235741 1.0302181 1.0289958 1.0869465
000030 7d a1 82 3f 1b b4 81 3f 85 31 81 3f 95 9f 8d 3f
       1.0205532 1.0133089 1.0093237 1.1064326
000040 be 45 87 3f 1b 5d 85 3f bf 88 85 3f 83 d5 82 3f
       1.0568159 1.0419039 1.0432357 1.0221409
000050 f7 09 82 3f dd 99 84 3f 3d a2 81 3f 50 c5 84 3f
       1.0159291 1.0359455 1.0127636 1.0372715
000060 5f dc 7f 3f d3 4e 81 3f 5d db 84 3f 4f ef 7f 3f
       0.99945635 1.010218 1.0379444 0.9997453
000070 50 d2 85 3f 63 a0 8a 3f 08 fc 81 3f ce 9c 8b 3f
       1.0454807 1.0830196 1.0155039 1.0907228
000080 70 41 81 3f c6 e7 89 3f dc f4 80 3f 84 5e 82 3f
       1.0098095 1.0773857 1.0074725 1.0185094
000090 84 c8 81 3f 2d 6a 86 3f 74 ca 84 3f b5 0d 84 3f
       1.0139318 1.0501152 1.0374284 1.0316683
0000a0 7d 15 84 3f e6 36 81 3f 98 f9 8a 3f 3b 72 83 3f
       1.0319058 1.0094879 1.085742 1.0269235
0000b0 df 94 86 3f 88 d1 7f 3f e4 73 83 3f 56 75 82 3f
       1.0514182 0.99929094 1.0269742 1.0192058
0000c0 e9 d0 82 3f c8 73 7f 3f 93 63 82 3f 6c 10 84 3f
       1.0220004 0.99786043 1.0186638 1.0317512
0000d0 fc e3 80 3f b1 db 85 3f 93 55 82 3f 28 64 82 3f
       1.0069575 1.045767 1.0182365 1.0186815
0000e0 46 70 81 3f 50 98 84 3f f8 18 84 3f ee 7b 82 3f
       1.0112388 1.0358982 1.032012 1.019407
0000f0 0f d3 85 3f 5e 95 82 3f 17 1a 83 3f 01 70 87 3f
       1.0455035 1.0201833 1.0242337 1.0581056

layers.0.norm1.bias f4 [64]
000000 7c ea 16 3c 18 47 29 3c 0c 40 5c bc e0 c6 df 3b
       0.009211179 0.0103318915 -0.013443004 0.0068291277
000010 0d 19 b9 ba f6 23 38 3c 83 30 db 3c 13 ec 7f 3c
       -0.0014121846 0.0112390425 0.02675653 0.015620249
000020 26 86 88 3c f3 e3 31 3c b6 89 9f 3b 78 09 02 3d
       0.01666553 0.01085757 0.0048687113 0.03174731
000030 5a 1f 1f 3c 03 19 32 bc 20 1f a1 bc 3d 20 ea 3a
       0.009712065 -0.010870221 -0.019668162 0.0017862391
000040 d0 cd 40 3c 72 bd 0e 3b 70 fd 79 3c 85 d4 62 3c
       0.0117678195 0.0021780399 0.015258178 0.013844614
000050 db 2f a5 ba 1f 1c 3c bb 9e 95 30 3c 25 26 7b bc
       -0.0012602763 -0.0028703285 0.010777859 -0.015328919
000060 30 9e 27 bc 08 a5 be bb 2d 07 87 bc 63 9d 86 bc
       -0.010230586 -0.005818013 -0.016482914 -0.01643247
000070 0b 4b 90 bb ea 80 ca b9 df 40 c2 bb 91 35 1f bc
       -0.004403477 -0.0003862449 -0.0059281434 -0.009717361
000080 12 5b 93 3c ca 00 0b 3c 2e 72 68 bc 4f 30 10 bc
       0.017987762 0.008484075 -0.014187379 -0.00880058
000090 a8 cb 23 3c 64 66 3d 3c 1e b1 5d 3c e4 95 f9 3b
       0.009997286 0.011560056 0.013530998 0.0076167453
0000a0 44 59 35 3c f1 ed 2b 3c 99 79 3c 3a 43 4b 5b bb
       0.011068646 0.010493741 0.00071897503 -0.0033461608
0000b0 c8 34 82 3c 2a 27 06 bd 4e 0e 57 bc c1 79 a9 bb
       0.015894309 -0.032752194 -0.013125969 -0.005171985
0000c0 5e 17 bd bb 53 32 07 bd 13 c9 9e 3b 77 15 69 39
       -0.005770608 -0.033006977 0.0048457473 0.00022228608
0000d0 c1 b2 91 3c db bf 70 3c b2 05 bf bb d8 5a 50 3b
       0.017785432 0.014694179 -0.0058295364 0.0031792428
0000e0 98 c2 35 3b 90 e1 68 3c ad d2 94 3c dc 4b 3e bb
       0.0027734395 0.014213935 0.018166864 -0.0029036915
0000f0 c8 b7 e5 ba e5 0a 9c bc 2e 6a 87 3b 20 5b a6 bb
       -0.0017526085 -0.019048164 0.0041325307 -0.005076781

layers.0.attention.in_proj_weight f4 [192, 64]
000000 d1 3c 0c 3d 85 67 1d 3e a5 17 c4 3d 6a 42 0e be
       0.034237687 0.15371521 0.09574822 -0.13892522
000010 70 9e 7a 3d d5 af 81 bd 3f b9 2d 3d 0e 89 3e bd
       0.061186254 -0.063323654 0.042412993 -0.046517424
000020 e9 4b 21 be 9c 60 c2 bc 4b d3 33 3d 6c 24 25 bd
       -0.15751614 -0.023727708 0.043902677 -0.040317938
000030 6e b6 fc bd a8 ca 3e 3d d1 58 28 3c fc 95 0d be
       -0.12339483 0.046579987 0.010275082 -0.13826746
000040 86 02 bf bd 75 ac 35 3e ac bd c5 bd 5c eb c6 bd
       -0.09326653 0.17741568 -0.09655318 -0.0971286
000050 a0 c3 8e bd 1e 51 5f 3d 24 74 dc 3d d5 da ac 3d
       -0.06970906 0.05452072 0.107643396 0.084401764
000060 13 00 7f 3c db ce 88 bb 62 99 d3 bc a8 55 41 bc
       0.015563983 -0.0041750497 -0.025829975 -0.011800207
000070 0d ab c4 bd ea 33 1d be 53 27 83 3d 6c 53 fe 3b
       -0.09602938 -0.15351835 0.06403985 0.0077614095
000080 3a aa 95 3b 48 2f 06 be 27 3b 3c 3d c0 57 82 bc
       0.0045674117 -0.13103974 0.04595485 -0.015910983
000090 96 f5 29 bc 74 cc 85 bc a7 35 2e bc 8e 36 84 bd
       -0.010373494 -0.016332842 -0.010632909 -0.06455718
0000a0 7f 8c 17 be b3 eb cb bd 7d 5a 86 bd d6 54 96 3d
       -0.14799689 -0.099570654 -0.06560228 0.073404
0000b0 d2 94 8f 3c 9e 16 02 bd 8a 67 3a 3e 79 6e fb 3d
       0.017527018 -0.03175985 0.1820356 0.1227693
0000c0 1b 2f 5e bd 3c e1 ef 3d 4d 3e 3f bd 94 9f 06 be
       -0.054244142 0.11712882 -0.046690274 -0.13146812
0000d0 e9 3d bd ba c9 80 51 3e f1 fe 23 3e 2c 64 01 3e
       -0.0014438006 0.20459284 0.16015221 0.12635869
0000e0 34 11 aa bd 95 b0 90 bc 44 b8 fe bd 8c ab 12 bd
       -0.083040625 -0.017662326 -0.1243749 -0.03580813
0000f0 ff 37 f9 bd 55 05 b9 3d 80 be 89 bc 8d 93 bc bd
       -0.121688835 0.0903422 -0.01681447 -0.092078306
000100 49 d0 0f be 2e 94 8b bd 70 f9 27 be 04 f0 b9 bc
       -0.14044298 -0.068153724 -0.16403747 -0.022697456
000110 bb a7 cb bd bf 6d 29 3e 84 0a 27 3e 6b 60 a6 bd
       -0.099441014 0.16545771 0.16312605 -0.08123859
000120 86 1f 10 3e dc df e4 3d 31 69 63 3d 1f 52 c9 bd
       0.14074525 0.1117551 0.05552024 -0.098301165
000130 d1 c0 dd 3d a0 4e 84 3d 63 13 8b bd df 75 22 3e
       0.108277924 0.06460309 -0.06790807 0.15865277
000140 75 4c ea 3d a7 a9 26 3e 4c f1 26 3e 5b fb 2a 3e
       0.11440364 0.16275655 0.16302985 0.16697447
000150 dc 86 76 bb fc 5c 69 bd b8 4c fd bd e4 b2 3f 3d
       -0.0037617004 -0.056973442 -0.123681486 0.046801463
000160 10 47 8e 3c 4d 93 9b 3d 3a 69 81 3d e5 83 9d bb
       0.01736787 0.07596455 0.063188985 -0.004806983
000170 22 24 f2 3c ae 18 26 3e dc f5 dc bd b6 5d 51 3c
       0.029558245 0.16220352 -0.107890815 0.01277869
000180 a8 ce dd 3d 2f 0c 0d bc eb ce db bd 33 fc 80 be
       0.10830432 -0.008608862 -0.10732826 -0.25192413
000190 55 c4 f9 bc a2 eb 8c bc 35 df 63 3e cf 4c 64 3e
       -0.030489126 -0.017202202 0.22253115 0.22294925
0001a0 15 c8 65 bd ab 5c 30 3e fd 58 11 be 8d fb a1 bd
       -0.056099016 0.1722285 -0.14194103 -0.07909308
0001b0 7a d7 2a 3e fa d7 03 3d 4c 54 0f 3d 68 9d da bd
       0.1668376 0.032188393 0.0349925 -0.10674554
0001c0 41 9f d7 bd e5 f8 7e bc 0a 5d 4b bc 1d a0 0d bd
       -0.10528422 -0.015562271 -0.012412319 -0.034576524
0001d0 b2 ee 6d 3c d9 fa 92 bd c7 1b 35 be 4d 55 3d be
       0.014522241 -0.07176752 -0.17686377 -0.18489571
0001e0 dd 45 f1 bc 27 39 66 bb f5 12 97 3d 3b 52 13 be
       -0.029452259 -0.003512928 0.07376663 -0.14386837
0001f0 d9 d5 fc 3c 5e a3 88 bc 4a bc 0d 3e 99 59 2d bd
       0.03086369 -0.016679462 0.13841358 -0.042321775
000200 dc 76 59 be 81 f9 10 3e 17 51 89 3c 44 be 7a bd
       -0.21236748 0.14157678 0.0167623 -0.061216608
000210 83 6d 16 be a4 a9 06 3e d6 43 81 bd 0c e9 55 3e
       -0.14690213 0.1315065 -0.06311767 0.20889682
000220 77 d5 93 bd f8 83 57 3e 51 b9 9a bb 4d 43 11 3e
       -0.072184496 0.21046436 -0.0047217985 0.1418583
000230 5b 77 b2 3d 27 0c 12 be a2 e6 12 3d b1 ed 51 3e
       0.087141715 -0.14262448 0.03586448 0.20500828
000240 a5 b1 8f 3b cd 0c 22 bc 72 3e 16 3e ae d0 26 3e
       0.0043851906 -0.009890747 0.14672258 0.16290542
000250 f4 b6 0d bd 2a c3 9a bd e0 5e 8e 3c 6c be 86 be
       -0.034598306 -0.07556756 0.017379224 -0.26317155
000260 de c2 bd 3d 64 4b 13 3d 35 9c e5 3d 8b 39 31 be
       0.092656836 0.03596057 0.11211435 -0.17307107
000270 71 dd 83 3d 10 17 7f 3e 3f b1 8b bd f2 b5 08 3e
       0.06438721 0.24911141 -0.068209164 0.13350657
000280 0a 31 dd bd 49 02 6c 3b fc dc c2 bd d8 d0 5a bd
       -0.10800369 0.0036012104 -0.09514806 -0.053421825
000290 25 00 b0 3d ad cf 3b 3e 13 f9 a0 3e 54 9f 69 3e
       0.085937776 0.18340941 0.3144003 0.22814685
0002a0 f4 50 b6 bc 62 c2 65 3e 39 46 11 be ee 66 59 bd
       -0.022255398 0.22437432 -0.14186944 -0.053076677
0002b0 77 64 1c 3e 89 82 6d bc 16 fa 13 be fb cf c7 bd
       0.152727 -0.014496454 -0.14450869 -0.09756466
0002c0 57 d2 8c 3c 11 c2 47 be 39 93 54 3b 2b 83 37 be
       0.017190142 -0.19507624 0.0032436384 -0.1792113
0002d0 9d 36 8b 3d 72 a3 1c be d2 a4 ee 3c ef 90 c6 bd
       0.06797526 -0.15296724 0.029131327 -0.09695613
0002e0 07 51 be 3c 03 8a e1 bc 5b 40 bd 3d e1 e9 07 be
       0.023231996 -0.02753163 0.092407905 -0.13272811
0002f0 9e 21 66 bd 48 bf 8d 3e 0d a8 24 3e 97 98 a6 be
       -0.056184404 0.27685 0.16079731 -0.32538292
000300 2d 75 2c be 4b fe ad bc 43 1f cf 3d 8d 51 70 bc
       -0.16841574 -0.02123942 0.101133846 -0.014667881
000310 0c 26 10 be c0 26 1a 3d 56 d0 dc bc e6 81 f6 3d
       -0.14077014 0.03763461 -0.026954811 0.12036495
000320 93 48 0c 3c 07 ff 88 3b 06 4a 53 3d 4e f1 eb bd
       0.008562225 0.0041807923 0.051584266 -0.115206346
000330 5c 01 26 3e 1c 81 59 be db ec 97 bd 94 28 c3 bd
       0.16211456 -0.21240658 -0.074182235 -0.09529224
000340 4d d1 ab bd 6c 9d 1a be 00 d9 42 3e 13 e0 79 bc
       -0.0838953 -0.15099114 0.19028091 -0.015251177
000350 3d cd 37 be 10 1a d5 3d 8b c3 3e 3e 6e d5 7e 3c
       -0.17949386 0.10405362 0.18629281 0.015553815
000360 e0 ee ea bd 1e 34 79 bd c6 8c e4 ba 95 4e 9d bd
       -0.11471343 -0.06084072 -0.0017436973 -0.07681004
000370 80 56 40 bd b6 f3 f3 3c 03 d6 23 3e 1e b9 ea 3d
       -0.046957493 0.029779296 0.15999608 0.114610896
000380 79 85 8c 3c ae 9d 15 be 72 a6 a6 bd 0a dd 12 be
       0.017153488 -0.14610931 -0.08137216 -0.14342132
000390 0a 85 69 3c 5b 9d e0 bd 7a 03 66 3e 4c a7 46 bc
       0.01425291 -0.10967513 0.22462264 -0.012124848
0003a0 c5 5c 2a 3e ed 8d 4e bd f2 32 19 3e ad 67 d1 3d
       0.16636951 -0.05042832 0.1496084 0.10224853
0003b0 18 61 4e 3e bb 70 b5 3b 2d 53 15 be 68 2a 12 3e
       0.20154226 0.00553712 -0.1458251 0.14273989
0003c0 da 31 41 bd 09 ec 5c be 3e 72 13 3d db 81 9e 3d
       -0.047166683 -0.21574415 0.03599762 0.07739612
0003d0 3c 5c 1f 3d ed b7 07 be c8 bc 23 3d ae 9c f9 bd
       0.03890632 -0.13253756 0.039974958 -0.121880874
0003e0 e0 1e 38 bd 11 7d 64 3d 2b 90 33 3e fb df 77 3d
       -0.04495132 0.055783335 0.17535464 0.06051634
0003f0 8d 12 ab 3c 56 a2 a7 3d eb 13 e1 bd b1 d8 12 be
       0.02088287 0.0818526 -0.10990127 -0.14340474

layers.0.attention.in_proj_bias f4 [192]
000000 2f 93 6d 3d 57 42 2e bc fd 03 2e bd 58 99 cd bc
       0.058001693 -0.010635934 -0.042484272 -0.025097534
000010 09 c7 59 3d 2f 0b a9 bd 5c 2c a0 bd 8d 99 b7 bc
       0.05316833 -0.08254086 -0.07820961 -0.022412086
000020 64 a0 f2 bb c4 82 3a bc ea dd f5 3d 26 de bc bc
       -0.007404374 -0.011383716 0.120052174 -0.023055147
000030 1c 2c 47 bd de bd 81 3d 46 91 51 3c d1 4e ea bc
       -0.04862605 0.063350424 0.012790984 -0.028602036
000040 2c 92 95 39 9d ae b4 39 86 61 46 3c 14 a5 51 3c
       0.000285284 0.00034462372 0.012108212 0.012795705
000050 eb 14 fe bc 76 27 83 3a 1e 9c 84 3a 6d f3 ed bc
       -0.031015834 0.0010006267 0.0010117327 -0.029046739
000060 00 d4 e4 3a 6e 2b 47 3b 60 88 d5 3b 24 f6 38 bc
       0.00174582 0.0030390876 0.0065165013 -0.011289153
000070 cf 03 12 bb c8 40 e7 bc 37 d3 8d bb 02 2a 45 bc
       -0.0022280102 -0.028229132 -0.0043281573 -0.012033941
000080 ce 4a 93 bb b1 de a9 bc 1e c0 16 3d de d1 b1 3b
       -0.0044950014 -0.02073607 0.03680431 0.0054266294
000090 76 74 25 ba 7e aa 1c bd 66 e6 1b 3c dd 87 3c 3d
       -0.00063116045 -0.03824853 0.0095153805 0.046028007
0000a0 d4 0b d9 3b ac f6 1d 3c 0f 52 4a bb 23 1c 09 bc
       0.0066237245 0.009641331 -0.0030871665 -0.008368525
0000b0 1a da 21 bc 2b cd 7a ba b0 a5 13 3c b7 c0 84 bc
       -0.00987866 -0.00095673156 0.009011671 -0.016205175
0000c0 13 53 eb bb e4 7a d2 bd 89 d2 ab 3a ed c2 df b8
       -0.007181534 -0.10277346 0.0013109009 -0.000106697764
0000d0 27 1c be bb d0 f9 14 3c 6e d9 bf 3c 03 fc 44 bb
       -0.005801696 0.009092763 0.023419108 -0.0030057437
0000e0 4b 1a a9 bc 3a 6d db bc 1d 10 ac 3c e0 44 c3 bc
       -0.02064242 -0.026785482 0.021003777 -0.023836553
0000f0 82 2c 58 bc fb 61 26 3c 8f 43 a3 bb 72 6b 48 bb
       -0.013194205 0.010155196 -0.004982419 -0.003058162
000100 19 2b dd ba 3c d6 7c 39 ae cf 8c 3a d9 c0 cb 39
       -0.0016873806 0.00024112401 0.0010743046 0.0003886286
000110 20 0e e2 ba d0 e8 87 3b 0f 3b b4 ba 9b a9 a6 bb
       -0.0017246641 0.0041476265 -0.0013750511 -0.0050861365
000120 40 cc b4 3a 08 79 bf 39 c2 83 a3 bb ef 9b b0 3b
       0.0013793781 0.00036520534 -0.004990072 0.0053896825
000130 f8 d2 02 3a 8e e7 07 bb 2d 0d 2a bb e7 00 54 3b
       0.0004990543 -0.0020737383 -0.0025947795 0.003234917
000140 10 be f5 39 b0 9e be 37 01 e4 24 39 e6 6e 6c 38
       0.0004687165 2.272366e-05 0.00015725197 5.6370067e-05
000150 95 a1 55 39 3a 6c c6 b8 66 8c 43 39 50 98 46 39
       0.00020373457 -9.4615345e-05 0.00018648952 0.00018939492
000160 f1 d0 ee b8 f6 27 62 38 7b 98 a0 b9 b7 ee 9b 38
       -0.00011387643 5.3919815e-05 -0.00030631185 7.43544e-05
000170 a6 ff a1 b8 5a 36 60 b9 00 9d 3c b9 64 71 48 39
       -7.7246965e-05 -0.00021382552 -0.00017987564 0.00019115728
000180 0e fe 35 37 39 d8 d7 b8 14 f7 2b 39 a0 6a 9b b8
       1.0847592e-05 -0.000102922735 0.00016399875 -7.4108364e-05
000190 47 b0 8c 36 82 34 aa 39 6b 7d b5 39 5a fc ca b9
       4.1928465e-06 0.00032464048 0.00034616454 -0.0003871646
0001a0 48 0a 21 39 4b f9 37 39 e8 00 56 b9 b8 ad ff b8
       0.00015357987 0.00017545109 -0.00020408968 -0.00012191705
0001b0 06 f2 23 38 1f 1e c4 b9 da e8 4f b9 e4 21 37 39
       3.908763e-05 -0.00037406475 -0.00019827802 0.00017464865
0001c0 97 9b e8 3a fa 00 43 3b c6 3e 62 ba 83 91 68 3a
       0.0017746565 0.002975522 -0.000863057 0.00088717806
0001d0 34 83 92 38 2d 23 1d 3a f6 20 8d ba 09 1b 20 3b
       6.986261e-05 0.00059943163 -0.0010767269 0.0024430177
0001e0 da 94 7c 3a 6b 0a 0c 3b 42 02 85 ba 09 9a 74 39
       0.0009635218 0.0021368514 -0.0010147768 0.00023327036
0001f0 37 2f e7 3a db 31 2d ba 0d 12 27 b9 31 1e 36 3a
       0.0017637972 -0.00066068553 -0.00015933086 0.0006947248
000200 40 a5 11 bb 9f 11 1e 3c 5a 86 1c 3b 25 29 0a 3c
       -0.002222374 0.009647756 0.002388379 0.008432661
000210 57 74 78 3c 31 57 f4 bb ca 9f 40 3c d5 c1 5d 3c
       0.015164456 -0.007456683 0.011756847 0.013534983
000220 fe c7 01 3c 42 64 d4 3b 8d 1f 0c bc 9c d6 d1 bb
       0.007921217 0.006481678 -0.008552444 -0.0064037573
000230 7a dd aa ba d3 c8 ad bc 41 4c 81 3c d0 29 55 ba
       -0.0013035976 -0.021213925 0.015783431 -0.0008131536
000240 61 07 17 bc 46 0c 6f ba b1 1e fa 3b 2c 1b a0 3b
       -0.009218068 -0.00091189553 0.007633053 0.0048860516
000250 3a bc 19 3c 39 c3 85 ba 00 bd 00 bc 83 e3 9a ba
       0.009383256 -0.0010205276 -0.007857561 -0.0011817071
000260 13 68 d5 bb 2e 51 82 3b 77 e1 29 3b 49 c4 08 bc
       -0.0065126508 0.0039769625 0.002592174 -0.008347579
000270 8d 64 4f bc 1c 74 aa 3c 80 be 18 bc 30 92 45 3c
       -0.0126582505 0.020807318 -0.0093227625 0.01205878
000280 0b 10 c0 bb d0 c7 63 bb 0b f7 95 bc cc dc eb bb
       -0.0058612875 -0.0034756549 -0.018306276 -0.007197952
000290 11 1f 9c bb 33 f7 89 3c 75 32 25 3c 2f b7 22 bc
       -0.0047644456 0.016841507 0.010082831 -0.00993137
0002a0 4b f6 a5 bb 95 24 90 3c fb b9 93 bb 63 8a f8 3a
       -0.005064761 0.017595569 -0.0045082546 0.0018962141
0002b0 e5 09 9d 3c b2 bf d7 bb fb b3 82 3c 1d de e7 ba
       0.019169757 -0.006584131 0.015954962 -0.0017690096
0002c0 4a e3 5d ba 39 ff b4 3a 06 75 b2 ba 8c 76 09 3b
       -0.00084643497 0.0013808972 -0.0013615198 0.00209752
0002d0 fc e6 04 bc 02 77 8f bc 66 bc 33 bc df 8f 38 bc
       -0.008111712 -0.017512802 -0.010970211 -0.01126477
0002e0 ac dd 74 3b 07 c0 9f bb 86 97 23 bc f6 e1 fa bb
       0.0037363572 -0.0048751864 -0.0099848565 -0.007656331
0002f0 b2 77 1a 3b 31 7c fe ba 4c 91 ad 3c d9 22 09 bc
       0.002356988 -0.0019415674 0.021187447 -0.008370125

layers.0.attention.out_proj.weight f4 [64, 64]
000000 c8 7f 18 3c 32 1f 0e bd fa 17 80 bd b4 ab f1 bd
       0.009307809 -0.03469772 -0.06254573 -0.11800328
000010 f8 a5 2d bd cd b8 5d bd 10 2a 6d bc eb a1 fd bc
       -0.04239461 -0.054131318 -0.0144753605 -0.030960998
000020 d9 f1 90 3d 44 71 1c 3e 5c 67 55 3c 83 cb 62 3b
       0.07077379 0.15277582 0.013025131 0.0034606166
000030 26 ef 7a bd ac 81 ec 3c 64 c8 ac 3d 18 51 91 bd
       -0.061263226 0.028870426 0.08436659 -0.070955455
000040 c6 8f 49 3d 60 fe da 3d 04 62 77 bd 0e a0 74 3c
       0.04920938 0.106930494 -0.06039621 0.014930738
000050 2e 92 5c bd a3 f3 d4 3c a2 44 bc 3d 4b 9b e5 3c
       -0.053850345 0.025995081 0.09192778 0.028028151
000060 83 a5 2d bd 44 a8 82 3d 81 a1 26 bd 93 46 74 bd
       -0.042394172 0.0637975 -0.040681366 -0.059637617
000070 2a d0 4b 3d 5f 20 f4 bd 3f 59 b6 3d 05 da f2 bd
       0.049759068 -0.11920237 0.08903741 -0.1185799
000080 a1 56 27 bc f3 f0 95 bc 3f 01 b0 3d 40 b4 75 3d
       -0.010213525 -0.01830337 0.08593988 0.059986353
000090 76 75 0d bd f1 00 dd 3d d2 00 93 3c c5 f0 f2 bc
       -0.034535848 0.10791195 0.017944727 -0.029655823
0000a0 6e 4a df 3b ff 96 53 bd 04 39 38 3c 6c fb 4d bb
       0.0068142926 -0.051657673 0.011244062 -0.0031430377
0000b0 3d 8b 8f 3d 53 98 a0 bd 9b b9 ca 3c b2 64 81 3d
       0.070089795 -0.078415535 0.024746707 0.06318034
0000c0 b8 c7 04 3e d9 61 32 3c 65 e8 e9 bc 04 25 af bd
       0.12966812 0.0108875865 -0.028553197 -0.08551982
0000d0 4d 37 1b 3c f3 c3 ad bd 62 5e 50 bb cd a7 e6 bd
       0.009473634 -0.0848464 -0.0031794538 -0.11262474
0000e0 08 9c ad bd 17 b8 fa bc 97 53 a4 bd 3b c3 23 3d
       -0.08477026 -0.030605359 -0.08023756 0.03998111
0000f0 2e 42 c7 bd af f0 b4 bd f1 29 a4 bd 5d de 13 3d
       -0.0972942 -0.08834969 -0.08015812 0.036100734
000100 74 3b 06 3c 47 08 98 bd b6 a1 b1 3d 79 8f 5b 3d
       0.008192886 -0.07423454 0.08673422 0.053603623
000110 bf ae 93 bd 37 cd 93 bd 48 85 22 bd 07 aa b1 bd
       -0.072110645 -0.07216876 -0.03967789 -0.08675008
000120 48 b0 13 3d 34 bc 31 3d 0d ea 76 3d 5a 2d cf bd
       0.036056787 0.043392375 0.060281802 -0.10116072
000130 21 80 1e 3d 38 c1 fe 3d 2d aa 91 3d c4 9b df bc
       0.038696412 0.12439197 0.071125366 -0.027295955
000140 2e 2f c2 3c bb 7b bd 3c 8e 2f 37 bd 04 61 8c bc
       0.023704138 0.023130288 -0.044723086 -0.017136104
000150 06 50 70 bc 18 df 25 bd 8f ab df 3c e2 e4 dc bd
       -0.014667517 -0.040495962 0.027303485 -0.107858434
000160 9f a7 9e bc 06 6c 12 be ee 69 a5 3d db 92 cd bd
       -0.019367037 -0.1429902 0.08076845 -0.10037776
000170 2d 9c 4f bd ed 72 95 3d 4c 83 df 3d 91 ed b7 3a
       -0.05068605 0.07297311 0.10913715 0.0014032592
000180 6a e3 a8 bc 70 cf 5a bd 13 5e 9e 3d 74 a2 fa bd
       -0.020616252 -0.053420484 0.07732787 -0.12238017
000190 85 99 10 bd eb cd fe bc 7e 32 de bb 8c 66 05 be
       -0.035302658 -0.031104049 -0.0067809215 -0.130274
0001a0 04 a7 78 3d b4 43 a2 3c 7f 5c db bd ea d3 c2 3d
       0.060706154 0.019807674 -0.107110016 0.09513076
0001b0 3b 3e 9f 3d b1 ba 8f bd 35 d6 db 3c 7d 23 c9 3d
       0.077755414 -0.070180304 0.02683554 0.09821222
0001c0 c8 ce b9 3d f9 33 91 3d 68 d3 3f bc 0b 2b 6c 3d
       0.090726435 0.07089991 -0.011708118 0.057658236
0001d0 e5 c7 26 bc 81 b2 41 3d dc 58 ba bb b3 25 92 3d
       -0.0101794945 0.047289375 -0.0056868624 0.07136097
0001e0 80 4b 44 bd 46 33 a2 bc 21 a1 03 bd ef e4 27 3c
       -0.047923565 -0.01979984 -0.032136086 0.010247453
0001f0 83 b4 82 3d f9 a8 ae bc e1 8f 6a bc 48 87 5b 3c
       0.06382086 -0.021320807 -0.01431653 0.013398953
000200 e7 9e be 3d 8d 20 d8 3c 76 f4 55 bd 54 ff 83 bd
       0.09307652 0.026382709 -0.05223509 -0.06445184
000210 a1 3c 85 3d 71 fe 42 bd c0 0d a0 bc 38 3c 86 3d
       0.06505705 -0.047605935 -0.019537807 0.065544546
000220 88 74 1e bd f4 ce 10 3d b3 fc 70 3d 5d 16 f9 3d
       -0.03868535 0.035353616 0.058834743 0.121624686
000230 32 b3 d7 bd 91 59 f1 bd 20 33 97 3d 00 d0 83 3a
       -0.10532226 -0.117846616 0.07382798 0.0010056496
000240 ed 46 f6 3d e3 cf b6 3d 13 ee 87 bd 11 28 9b 3d
       0.12025247 0.0892637 -0.06637206 0.075760014
000250 e3 e4 00 3d 55 3d 92 3d 87 86 67 bd 75 5b 04 be
       0.031468283 0.071406044 -0.05652478 -0.12925513
000260 69 fc 0f 3d 46 39 82 bb 59 c8 cc bd 37 98 d9 bc
       0.035152826 -0.0039741127 -0.09999151 -0.02656184
000270 dd a8 d6 3c ce 8e c8 3d 65 1e 03 3b 32 b7 a2 3d
       0.026203567 0.09792863 0.002000713 0.07945098
000280 9b 12 a8 bd 8d 24 f4 bd 85 9d 88 bd 75 ef 94 3d
       -0.08206674 -0.11921034 -0.066706695 0.07272235
000290 19 f6 f3 bc 8a 96 d6 3c 67 fb da bc d6 3c 0b 3d
       -0.029780434 0.02619483 -0.026731206 0.033993565
0002a0 86 b0 88 bc 8d 7c 86 bc fe d9 4f 3c ad 21 2c bd
       -0.016685735 -0.016416812 0.012686251 -0.042024303
0002b0 3e 70 93 bd 11 1b 5d bd 29 f3 85 3d 8d d6 0c bd
       -0.07199143 -0.05398089 0.0654052 -0.0343843
0002c0 dc 16 b9 3a 9b 8e 8e bd 70 7f 5a bd ab 3b 17 3d
       0.0014121193 -0.069607936 -0.05334419 0.03692214
0002d0 d1 b8 b6 bd 3a ce d0 3d 10 a9 fe 3d 20 c5 82 bc
       -0.0892197 0.101955846 0.1243459 -0.015963137
0002e0 c9 03 0e 3e e3 7e 34 bd c4 fe 5f bd 3b 38 fe bd
       0.13868631 -0.04406632 -0.054686323 -0.12413069
0002f0 91 26 3e 3d de 11 fe bd b8 02 72 3a 85 ec 68 bd
       0.0464235 -0.12405752 0.00092319725 -0.056866188
000300 7e 8a b0 3d d8 f5 3f 3d 64 15 91 3d a5 0a 1b 3d
       0.08620165 0.046865314 0.07084158 0.03785195
000310 3c d4 01 3e 37 45 e8 3d 1d 66 ac bb c6 ad 12 bc
       0.12678617 0.11341327 -0.0052611963 -0.008952564
000320 05 35 40 bd 11 1a 00 be e2 c2 73 3d ef 05 4e bd
       -0.046925563 -0.12509944 0.059512027 -0.050298627
000330 45 41 02 3d 16 c9 07 3d 41 60 5a bd 27 48 dd bd
       0.031800527 0.033150755 -0.05331445 -0.108047776
000340 1d c6 55 3d 92 f5 9e 3d af 86 13 3d b9 1f b8 3d
       0.05219089 0.077616826 0.036017116 0.089904256
000350 a5 ec 20 3d 63 20 1a bd 17 8c b1 bd 76 e3 c7 bd
       0.03928818 -0.037628543 -0.08669298 -0.097601816
000360 3e b7 92 bd 92 4d 3a bd 4d e1 ff 3d e8 0c 89 bd
       -0.07163857 -0.045484133 0.124941446 -0.06691915
000370 f6 1e b4 3c 1a a4 bc bd ae 1c 58 bd 85 fe b6 3c
       0.02198742 -0.092109874 -0.052761726 0.022338161
000380 03 a7 cb 3d a2 9a 83 3c 71 85 ce bd 6b c0 7b 3d
       0.09943964 0.016064946 -0.10084046 0.0614628
000390 23 c3 86 bd f6 42 15 3d 76 6f 6d bc d1 e4 53 3b
       -0.06580188 0.036440812 -0.014491906 0.003233243
0003a0 d9 3f b0 3d 81 01 23 3d 87 e6 01 3d 79 f4 cc 3c
       0.08605928 0.039796356 0.03171399 0.025018917
0003b0 9e 27 f7 bc c0 0b 55 bd 1a ef 94 bc 7b 27 4b bd
       -0.030170258 -0.05201316 -0.018180419 -0.0495982
0003c0 ec 15 b0 3d 7f cc 4e bd a8 05 c1 3d cd 68 10 be
       0.08597931 -0.05048799 0.09424907 -0.14102478
0003d0 2b e0 1e bc 96 50 c6 3d b5 b9 b5 3d f3 46 0c be
       -0.0096970005 0.09683339 0.088733114 -0.1369894
0003e0 8c 79 da bd 17 df ad bd 58 c4 bc bd fd de f2 3c
       -0.106677145 -0.08489817 -0.09217137 0.029647345
0003f0 0a cb f0 bd a2 4e 6b bd 97 4b 5f bc a7 8a a7 bd
       -0.11757477 -0.057448037 -0.013628862 -0.08180743

layers.0.attention.out_proj.bias f4 [64]
000000 23 7a 67 3b 04 e9 4b 3b cc 15 de 3b 8c de 2d bb
       0.0035320602 0.003111423 0.0067775007 -0.0026530353
000010 79 57 a9 bb e4 91 9b 3b f7 eb 90 3b bf 7a 7e bc
       -0.0051678983 0.004747616 0.0044226605 -0.015532195
000020 bf b5 e8 b8 ab 42 a1 3b e5 c8 32 3a 11 ce 08 bc
       -0.00011096475 0.0049212775 0.0006820097 -0.008349911
000030 25 77 ca ba 30 68 3e bc 59 5c a9 3b a1 75 7e 3b
       -0.0015446885 -0.01162152 0.0051684794 0.0038827437
000040 75 f9 30 3c 83 43 e3 bb 30 e4 14 3c a7 ef 6b 3c
       0.010801663 -0.0069355383 0.009087607 0.014400399
000050 4f 2d a9 ba a4 be 8c b8 1d 80 76 bc 15 7e aa 3a
       -0.001290718 -6.71123e-05 -0.015045193 0.0013007546
000060 b9 a1 5a ba 26 f5 86 bc b0 74 36 3c 12 09 24 bc
       -0.00083401386 -0.016474318 0.011136219 -0.010011928
000070 77 40 d3 bb 42 5c 85 3b 2f 5e d9 bb f8 83 f4 bb
       -0.006446894 0.004069836 -0.006633542 -0.007462021
000080 da 52 2f bc 9d 8d 63 bb a6 5f 80 bc 7f 78 f1 3b
       -0.010700906 -0.003472186 -0.015670609 0.0073691006
000090 2e d4 97 3b c0 be 74 bb 25 b6 50 3c 33 57 bd bb
       0.004633448 -0.0037345141 0.012738739 -0.005778217
0000a0 25 d4 19 3c 6a 14 3d bc da 4a 18 3b 75 1b a6 3a
       0.009388958 -0.011540512 0.0023237974 0.0012672978
0000b0 c5 03 22 bb bb 6a dd 3b 2e f1 f9 3a fa 69 6b bc
       -0.0024721485 0.006757108 0.001906907 -0.0143685285
0000c0 af cf cc bb 9a 43 13 bc f4 1d 28 ba 16 be fa 3b
       -0.0062503438 -0.008988285 -0.0006413155 0.0076520545
0000d0 6b 85 4f 3b 67 fb 93 b9 10 ae ce bb a4 88 c3 ba
       0.0031665217 -0.00028225334 -0.006307371 -0.0014918041
0000e0 a6 66 b5 ba fc c5 d8 3b 99 7e 3a 3c aa fa 29 3b
       -0.0013839796 0.0066153985 0.011382722 0.002593676
0000f0 f3 df d9 3b 0b b4 35 3b 7f 61 4a 3c 70 0d ea bb
       0.0066490113 0.0027725722 0.012352346 -0.007142715

layers.0.norm2.weight f4 [64]
000000 55 91 87 3f f9 c0 7e 3f f5 b5 7b 3f e8 47 89 3f
       1.0591227 0.995132 0.9832452 1.0725069
000010 04 84 80 3f 88 60 81 3f c3 86 82 3f 86 b2 7f 3f
       1.0040288 1.0107584 1.0197376 0.9988178
000020 06 fa 7c 3f 30 e6 7e 3f ef 67 80 3f 78 28 7b 3f
       0.98819005 0.9956999 1.0031718 0.98108625
000030 fe a8 7f 3f 5b 88 7a 3f f5 db 7c 3f 88 17 88 3f
       0.99867237 0.9786431 0.9877313 1.0632181
000040 6d f7 82 3f 73 1f 7f 3f 95 a2 86 3f 9e 62 7c 3f
       1.0231758 0.9965736 1.0518366 0.9858798
000050 8a 5c 7c 3f c3 30 81 3f 9e a0 7c 3f bc a1 81 3f
       0.98578703 1.0093006 0.9868258 1.0127482
000060 cd be 79 3f bd 51 7f 3f 12 e5 84 3f 8c 5e 80 3f
       0.97556764 0.997341 1.0382407 1.0028853
000070 71 78 87 3f bd 03 81 3f a1 1a 73 3f 7f 05 85 3f
       1.0583631 1.0079266 0.9496251 1.0392302
000080 ae d8 85 3f 55 c9 79 3f 54 de 80 3f c6 a2 80 3f
       1.045675 0.97572833 1.0067849 1.0049675
000090 7f 79 81 3f 21 23 86 3f 94 06 7e 3f 0c a1 85 3f
       1.0115203 1.047947 0.9922879 1.0439773
0000a0 f1 7c 86 3f b6 37 82 3f c4 99 82 3f 8a 3e 7d 3f
       1.0506879 1.0173252 1.0203176 0.9892355
0000b0 30 f8 81 3f 84 72 83 3f 6e 79 81 3f 51 2b 7f 3f
       1.0153866 1.0269322 1.0115182 0.9967547
0000c0 83 1d 76 3f 9a dc 7e 3f 3e e2 84 3f 66 b7 7d 3f
       0.9613878 0.9955536 1.0381544 0.9910797
0000d0 f6 7a 7f 3f 6f 04 7c 3f c2 55 80 3f 64 4e 81 3f
       0.99797 0.98444265 1.0026171 1.0102048
0000e0 e8 ac 85 3f 37 9e 80 3f f8 9e 80 3f c7 ff 83 3f
       1.0443392 1.0048283 1.0048513 1.0312432
0000f0 6b f5 82 3f 0c 24 81 3f 67 18 81 3f 21 8a 81 3f
       1.0231146 1.0089126 1.0085572 1.0120279

layers.0.norm2.bias f4 [64]
000000 ee c2 cf 3c 41 76 bc 3a fc a4 af bb 2b 95 71 bc
       0.025361504 0.0014378504 -0.005360244 -0.014745037
000010 d6 5b ce bb 39 64 4a bc de 6a 64 bb 12 4c 11 3d
       -0.006297569 -0.0123529965 -0.0034853737 0.035472937
000020 ff 18 cd bc 1a c1 db 3b f8 67 8b 3c e9 3c 21 3d
       -0.025036333 0.006706369 0.01701735 0.03936473
000030 d3 34 0b 3c 56 d5 de bc b1 c6 06 bd db a2 44 bb
       0.008496481 -0.027201336 -0.03290433 -0.0030004296
000040 42 26 1e 3c 24 73 d1 39 68 38 72 3c d0 42 af bc
       0.009652676 0.00039949373 0.014783956 -0.021394163
000050 d6 93 4a 3b 01 ef 43 bc c0 e9 ee 3b 7e 0c c4 3b
       0.003091087 -0.011958838 0.0072910488 0.0059829345
000060 de 73 22 3c e7 f3 90 3c 92 f0 2d bc cc 3d d3 3a
       0.00991532 0.017694427 -0.010616438 0.0016116439
000070 99 d5 c8 bc 28 94 0d 3c 85 42 78 bd 16 2c 18 3c
       -0.024515914 0.00864128 -0.060610313 0.009287855
000080 94 7b 40 3b 5d 61 a1 bc 50 25 6d 3c 06 93 02 bc
       0.0029370533 -0.019699747 0.014474228 -0.007969623
000090 cf 6f 81 bc 11 39 e1 3b 0b e5 6d bc 19 fb 4c 3c
       -0.015800385 0.006873258 -0.01451994 0.012511038
0000a0 4d 65 96 39 ff 80 f1 3b e7 d0 8e bb a5 55 25 3d
       0.00028685704 0.007370114 -0.004358399 0.04036488
0000b0 28 92 5c 3c 98 ad 31 3c 6b b9 69 bb b1 70 e9 bb
       0.013462581 0.010844611 -0.0035663496 -0.0071240296
0000c0 02 5d 25 bd b8 b9 79 b9 a5 56 ab ba 12 03 bc bb
       -0.040371902 -0.00023815676 -0.0013072087 -0.0057376707
0000d0 72 23 fd 3b 7c 2b 3a bd 00 33 0d bd 0c 74 7d 3c
       0.0077251727 -0.045451626 -0.034472466 0.015469562
0000e0 17 7d 5c bb 12 73 20 bc 2e 58 28 3b 2e d7 16 3c
       -0.0033643895 -0.00979306 0.0025687325 0.009206576
0000f0 20 64 09 bd f6 94 c6 bb 1f 75 94 bc 57 70 88 3c
       -0.033542752 -0.006060238 -0.018122254 0.01665513

layers.0.ffn.0.weight f4 [256, 64]
000000 80 43 b0 bc f3 7d 24 bd 83 25 be bd 9d fd bd bd
       -0.021516562 -0.040159177 -0.092844985 -0.092768885
000010 71 0d e4 3b 85 f5 6c 3b 50 1d 58 bd 6e a1 0d 3d
       0.00695961 0.0036157083 -0.05276233 0.03457778
000020 97 1a 85 bd e4 93 ff 3c 61 82 db 3a a8 50 3d 3d
       -0.06499212 0.03119845 0.001674723 0.046219498
000030 d9 38 1e 3d 69 ea 58 3c 50 e2 65 bc cd 73 ef 3d
       0.038628433 0.0132394815 -0.014031008 0.11692009
000040 99 ad 41 3d a4 64 a7 bd a2 77 bd 3c 41 05 de 3d
       0.047284696 -0.081734926 0.023128334 0.10840846
000050 c9 c2 b9 3d 85 c5 83 3d 9b 7a c4 3d 1a 50 c5 bd
       0.090703554 0.06434158 0.09593698 -0.09634419
000060 b8 cd f4 bd 3b 4a 84 3c ef b5 cf bd 67 07 f5 bd
       -0.119533 0.016148677 -0.10142123 -0.119643025
000070 85 14 8b bd cf ff a0 bc a8 2c 15 bd 08 96 a5 3d
       -0.06791023 -0.019653229 -0.03641954 0.08085257
000080 17 c3 1a 3d fc 87 e7 bc d0 9a cc 3d d5 c6 f8 3c
       0.03778371 -0.028263085 0.09990466 0.030368248
000090 d7 37 58 bd 67 f8 a2 bc 70 15 92 3d e4 7e 37 bd
       -0.052787628 -0.019893838 0.07132995 -0.044798747
0000a0 13 45 cc bd fc 7a 08 bd 6a 12 00 3e 82 d9 47 bd
       -0.09974112 -0.033320412 0.12507024 -0.048791416
0000b0 61 77 48 3d 0e e2 66 bd ad a5 89 ba a1 f7 d3 3d
       0.048941974 -0.056367926 -0.0010501646 0.10349966
0000c0 73 c9 87 3d c3 d4 53 bd d1 77 0c bc ab 8e 5d bd
       0.0663022 -0.051716577 -0.008573488 -0.054091137
0000d0 6a 2c 01 3d 33 e9 a7 3d 25 46 d6 3a 62 04 bf 3d
       0.031536497 0.08198776 0.0016347809 0.09327008
0000e0 e4 39 28 bd f6 7d 6f 3d 58 86 db 3d 64 b6 c2 3d
       -0.041070834 0.058469735 0.107189834 0.095074445
0000f0 fb b5 98 bd 58 f6 66 3d a2 ad 1c bd 4a d4 a0 bd
       -0.07456585 0.056387275 -0.038251527 -0.07852991
000100 42 8a f1 3c 66 79 d7 3d c2 c8 a3 bc b0 a0 8d bc
       0.029484872 0.10521202 -0.01999319 -0.017288536
000110 b7 bb da bd 4c 46 a7 bd a5 1b 07 3d 30 f2 bc 3c
       -0.10680335 -0.08167705 0.03298535 0.023064703
000120 4c 41 3b 3d 74 3c 10 3d f3 ed ed bc d5 90 80 3d
       0.04571657 0.035213903 -0.029044127 0.062776245
000130 4c ac e3 3d 5e e3 96 3c 40 78 55 3d 32 9c b3 bd
       0.111168474 0.018418964 0.052116632 -0.08770026
000140 df b1 ae 3c 02 7d 82 bb 3c fa cc 3d 32 1c 96 bd
       0.02132505 -0.0039821872 0.10008666 -0.073295966
000150 3a b8 f7 bd 6a 3c 2d 3d 44 46 d6 3d 2d e8 d0 bd
       -0.12095685 0.042293943 0.10462621 -0.10200534
000160 ea 39 a7 3d 94 6d 2a 3d fd 24 b6 3d 5b 8a 43 bd
       0.08165343 0.041608408 0.08893774 -0.047739368
000170 63 a2 ef 3d 0c a3 e6 3d 6b 47 19 3d e3 44 94 3d
       0.11700895 0.112615675 0.037421625 0.072397016
000180 dc 2e 03 3d 37 9d bb bd 6f 21 58 3d 56 a2 1d 3d
       0.03202711 -0.09160846 0.05276626 0.038484894
000190 55 43 84 3d 7e ee 5b 3c cc e5 7b bd 5e 1e b6 3d
       0.06458155 0.01342356 -0.06149845 0.08892511
0001a0 df c1 d9 bd 06 cf e1 bd c9 ea be bb d7 ab 9f bc
       -0.10632681 -0.11025815 -0.0058263284 -0.01949112
0001b0 c8 4f 47 bd dd 50 2c 3d e5 1d c9 3d f7 fc a5 3d
       -0.04866007 0.042069305 0.09820155 0.0810489
0001c0 85 15 3b 3d d5 bd b5 bc da cd 33 bd 8a 21 d2 3d
       0.04567482 -0.022185246 -0.043897487 0.10260303
0001d0 b3 f0 2a 3d 40 34 b4 bc ac 13 a2 3d 95 19 b6 3d
       0.041733455 -0.021997571 0.07913908 0.08891598
0001e0 49 d3 72 3c 6c 59 a4 3d 26 ff 05 be 05 de f9 bd
       0.014820882 0.08024868 -0.13085613 -0.1220055
0001f0 70 1d a1 3d 6a d3 ca 3c 97 20 01 bd 46 38 d4 3d
       0.07866943 0.024759013 -0.03152522 0.10362296
000200 c0 8d 28 3d 1e 96 83 bc 37 d2 d2 bc a9 7b 96 bd
       0.04115081 -0.016062792 -0.025735004 -0.07347805
000210 ab ef 54 3d 0c 8d 96 3d 42 24 b9 3d 9a dd 5b 3d
       0.051986378 0.07351121 0.09040119 0.053678133
000220 4d ef cc 3d 49 52 80 3d 37 36 ad 3d b4 e4 1c bc
       0.100065805 0.06265695 0.08457606 -0.009576011
000230 a3 4e 14 3c 8d 2b 05 be 8e f2 1f 3c 4c 7c c6 3d
       0.009051952 -0.13004895 0.009762419 0.096916765
000240 19 ad 9f 3d 25 bf 57 bd 49 ff 7e 3c 68 f2 c0 3c
       0.07796688 -0.052672524 0.015563794 0.023553088
000250 67 88 30 bd e1 b1 23 be 24 33 e3 3c 1c 0d d1 3c
       -0.043098833 -0.15985824 0.027734347 0.025518946
000260 63 58 f6 b8 9c 89 f5 bc a8 c5 66 3d c2 38 4c bd
       -0.000117466574 -0.029972844 0.056340843 -0.049858816
000270 d3 c9 e1 bd 16 f8 be 3d ea 0d d9 bb 3c 3d 01 bc
       -0.11024823 0.093246624 -0.006623973 -0.007888135
000280 b8 26 a0 bd 3d dd 45 3d c9 91 98 3c 67 77 a0 3b
       -0.07819885 0.048306692 0.018624203 0.0048970464
000290 d1 75 87 bd 82 f1 86 bd 6e be f1 3b 7f 94 f0 3d
       -0.066142686 -0.06589033 0.0073774373 0.117470734
0002a0 cd 3f 01 bd f4 c8 dd 3b 16 24 dc 3c 6b 41 a8 3d
       -0.031554986 0.0067683402 0.026872676 0.082156025
0002b0 6a ff 76 bd 52 6f 40 3d 97 80 6a bd 4f c0 05 bd
       -0.060302176 0.046981163 -0.05725154 -0.032654103
0002c0 15 70 6f 3d 3c 16 4f bd 1c a1 ef 3c 70 42 1d 3c
       0.0584565 -0.050558314 0.029251628 0.009598359
0002d0 7c 55 91 3d bb 0e 85 3d 94 cf 42 3d 0e b1 a9 3d
       0.07096383 0.0649695 0.047561243 0.082857236
0002e0 87 1e cb bd 9a ed 5a bd 59 d3 b3 bd 7f 66 ef 3d
       -0.09917932 -0.05344925 -0.08780546 0.116894715
0002f0 91 c3 6d 3d df fa 45 3d 7b fe c8 bd 91 96 5c 3d
       0.058047835 0.048334952 -0.09814163 0.05385453
000300 84 48 9f bd 34 e9 eb 3d 2d 72 5c bd d4 3b cb bd
       -0.07777503 0.11519089 -0.053819824 -0.09923521
000310 40 96 05 3e 5f 97 85 3c a3 78 1e bb 6b f3 93 bd
       0.13045597 0.01630753 -0.0024180792 -0.07224163
000320 7b 76 c0 bd 64 7e 33 bd 7a 25 5b 3d ea 07 e1 3c
       -0.09397598 -0.043821707 0.053502537 0.027469594
000330 32 ce 13 3d 08 ee b1 3d 30 fc 63 3c 3a 7b 02 3e
       0.036085315 0.08687979 0.013915107 0.1274232
000340 19 cc 9e bc 47 f7 fe 3c 44 bc e7 3d ed 06 15 3d
       -0.01938443 0.03112377 0.11315206 0.036383558
000350 42 3a cd bd a8 bc 9c 3d d3 d9 d7 3d 80 ef 99 bd
       -0.100208774 0.07653171 0.105395935 -0.07516384
000360 5e 20 b0 3c 45 cc 4e 3d 16 fe 1e bd 38 20 8f bd
       0.021499809 0.050487775 -0.038816534 -0.06988567
000370 40 45 c4 3d 84 30 16 3c a0 53 d4 3d a7 c9 96 3d
       0.09583521 0.00916684 0.10367513 0.07362681
000380 4e ac c3 3d 12 4a 45 3d 90 f5 cd bd 5b 84 c7 3c
       0.09554349 0.048166342 -0.10056603 0.024355104
000390 2a 99 cf bc a2 f7 0a be 4d dd eb ba 66 38 d7 bd
       -0.025341589 -0.13571027 -0.001799503 -0.10508804
0003a0 66 b8 11 bd f5 ea c2 bb 3e bd 0e be a5 4e 42 3d
       -0.035576247 -0.005948419 -0.13939378 0.047438283
0003b0 bc 79 db ba 50 f6 42 3d 60 2d c5 bd 86 77 81 3c
       -0.0016744654 0.047598183 -0.09627795 0.015804064
0003c0 55 0b c8 3d f9 66 12 bd 6b 88 81 3c d6 6b c8 bd
       0.097677864 -0.035742734 0.01581212 -0.09786193
0003d0 71 cc 2f 3d 54 75 2d 3d 48 9a 70 3d 27 63 de 3d
       0.04291958 0.04234822 0.058740884 0.108587556
0003e0 2d 44 db 3d 89 79 23 bd 30 b1 7e bd 19 30 75 bd
       0.10706363 -0.039910827 -0.062180698 -0.059860323
0003f0 e2 53 c3 bd fa d9 17 be 04 4e 5a bd 3a d9 8c 3b
       -0.09537484 -0.14829245 -0.053297058 0.0042983564
