checkpoints/model_cross.pth (torch, 738074 bytes, 20 tensors)

qpos_encoder.weight f4 [128, 28]
0.12502113 0.22833999 0.051387783 -0.10386435 0.02816386 -0.13270228 -0.05084341 0.08612754
-0.069892175 0.018605728 0.23512252 -0.1052888 0.3384906 0.27919865 0.103640504 0.13580582
-0.13852157 -0.04054991 0.29041016 0.52644163 0.09582851 -0.21823835 -0.101185024 -0.16677329
-0.15401657 0.02231098 0.024236165 0.30381966 -0.083088174 0.21703279 0.073748626 -0.09971848
-0.018459896 -0.16080093 0.0019659367 -0.15657999 -0.29375648 0.10119907 -0.1964496 0.07800486
0.22515109 0.117752604 0.30700007 0.06485294 0.33328468 -0.123595305 0.0041268026 -0.13780895
-0.46966738 -0.056396823 0.1909672 -0.20466444 0.19734478 0.20374009 -0.24456716 -0.019262338
-0.082740255 0.084582165 0.002185956 -0.15516178 -0.23910175 -0.2719769 0.018284926 0.089064054
-0.017249558 0.107533626 -0.14041002 0.026644768 0.0875415 -0.17109723 0.26812094 -0.25021225
-0.042004533 0.020151712 0.040871527 0.39344412 0.29308718 -0.16848129 -0.15300374 0.017427444
0.2141517 0.12078426 -0.10435584 0.31514767 0.14347613 -0.108074956 0.10160351 0.051117763
-0.05648622 -0.0724286 -0.16717374 0.010922044 0.16071129 0.15262547 -0.13658577 0.11697281
0.16151491 -0.056675535 -0.012935986 0.18750201 -0.164238 -0.070952356 0.056905076 0.48424706
0.3283992 -0.09724606 -0.029115671 -0.17005295 0.20706367 0.06056839 0.029170448 0.1419675
-0.060167115 -0.1950321 -0.21846397 0.11547449 -0.0014269946 -0.07846065 0.041985177 -0.12362186
0.20428756 -0.030117648 0.007312832 0.06356005 -0.29808578 0.09938612 0.07254327 0.039887395
-0.33107105 -0.31115404 0.1477459 -0.18768795 -0.020633172 0.32461342 0.18517904 0.10827911
-0.3130643 0.19466974 -0.27142537 -0.05043532 0.1328139 -0.14142269 -0.07504804 0.059573036
-0.021133125 0.030977277 0.034513026 0.1268538 0.33530337 -0.21505146 0.064362146 0.106407374
-0.0731881 0.07386525 0.22585791 0.18082134 0.00012714791 0.16559261 -0.24886045 0.4202938
0.1291758 0.031427752 -0.07127718 -0.07174797 0.0024997077 0.011448008 -0.06953173 -0.15447111
0.104145534 0.22632764 -0.15371403 0.1768824 -0.0067135436 0.22758098 -0.08010892 -0.102872394
-0.5995088 0.24675982 0.08805529 -0.042967346 0.17677224 -0.08674422 -0.30557945 0.11325266
0.029126743 -0.22257502 0.13963234 -0.21024214 0.099986926 -0.32142395 0.1303443 0.17256531
0.28566477 0.04991298 -0.14194402 0.0367563 0.14680135 -0.112007424 0.18701495 0.07969552
-0.10571098 0.118281685 0.090765774 -0.15367411 0.12287852 0.037719484 0.08496744 -0.18461849
0.05319142 -0.3269905 -0.2563794 0.040375043 0.08404203 -0.008095454 -0.21674915 -0.04404699
0.043555513 0.04195359 -0.15607938 0.14195001 -0.1034876 -0.18606642 0.110345155 0.04720242
0.025426084 -0.2851484 0.089716814 -0.18825763 0.032299712 0.10848842 -0.23426576 0.1461964
-0.16092443 -0.042854063 0.119300745 0.15708648 0.11742855 0.21018939 0.11457927 -0.2977531
0.031403802 0.12126713 0.23457144 0.42351687 0.0710849 0.35285363 0.13711494 -0.18030268
-0.19290397 0.020669533 0.062982835 -0.04549418 -0.05596707 0.057477422 -0.022862228 -0.13906476
00000000: 8a05 003e f5d1 693e ff7b 523d d5b6 d4bd
00000010: e5b7 e63c 1be3 07be 2e41 50bd a363 b03d
00000020: a123 8fbd 0a6b 983c f5c3 703e a8a1 d7bd
00000030: a44e ad3e 20f3 8e3e 7941 d43d ae10 0b3e
00000040: 99d8 0dbe aa17 26bd a4b0 943e e1c4 063f
00000050: bd41 c43d e079 5fbe 183a cfbd 9ec6 2abe
00000060: 85b6 1dbe 84c5 b63c ec8a c63c 408e 9b3e
00000070: 222a aabd d83d 5e3e 8509 973d 3439 ccbd
00000080: 3539 97bc 00a9 24be f2d6 003b 8156 20be
00000090: 4067 96be 7541 cf3d 152a 49be 03c1 9f3d
000000a0: 028e 663e 4728 f13d 1d2f 9d3e 9ed1 843d
000000b0: 4aa4 aa3e 891f fdbd 213a 873b ca1d 0dbe
000000c0: 3e78 f0be 5b00 67bd e88c 433e 8e93 51be
000000d0: c014 4a3e 3ea1 503e d06f 7abe 0dcc 9dbc
000000e0: b973 a9bd 6a39 ad3d 4242 0f3b bbe2 1ebe
000000f0: 17d7 74be 8e40 8bbe 45ca 953c 3767 b63d
00000100: f24e 8dbc 973a dc3d a5c7 0fbe 2146 da3c
00000110: f548 b33d 1d34 2fbe 2647 893e d21b 80be
00000120: f20c 2cbd 3415 a53c e768 273d 8271 c93e
00000130: 860f 963e 5c86 2cbe 03ad 1cbe 00c4 8e3c
00000140: 954a 5b3e bd5d f73d 84b8 d5bd 095b a13e
00000150: 68eb 123e 6756 ddbd 8015 d03d dc60 513d
00000160: 185e 67bd 7255 94bd 982f 2bbe 5ff2 323c
00000170: 8091 243e da49 1c3e 24dd 0bbe 718f ef3d
00000180: 2a64 253e 9b24 68bd 75f1 53bc 8700 403e
00000190: 022e 28be 784f 91bd 4c15 693d 3bef f73e
000001a0: f123 a83e f128 c7bd fd83 eebc 5c22 2ebe
000001b0: 8008 543e 8f16 783d ddf6 ee3c ee5f 113e
000001c0: cb71 76bd 7fb6 47be 05b5 5fbe e47d ec3d
000001d0: fe09 bbba faaf a0bd a6f8 2b3d 752d fdbd
000001e0: c230 513e 49b9 f6bc 7ba0 ef3b c62b 823d
000001f0: b39e 98be f38a cb3d 9191 943d f760 233d
00000200: 2582 a9be 954f 9fbe b44a 173e 4531 40be
00000210: e606 a9bc bb33 a63e 939f 3d3e 70c1 dd3d
00000220: f749 a0be 8157 473e 44f8 8abe 4495 4ebd
00000230: 5e00 083e 1cd1 10be c9b2 99bd db02 743d
00000240: 601f adbc 0fc4 fd3c 885d 0d3d f6e5 013e
00000250: e2ac ab3e 7336 5cbe 4dd0 833d 1cec d93d
00000260: a4e3 95bd aa46 973d 4c47 673e 3b29 393e
00000270: 0253 0539 1c91 293e 46d5 7ebe c030 d73e
00000280: a946 043e 63ba 003d c5f9 91bd 9af0 92bd
00000290: 23d2 233b 6d90 3b3c a766 8ebd ad2d 1ebe
000002a0: 414a d53d 6fc2 673e 3667 1dbe a920 353e
000002b0: 49fd dbbb fd0a 693e 2510 a4bd c3ae d2bd
000002c0: 6979 19bf 9bae 7c3e 5556 b43d 87fe 2fbd
000002d0: c803 353e f4a6 b1bd e974 9cbe 03f1 e73d
000002e0: 359b ee3c b5ea 63be c8fb 0e3e b749 57be
000002f0: f2c5 cc3d ae91 a4be fa78 053e f6b4 303e
00000300: a742 923e 8e71 4c3d c659 11be c68d 163d
00000310: 1853 163e 2664 e5bd d980 3f3e 6837 a33d
00000320: 007f d8bd ab3d f23d 68e3 b93d bf5c 1dbe
00000330: bca7 fb3d bf7f 1a3d 6903 ae3d a10c 3dbe
00000340: 3fdf 593d 4c6b a7be 2944 83be 4d60 253d
00000350: 3a1e ac3d cca2 04bc 7df3 5dbe 9e6a 34bd
00000360: 4467 323d 87d7 2b3d 46d3 1fbe 585b 113e
00000370: 4ff1 d3bd 3288 3ebe a4fc e13d 5357 413d
00000380: 5d4a d03c f9fe 91be 73bd b73d 9cc6 40be
00000390: b44c 043d 2d2f de3d 5de3 6fbe 82b4 153e
000003a0: 60c9 24be be87 2fbd f353 f43d 47db 203e
000003b0: 617e f03d e33b 573e 89a8 ea3d 1873 98be
000003c0: 46a1 003d e75a f83d 7f33 703e 34d7 d83e
000003d0: f694 913d 3ba9 b43e dc67 0c3e 44a1 38be
000003e0: 9e88 45be 2753 a93c 25fd 803d 1b58 3abd
000003f0: ba3d 65bd 726d 6b3d 9149 bbbc fe66 0ebe

qpos_encoder.bias f4 [128]
0.18118894 0.031740136 0.13668826 0.08462318 0.0094273165 0.015933735 -0.085915975 0.029408706
-0.036917735 -0.05903313 0.20331612 0.0016655619 -0.026832568 -0.05906335 0.16577245 -0.15651163
-0.06700355 0.1452109 0.28545564 0.26083127 -0.07843062 -0.1826767 -0.06078506 0.06374612
0.3418986 -0.033417396 -0.04558922 -0.26563752 0.24227545 0.31318605 0.05585971 -0.052823637
-0.039200287 0.049099434 -0.31965166 -0.08194346 0.0018825039 -0.22579306 -0.14172103 0.1719303
0.059595075 0.21007131 0.049946103 0.0016252344 -0.17951065 0.19663982 -0.0048552593 -0.20969729
0.10955393 0.06768078 0.32050344 -0.19375367 0.27574387 0.01835605 -0.18780017 -0.116801344
0.04013652 -0.23742506 0.21036349 0.2622203 -0.1515959 -0.13645503 -0.08032034 -0.014622209
-0.24350224 0.20260538 -0.026359865 -0.21997583 -0.20810853 -0.030031173 -0.016472004 0.054807574
0.066961035 -0.16221176 -0.08625037 0.28153834 -0.23986644 0.24002798 0.06384449 -0.07560365
-0.23076455 -0.08275099 0.14597952 -0.15376425 -0.01288101 -0.043196462 0.118990615 -0.07600799
-0.12159007 -0.16211735 -0.06387077 -0.10837358 -0.16923173 -0.13030434 -0.17154531 -0.008189191
0.11982432 -0.035409514 -0.2182172 -0.10661718 0.050853457 -0.17824388 0.1132886 0.014146406
0.035556566 -0.22584268 0.33363506 0.16880941 0.100339696 -0.026517803 0.30813742 0.15692398
-0.10594646 0.14774211 0.0731162 0.004321252 -0.14512832 0.06535121 -0.11219114 0.24617262
-0.027791126 -0.06983217 -0.21229194 -0.0017935884 -0.08752871 0.008849382 0.2095971 0.028118465
00000000: 9889 393e f201 023d 02f8 0b3e eb4e ad3d
00000010: 0875 1a3c 7787 823c b7f4 afbd 87ea f03c
00000020: 0d37 17bd b9cc 71bd 1a32 503e fc4e da3a
00000030: f9cf dbbc 69ec 71bd 41c0 293e 9644 20be
00000040: 2839 89bd 2bb2 143e 3e27 923e ad8b 853e
00000050: 3ca0 a0bd 9a0f 3bbe c1f9 78bd 538d 823d
00000060: 550d af3e aee0 08bd c3bb 3abd a401 88be
00000070: 0e17 783e ec59 a03e 27cd 643d 995d 58bd
00000080: 7b90 20bd 7d1c 493d 62a9 a3be f9d1 a7bd
00000090: 59be f63a 4c36 67be 511f 11be 7f0e 303e
000000a0: f719 743d ef1c 573e 4994 4c3d d105 d53a
000000b0: a4d1 37be f35b 493e de18 9fbb e3ba 56be
000000c0: d05d e03d 399c 8a3d 0719 a43e 5d67 46be
000000d0: 4d2e 8d3e 6d5f 963c b04e 40be 8b35 efbd
000000e0: 3166 243d 8e1f 73be 8769 573e bd41 863e
000000f0: f53b 1bbe deba 0bbe fe7e a4bd fd91 6fbc
00000100: a758 79be c977 4f3e a5f0 d7bc 5841 61be
00000110: 671a 55be ef03 f6bc 4cf0 86bc e87d 603d
00000120: de22 893d d71a 26be 09a4 b0bd cb25 903e
00000130: 8c9f 75be e5c9 753e e6c0 823d 16d6 9abd
00000140: 8b4d 6cbe 5a79 a9bd a87b 153e 6074 1dbe
00000150: df0a 53bc c6ee 30bd 5ab1 f33d 14aa 9bbd
00000160: 3704 f9bd 1702 26be aece 82bd f8f2 ddbd
00000170: 154b 2dbe 806e 05be 93a9 2fbe f52b 06bc
00000180: 7466 f53d 9109 11bd 5474 5fbe 1c5a dabd
00000190: b74b 503d 9085 36be db03 e83d 54c6 673c
000001a0: c3a3 113d 4e43 67be 37d2 aa3e 60dc 2c3e
000001b0: e67e cd3d dd3b d9bc 30c4 9d3e aeb0 203e
000001c0: 75fa d8bd b549 173e f2bd 953d 4a99 8d3b
000001d0: 859c 14be dbd6 853d 78c4 e5bd ad14 7c3e
000001e0: 37aa e3bc 2b04 8fbd 0f63 59be d716 ebba
000001f0: 4142 b3bd 00fd 103c 9fa0 563e b258 e63c

qvel_encoder.weight f4 [128, 27]
-0.07647751 -0.039214868 -0.03777897 -0.009678598 0.18679942 -0.02401891 0.1277451 0.12567051
-0.043036252 0.12097454 -0.09040453 -0.020996563 0.03927741 -0.13571471 0.092899956 -0.08732671
-0.20154336 -0.17183493 0.09963672 -0.06470903 0.116571836 0.119286545 0.12339119 0.007374009
-0.049321637 -0.16589288 -0.13617668 0.22857377 -0.059273306 -0.3669164 0.12516588 0.12706043
0.06804844 -0.1417473 -0.020100404 0.15730976 0.0035677329 -0.1552302 0.0386154 0.08205279
0.044551004 0.12217943 0.079189464 -0.13309793 -0.12736923 -0.11737139 0.11875461 -0.05239707
0.13115767 0.08430555 0.15701273 -0.01385069 -0.08203522 0.0618662 -0.15688056 -0.17035852
0.38422912 -0.3766004 0.08556209 -0.21862493 -0.006477133 0.20490296 0.07977576 -0.0061462973
-0.10590026 -0.055658266 0.024682723 0.13063289 0.11061927 -0.13884091 -0.15218785 0.0935345
-0.09010055 -0.060210664 -0.04652469 -0.02518175 -0.15321454 -0.003924697 0.030077413 -0.022808615
0.016255846 -0.024565049 -0.31512994 0.44422194 0.040549945 -0.055514872 0.07329996 0.1757639
0.15678412 -0.123764604 0.1990006 -0.1000349 0.015824612 -0.0689075 -0.14511833 0.09510761
-0.24975555 -0.020159423 -0.039727785 0.08483941 -0.13100787 0.037857488 -0.058021132 0.030978937
-0.07515258 -0.08455362 0.0711485 0.11240916 0.306676 0.20334592 -0.15916435 -0.22695927
0.07003159 -0.21412885 0.11885977 0.1641242 -0.07374711 0.019398281 0.10198719 -0.1291521
-0.044112574 0.09747228 0.036742706 0.21663171 0.12873779 0.13905664 0.04375124 -0.15077837
0.056520555 0.011259275 -0.06568483 0.02992084 0.08628166 -0.12655206 -0.15993181 -0.15799753
0.03906829 -0.13824803 -0.017879749 0.024194025 0.0048503685 0.23848261 0.03821749 -0.1861549
0.15896249 0.15047707 0.23973812 0.14518273 0.078123 0.09358564 -0.16536866 0.015026547
-0.08619868 0.099895485 0.033865422 -0.08582659 0.009568772 -0.19173016 -0.14287142 0.07214965
-0.07145652 0.12583429 0.21784927 0.20316727 0.17117977 -0.25769547 0.16123323 0.01979427
0.044277944 -0.15541406 -0.15382527 -0.011638567 -0.04381145 -0.19933194 -0.043676935 -0.038255207
-0.14395432 0.18773094 -0.07335998 0.06248508 0.14737159 -0.12717582 0.14682153 0.10304045
-0.11362942 0.07587059 0.07001642 -0.06982125 -0.06212699 0.1642388 0.40670648 0.05878336
-0.27428773 0.164602 -0.071546435 -0.14554998 -0.17606089 0.1805882 0.24316598 0.047835506
0.05943006 -0.026507767 0.04688518 -0.057611056 -0.20727499 0.13595152 -0.09088078 0.10074395
-0.08981813 -0.06088029 -0.045859843 0.16697198 0.074443616 -0.17770764 0.042347603 -0.13604087
-0.15259765 -0.14776847 -0.15687327 0.3398551 -0.015356577 -0.15149228 -0.17192137 -0.008372223
-0.07386975 -0.16235349 -0.15202542 -0.08451077 0.02021052 0.102045655 0.08823612 -0.15345599
-0.023751423 0.0066906894 0.00920324 0.020611377 -0.06579872 0.08285575 -0.06446265 0.09101441
0.026644625 -0.0028562238 -0.13529187 0.23218663 -0.14597228 0.34614113 0.08341693 -0.1785009
0.0064999713 -0.19097883 -0.16823283 0.14685918 0.15192004 -0.10791946 0.16583328 0.025317525
00000000: 3ea0 9cbd c59f 20bd 1fbe 1abd fb92 1ebc
00000010: 5948 3f3e 4ec3 c4bc 9dcf 023e c5af 003e
00000020: c846 30bd 80c1 f73d 0326 b9bd fc00 acbc
00000030: 59e1 203d ccf8 0abe 5542 be3d 59d8 b2bd
00000040: 6261 4ebe 7ff5 2fbe 560e cc3d 2b86 84bd
00000050: 37bd ee3d 814c f43d 85b4 fc3d aca1 f13b
00000060: 7c05 4abd d3df 29be e671 0bbe 3e0f 6a3e
00000070: 91c8 72bd 77dc bbbe 7c2b 003e 211c 023e
00000080: fb5c 8b3d 3426 11be 9aa9 a4bc cf15 213e
00000090: a0d0 693b aaf4 1ebe 2f2b 1e3d 4b0b a83d
000000a0: 1d7b 363d 3639 fa3d 162e a23d d34a 08be
000000b0: 146d 02be 6960 f0bd 9e35 f33d 4f9e 56bd
000000c0: 324e 063e 63a8 ac3d f2c7 203e 01ee 62bc
000000d0: 1502 a8bd 6a67 7d3d 4ca5 20be 7772 2ebe
000000e0: aeb9 c43e c5d1 c0be 2d3b af3d 37df 5fbe
000000f0: 213e d4bb 15d2 513e 7961 a33d e166 c9bb
00000100: 3ce2 d8bd ecf9 63bd 6c33 ca3c a1c4 053e
00000110: 5b8c e23d 502c 0ebe 22d7 1bbe 048f bf3d
00000120: a386 b8bd 759f 76bd ac90 3ebd f549 cebc
00000130: 46e4 1cbe bf9a 80bb e864 f63c 22d9 babc
00000140: fb2a 853c a43c c9bc b658 a1be 0f71 e33e
00000150: b317 263d 9063 63bd 4a1e 963d 74fb 333e
00000160: 048c 203e 4c78 fdbd d0c6 4b3e 19df ccbd
00000170: 9ea2 813c 601f 8dbd e699 14be c7c7 c23d
00000180: ebbf 7fbe 6025 a5bc 9ab9 22bd 49c0 ad3d
00000190: ed26 06be 7410 1b3d 91a7 6dbd 8ac7 fd3c
000001a0: 99e9 99bd 732a adbd 4eb6 913d c636 e63d
000001b0: a304 9d3e ea39 503e fbfb 22be 0368 68be
000001c0: b96c 8f3d 9844 5bbe c06c f33d 2d10 283e
000001d0: ba08 97bd 25e9 9e3c a9de d03d 7340 04be
000001e0: 63af 34bd 8c9f c73d 857f 163d b4d4 5d3e
000001f0: d7d3 033e dd64 0e3e 8034 333d a565 1abe
00000200: 1982 673d d278 383c c585 86bd 8d1c f53c
00000210: 70b4 b03d dd96 01be 2ac5 23be 1bca 21be
00000220: 1206 203d e490 0dbe 8d78 92bc 8c32 c63c
00000230: d7ef 9e3b c934 743e f189 1c3d 649f 3ebe
00000240: 10c7 223e a916 1a3e e97d 753e c8aa 143e
00000250: f4fe 9f3d d4a9 bf3d 6756 29be e831 763c
00000260: ef88 b0bd 0196 cc3d 78b6 0a3d dac5 afbd
00000270: 57c6 1c3c e954 44be e34c 12be 32c3 933d
00000280: cc57 92bd b4da 003e e113 5f3e 150b 503e
00000290: c049 2f3e a9f0 83be 531a 253e 9827 a23c
000002a0: ca5c 353d dd24 1fbe 5f84 1dbe b0af 3ebc
000002b0: a373 33bd ac1d 4cbe 96e6 32bd 7eb1 1cbd
000002c0: c368 13be 8a3c 403e c23d 96bd 5bf0 7f3d
000002d0: 94e8 163e 613a 02be 6258 163e df06 d33d
000002e0: 8bb6 e8bd 0a62 9b3d c564 8f3d 72fe 8ebd
000002f0: df78 7ebd 372e 283e d53b d03e d2c6 703d
00000300: 716f 8cbe 6d8d 283e f086 92bd 0e0b 15be
00000310: 4e49 34be 1dec 383e 8100 793e 2aef 433d
00000320: ef6c 733d d126 d9bc ad0a 403d 92f9 6bbd
00000330: e53f 54be e036 0b3e b41f babd d852 ce3d
00000340: 91f2 b7bd 9c5d 79bd 88d7 3bbd b4fa 2a3e
00000350: e575 983d fef8 35be ae74 2d3d 4c4e 0bbe
00000360: 8f42 1cbe 9e50 17be 63a3 20be 7d01 ae3e
00000370: 279a 7bbc cb20 1bbe 280c 30be a62b 09bc
00000380: 0649 97bd fe3f 26be 8dac 1bbe fc13 adbd
00000390: 8890 a53c 50fd d03d 24b5 b43d 9123 1dbe
000003a0: 5892 c2bc 923d db3b 30c9 163c 31d9 a83c
000003b0: 7bc1 86bd 47b0 a93d fe04 84bd c365 ba3d
000003c0: d445 da3c 7c2f 3bbb f489 0abe 55c2 6d3e
000003d0: c279 15be 6939 b13e 7fd6 aa3d f1c8 36be
000003e0: b6fd d43b f48f 43be 3a45 2cbe 4162 163e
000003f0: ed90 1b3e e104 ddbd 33d0 293e b366 cf3c

qvel_encoder.bias f4 [128]
-0.0971254 0.09371799 0.08566113 0.021896947 0.078587525 -0.032277167 0.3903012 0.10159596
-0.04472599 0.20684417 -0.086763784 0.113286175 0.0033643136 -0.18850322 -0.056079738 -0.35964438
-0.06508137 0.035943612 -0.2515109 0.11105037 -0.22816391 -0.06176973 -0.050465632 -0.16520838
0.10097395 -0.035784647 -0.23293398 -0.15884605 -0.3781168 -0.21382304 -0.19243109 0.10796874
0.19377202 -0.09749397 0.096086524 0.19304453 0.174234 -0.23783532 0.19370523 0.015824284
0.11771816 -0.3107925 0.28513038 -0.17199509 0.15144064 -0.08905448 -0.011787257 -0.13811639
0.23663288 0.08999334 0.09048598 -0.08704871 -0.10170634 0.3201385 0.070554554 -0.15056866
-0.17352684 -0.26346946 -0.009995167 0.086097606 0.07443242 -0.11008627 -0.030253066 -0.17754117
0.0029201042 0.23320857 0.093675226 0.0046398635 -0.1372886 -0.09904079 0.15725307 0.36812407
-0.20423499 -0.15203328 -0.12908848 0.0010678094 0.21721356 0.03369886 -0.23970541 -0.20768143
0.07804512 0.18528801 0.072418444 0.24041024 -0.037199777 -0.13532032 -0.0783493 -0.01111126
-0.03683258 0.1506812 -0.3338159 0.05991649 -0.13724075 0.13626957 0.33687022 -0.036312956
-0.3207639 0.1967797 -0.0015552193 0.24665502 0.09567816 0.20628183 0.25259662 0.07708492
0.18498947 0.24517947 0.19202608 0.10934374 -0.16818808 -0.04402852 -0.22766143 -0.04280398
0.140487 -0.19752792 0.11595015 -0.06814792 0.26205122 0.0472831 0.11555894 -0.1288432
0.07734755 0.07624601 -0.22843756 0.0032996614 -0.0021058547 0.0790985 -0.14072391 -0.07569435
00000000: afe9 c6bd 38ef bf3d 1a6f af3d 3a61 b33c
00000010: 7ff2 a03d 1035 04bd 8fd5 c73e 8b11 d03d
00000020: 9a32 37bd f5ce 533e 36b1 b1bd 9502 e83d
00000030: d17b 5c3b fd06 41be deb3 65bd 4f23 b8be
00000040: 6249 85bd 9c39 133d 09c6 80be 606e e33d
00000050: cda3 69be 4202 7dbd 0db5 4ebd 632c 29be
00000060: 6ecb ce3d ec92 12bd 3f86 6ebe 8aa8 22be
00000070: 8698 c1be 6df4 5abe a80c 45be b71e dd3d
00000080: 2c6c 463e ebaa c7bd 03c9 c43d 77ad 453e
00000090: 666a 323e 1a8b 73be aa5a 463e eea1 813c
000000a0: 3816 f13d 3220 9fbe 9cfc 913e 7b1f 30be
000000b0: 4113 1b3e 3262 b6bd 571f 41bc 626e 0dbe
000000c0: e44f 723e 6e4e b83d b750 b93d 9846 b2bd
000000d0: 6a4b d0bd 32e9 a33e e87e 903d ac2e 1abe
000000e0: 05b1 31be 78e5 86be c5c2 23bc f153 b03d
000000f0: 0670 983d e974 e1bd 47d5 f7bc 5acd 35be
00000100: 385f 3f3b 3ace 6e3e ccd8 bf3d ff09 983b
00000110: 6295 0cbe e6d5 cabd f306 213e c27a bc3e
00000120: fa22 51be 9dae 1bbe c52f 04be bdf5 8b3a
00000130: 3b6d 5e3e d107 0a3d 5675 75be 71aa 54be
00000140: 1fd6 9f3d 24bc 3d3e 1f50 943d 1a2e 763e
00000150: cb5e 18bd 6991 0abe 9975 a0bd 010c 36bc
00000160: c2dd 16bd 2c4c 1a3e ebe9 aabe fe6a 753d
00000170: d788 0cbe 408a 0b3e 417a ac3e e5bc 14bd
00000180: 2a3b a4be 9e80 493e 80d8 cbba 2293 7c3e
00000190: e9f2 c33d 8b3b 533e 5854 813e b3de 9d3d
000001a0: e16d 3d3e 5410 7b3e 7ca2 443e 9cef df3d
000001b0: 7f39 2cbe 4057 34bd 1420 69be 3a53 2fbd
000001c0: d3db 0f3e c244 4abe 4677 ed3d 2391 8bbd
000001d0: 942b 863e edab 413d 2aaa ec3d 79ef 03be
000001e0: 6468 9e3d de26 9c3d 89eb 69be 223f 583b
000001f0: 6102 0abb 65fe a13d ee19 10be a405 9bbd

action_encoder.weight f4 [128, 21]
-0.04204519 -0.12160372 0.2047468 -0.14073682 0.092739835 0.021139696 0.13305564 0.14068492
-0.08424103 -0.1942208 -0.15791446 0.008711413 -0.008071527 -0.10130422 -0.021503419 -0.16315345
0.12051131 0.069573626 -0.17354947 -0.044194862 0.13732566 0.10654773 -0.21310489 -0.12088939
0.1725439 0.060708955 -0.19727156 0.11611463 -0.16682902 -0.12738737 0.0335439 0.16037674
0.14604552 -0.20834513 -0.029512957 0.17409627 -0.06372471 0.0014921725 0.07444538 -0.11164826
0.050261334 -0.06704831 0.08268778 0.05442728 0.19466813 0.015047327 -0.09105262 0.17511229
-0.11453999 0.107154176 0.11941461 -0.20034653 0.20456035 -0.104240164 0.07223104 -0.1955939
-0.00045529008 -0.027291283 0.123781785 -0.101891816 0.1491674 0.10370077 0.028242543 -0.13377668
0.16547008 -0.17366627 -0.08439329 -0.0382908 0.056297228 -0.21046482 0.12313147 0.041489318
-0.20260921 -0.07827157 0.09867175 0.032495722 -0.16463841 0.118553266 0.19521873 0.20240761
-0.030618444 -0.029068097 0.008231491 -0.13599971 0.21167184 -0.20876954 0.084811255 -0.10805076
-0.20188336 -0.0027699023 0.20477991 0.21176697 -0.053201944 0.06860466 -0.14298695 0.19816662
-0.06630531 0.11534698 -0.019354746 0.20679192 0.08347319 -0.06556775 -0.055164486 0.039194807
-0.057531163 -0.17426063 0.04951416 0.091996714 -0.15140882 -0.19566537 0.09341781 0.21616258
0.022625282 0.1972089 0.16166939 0.115431115 0.10195078 -0.13631587 0.13900249 0.16393872
0.009583563 -0.105361275 0.12908755 0.15254475 0.13810073 0.15113638 0.20753591 -0.112537645
-0.20685653 0.028434083 -0.12856038 -0.022748917 -0.20295078 0.21140154 0.053270295 -0.18201172
-0.0822683 -0.013216853 -0.072985366 -0.1518307 -0.21489492 0.12091614 -0.0090096295 0.06122814
0.20960955 -0.21103685 0.18513514 -0.16782287 0.115060344 0.03221099 -0.10402597 0.104570106
-0.03715998 0.03910686 -0.17908143 0.122013435 0.021242753 0.2050172 -0.029954016 0.09037201
0.1215599 0.110808566 -0.21226609 0.0199631 0.13866435 -0.1666843 0.119374886 -0.018393174
-0.06251809 0.022584766 -0.04105167 0.07048564 0.21375541 -0.07289386 0.10337509 0.089424506
-0.11403213 -0.18475139 0.21230142 0.0039749295 -0.020513028 -0.20763394 0.13039781 -0.1839752
0.16087167 0.13113122 0.052301988 -0.014585018 -0.21421869 0.12018724 0.17429538 -0.03445296
-0.1085996 0.114659026 -0.058352143 -0.14154401 0.14545013 0.16824885 -0.06844397 -0.13490003
-0.028220251 0.12490894 -0.008944511 0.18885712 -0.20938344 0.090371266 0.10870607 -0.06957404
0.16901378 0.13508321 -0.10065861 0.031032905 -0.028042346 0.033541724 0.14494766 0.15018277
-0.17654853 0.14735772 -0.03441648 0.120312706 0.09104027 -0.07173987 0.07994749 -0.059708133
-0.04679972 -0.17337199 -0.028463379 -0.052307785 -0.12723458 -0.21441193 -0.08785094 -0.1156104
0.007840782 0.09892331 0.034304455 -0.05058098 -0.022126779 -0.11832372 -0.06067173 -0.103459366
0.049354568 0.20500071 0.18629022 -0.10925866 0.17873494 0.13818826 0.18980686 -0.14875747
0.15163036 -0.1405475 -0.10670235 0.07308598 0.17550929 0.1964658 0.015673399 -0.06681152
00000000: 9437 2cbd 5f0b f9bd 25a9 513e 501d 10be
00000010: 62ee bd3d 282d ad3c bd3f 083e b50f 103e
00000020: 9086 acbd d1e1 46be 54b4 21be 50ba 0e3c
00000030: 703e 04bc 9678 cfbd f027 b0bc b311 27be
00000040: a2ce f63d 9e7c 8e3d f4b6 31be ac05 35bd
00000050: 199f 0c3e b235 da3d 2b38 5abe db94 f7bd
00000060: 59af 303e f4a9 783d 8e01 4abe 82cd ed3d
00000070: 3ad5 2abe d671 02be 5465 093d cd39 243e
00000080: f58c 153e 6d58 55be 28c5 f1bc 4b46 323e
00000090: 1a82 82bd 0095 c33a d276 983d d8a7 e4bd
000000a0: d4de 4d3d a050 89bd 3658 a93d 24ef 5e3d
000000b0: 1557 473e 1089 763c cc79 babd a350 333e
000000c0: f193 eabd a673 db3d a68f f43d a427 4dbe
000000d0: 4578 513e de7b d5bd deed 933d c449 48be
000000e0: 00b4 eeb9 f891 dfbc 4e81 fd3d a8ac d0bd
000000f0: 57bf 183e 1261 d43d e85c e73c c1fc 08be
00000100: fd70 293e 92d5 31be 64d6 acbd d0d6 1cbd
00000110: ec97 663d 1784 57be 5a2c fc3d b4f0 293d
00000120: ca78 4fbe d84c a0bd 6a14 ca3d 3c1a 053d
00000130: f996 28be 0ecc f23d 6be7 473e f143 4f3e
00000140: 88d3 fabc 3820 eebc 60dd 063c 8243 0bbe
00000150: 81c0 583e afc7 55be 86b1 ad3d b849 ddbd
00000160: 83ba 4ebe 4087 35bb d3b1 513e 71d9 583e
00000170: 48ea 59bd 9a80 8c3d 2c6b 12be 31ec 4a3e
00000180: 14cb 87bd 0a3b ec3d d88d 9ebc 43c1 533e
00000190: fef3 aa3d 6248 86bd 28f4 61bd bc8a 203d
000001a0: cca5 6bbd 6171 32be 5ccf 4a3d c668 bc3d
000001b0: ea0a 1bbe 815c 48be d651 bf3d b959 5d3e
000001c0: a858 b93c 21f1 493e a98c 253e 2667 ec3d
000001d0: 92cb d03d 6396 0bbe ab56 0e3e 8ddf 273e
000001e0: 6004 1d3c a7c7 d7bd 872f 043e b134 1c3e
000001f0: 476a 0d3e 7fc3 1a3e 4b84 543e 237a e6bd
00000200: 33d2 53be 98ee e83c 55a5 03be f05b babc
00000210: 54d2 4fbe a579 583e f431 5a3d 4861 3abe
00000220: 487c a8bd 808b 58bc 5a79 95bd 8279 1bbe
00000230: 6a0d 5cbe e2a2 f73d 209d 13bc 5cca 7a3d
00000240: e3a3 563e 0b1a 58be 1194 3d3e c2d9 2bbe
00000250: c2a4 eb3d acef 033d 910b d5bd da28 d63d
00000260: 1035 18bd 842e 203d 1f61 37be 2ee2 f93d
00000270: 4805 ae3c 07f0 513e 2062 f5bc f614 b93d
00000280: 66f4 f83d 9aef e23d 485c 59be a889 a33c
00000290: 07fe 0d3e 4aaf 2abe d27a f43d 48ad 96bc
000002a0: 7c09 80bd b003 b93c cc25 28bd c65a 903d
000002b0: b3e2 5a3e 6049 95bd 52b6 d33d 3224 b73d
000002c0: ad89 e9bd 782f 3dbe 8b65 593e 2040 823b
000002d0: f00a a8bc fe9d 54be 0187 053e ff63 3cbe
000002e0: 8bbb 243e 4347 063e 9c3a 563d 00f6 6ebc
000002f0: 255c 5bbe ba24 f63d 7d7a 323e 8c1e 0dbd
00000300: 7869 debd 5ad2 ea3d a802 6fbd eaf0 10be
00000310: e1f0 143e 6d49 2c3e 5a2c 8cbd 3c23 0abe
00000320: 282e e7bc 42d0 ff3d 008c 12bc c363 413e
00000330: 9d68 56be 9214 b93d 4aa1 de3d d67c 8ebd
00000340: f311 2d3e 4153 0a3e 1a26 cebd b838 fe3c
00000350: 10b9 e5bc 0c63 093d 296d 143e 83c9 193e
00000360: 23c9 34be f1e4 163e 4cf8 0cbd 8266 f63d
00000370: 5273 ba3d 5aec 92bd 82bb a33d 8490 74bd
00000380: 10b1 3fbd 6d88 31be 082c e9bc b040 56bd
00000390: c849 02be cd8e 5bbe 32eb b3bd 25c5 ecbd
000003a0: a076 003c 4e98 ca3d d482 0c3d 002e 4fbd
000003b0: 3843 b5bc b553 f2bd ec82 78bd 81e2 d3bd
000003c0: 0428 4a3d b5eb 513e ddc2 3e3e 01c3 dfbd
000003d0: 4b06 373e 3981 0d3e bb5c 423e e153 18be
000003e0: fd44 1b3e afeb 0fbe c386 dabd 1aae 953d
000003f0: b5b8 333e 552e 493e 8065 803c 7ad4 88bd

action_encoder.bias f4 [128]
-0.17464535 0.20085885 -0.039468482 -0.06708549 0.1393341 0.18093507 -0.06709482 -0.090887934
0.09087275 -0.17211622 0.04816784 0.09698318 -0.16794161 -0.16222897 -0.09457275 0.023194969
0.0290111 -0.19942047 -0.06443633 0.03396611 0.1598367 -0.12570874 0.0033244044 -0.13535485
-0.10545086 0.17931892 -0.17857637 -0.15504882 0.13254799 -0.08264989 0.19998954 -0.04190123
0.18139078 -0.13840687 -0.11428355 0.041322604 -0.12158507 0.16923417 -0.12869173 0.016826406
0.046111986 0.051152185 0.0056406856 0.14871089 0.05783011 -0.022494838 -0.12235624 -0.09151384
0.033633485 -0.18889034 -0.11291796 -0.12086834 -0.12696734 -0.10909909 -0.009392321 0.21533255
0.11668615 0.043421194 0.022515655 0.07674958 0.11294104 0.093735054 -0.1239334 -0.168298
0.19303589 0.13561966 -0.19172296 -0.014865607 0.21003284 0.16370969 0.02930963 -0.018767923
-0.14052293 -0.1554895 -0.041281447 0.1209894 -0.03265865 -0.16248469 -0.1126199 -0.047739327
-0.14011988 0.074633434 0.038810477 0.129312 -0.01273863 -0.1513879 -0.17758545 0.051061407
-0.052175537 -0.14681405 -0.041470706 -0.065347776 0.1293139 0.21543606 -0.09641728 -0.016078532
-0.20485611 0.056585476 -0.19276533 0.21735452 0.09115799 -0.03383994 -0.04698178 0.120258495
0.1704001 -0.07339388 -0.1301432 -0.15431023 -0.041449815 -0.010127202 -0.1799439 -0.20075119
0.116222456 0.011325568 -0.21574353 0.18753149 0.11233772 -0.18756488 0.12026237 -0.20683572
0.064295545 -0.19169305 -0.10198312 -0.15215051 -0.14379051 0.027572185 -0.115486205 0.17509694
00000000: 3bd6 32be f1ad 4d3e b4a9 21bd 1e64 89bd
00000010: 99ad 0e3e 0b47 393e 0269 89bd 7423 babd
00000020: 7e1b ba3d 3c3f 30be a44b 453d 1e9f c63d
00000030: e3f8 2bbe 5a1f 26be 5caf c1bd 6003 be3c
00000040: b0a8 ed3c e134 4cbe 32f7 83bd 0c20 0b3d
00000050: 3bac 233e cbb9 00be 40de 593b 769a 0abe
00000060: 9ff6 d7bd 619f 373e b9dc 36be 1ec5 1ebe
00000070: a9ba 073e 5844 a9bd 0fca 4c3e a0a0 2bbd
00000080: 81be 393e 88ba 0dbe 7e0d eabd e441 293d
00000090: 9801 f9bd b94b 2d3e c4c7 03be 88d7 893c
000000a0: ecdf 3c3d f484 513d 80d5 b83b ab47 183e
000000b0: 44df 6c3d 1847 b8bc e995 fabd 9c6b bbbd
000000c0: 44c3 093d 786c 41be 8841 e7bd d289 f7bd
000000d0: ba03 02be 586f dfbd 40e2 19bc 2380 5c3e
000000e0: 26f9 ee3d 6cda 313d c072 b83c e22e 9d3d
000000f0: a24d e73d 2af8 bf3d cbd0 fdbd 5056 2cbe
00000100: 33ab 453e e1df 0a3e 0653 44be e08e 73bc
00000110: d912 573e 83a3 273e c01a f03c 30bf 99bc
00000120: 3ee5 0fbe a438 1fbe bc16 29bd 4ac9 f73d
00000130: 14c5 05bd 6362 26be 43a5 e6bd 508a 43bd
00000140: 967b 0fbe 6ad9 983d bcf7 1e3d 5d6a 043e
00000150: b0b5 50bc 6e05 1bbe f6d8 35be c425 513d
00000160: 04b6 55bd 6c56 16be 30dd 29bd 0ed5 85bd
00000170: dd6a 043e 459b 5c3e 6c76 c5bd 20b7 83bc
00000180: cdc5 51be 2cc6 673d 4664 45be 2f92 5e3e
00000190: 0ab1 ba3d c09b 0abd f86f 40bd 164a f63d
000001a0: 5d7d 2e3e 884f 96bd 4244 05be 8003 1ebe
000001b0: 48c7 29bd 90ec 25bc 3743 38be b891 4dbe
000001c0: 0a06 ee3d e08e 393c dfeb 5cbe 4108 403e
000001d0: 5211 e63d 0211 40be 1e4c f63d becc 53be
000001e0: 62ad 833d 2f4b 44be 87dc d0bd 58cd 1bbe
000001f0: d23d 13be 10df e13c 0884 ecbd 9d4c 333e

attn_qpos_to_qvel.in_proj_weight f4 [384, 128]
4.95052e-40 4.93944e-40 -4.92007e-40 -4.91697e-40 4.99713e-40 -4.9235e-40 -4.91035e-40 -4.92252e-40
4.9731e-40 4.9217e-40 -4.93577e-40 -4.94298e-40 -4.91036e-40 -4.91114e-40 4.91071e-40 -4.92114e-40
4.91556e-40 -4.9123e-40 4.91924e-40 4.90652e-40 4.9455e-40 -4.90691e-40 -4.91536e-40 -4.94932e-40
-4.91543e-40 4.93082e-40 4.94494e-40 4.91169e-40 4.96072e-40 -4.9062e-40 -4.93767e-40 4.9885e-40
4.95509e-40 4.94692e-40 -4.93635e-40 4.9116e-40 4.93407e-40 -4.91682e-40 4.94399e-40 -4.91445e-40
4.90845e-40 -4.91016e-40 -4.93492e-40 4.94109e-40 4.94005e-40 -4.91884e-40 -4.92094e-40 -4.91679e-40
4.91647e-40 -4.91985e-40 -4.93138e-40 -4.9539e-40 -4.93628e-40 -4.94333e-40 -4.9114e-40 -4.93806e-40
-4.91929e-40 -4.92363e-40 -4.93102e-40 4.9785e-40 4.94506e-40 4.91316e-40 -4.92229e-40 4.92642e-40
-4.92243e-40 4.9454e-40 -4.94667e-40 4.9402e-40 4.9082e-40 -4.92053e-40 -4.91267e-40 -4.93236e-40
-4.93123e-40 4.92172e-40 4.9235e-40 -4.94559e-40 4.91767e-40 4.943e-40 5.03191e-40 4.91274e-40
4.9218e-40 -4.9297e-40 -4.94506e-40 -4.9438e-40 -4.94584e-40 4.93341e-40 -4.93724e-40 -4.91151e-40
4.93609e-40 -4.91615e-40 4.95223e-40 4.95321e-40 4.90578e-40 4.93663e-40 4.9476e-40 -4.94302e-40
-4.91403e-40 4.93414e-40 4.90481e-40 4.91445e-40 4.92116e-40 -4.92296e-40 -4.94361e-40 -5.00471e-40
-4.94388e-40 4.91954e-40 -4.95439e-40 -4.91665e-40 4.9391e-40 4.94441e-40 4.94615e-40 -4.91378e-40
4.92266e-40 -4.91144e-40 4.93075e-40 4.94511e-40 -4.94391e-40 -4.91441e-40 -5.40023e-40 -4.95282e-40
4.92404e-40 4.92702e-40 -4.90829e-40 4.92799e-40 -5.03679e-40 -4.94209e-40 4.93246e-40 -4.93749e-40
-4.94437e-40 4.90586e-40 -4.98607e-40 -4.92804e-40 -5.00045e-40 -4.94272e-40 4.939e-40 4.92214e-40
4.9151e-40 -4.92666e-40 -4.96854e-40 -4.91267e-40 -4.92028e-40 4.92384e-40 -4.93648e-40 4.93003e-40
4.93439e-40 4.90632e-40 -4.97175e-40 4.94158e-40 4.9429e-40 -4.91623e-40 4.92617e-40 4.91378e-40
-4.92967e-40 -4.90908e-40 -4.94702e-40 -5.69366e-40 4.92388e-40 4.93689e-40 -4.97678e-40 -4.9454e-40
4.9383e-40 4.91363e-40 4.9159e-40 -4.91595e-40 -4.92757e-40 4.93045e-40 6.13367e-40 -4.93585e-40
-4.91004e-40 -4.94583e-40 4.94745e-40 4.93434e-40 -4.94441e-40 4.90977e-40 -4.92282e-40 4.92897e-40
-5.02113e-40 -4.92573e-40 4.91363e-40 4.98404e-40 -4.92519e-40 -4.92542e-40 -4.92527e-40 4.98243e-40
4.92569e-40 -4.90492e-40 -4.92091e-40 -4.9371e-40 4.92397e-40 -4.90834e-40 -4.9431e-40 4.92513e-40
-4.94052e-40 -4.92275e-40 4.94174e-40 -4.90735e-40 4.92758e-40 4.92343e-40 -4.92334e-40 4.90704e-40
-4.92991e-40 -4.94922e-40 4.92758e-40 4.96794e-40 4.90724e-40 -4.91776e-40 -4.90718e-40 4.91849e-40
4.94046e-40 4.91056e-40 4.91954e-40 4.92449e-40 5.00013e-40 -4.90653e-40 4.9385e-40 4.95031e-40
4.93358e-40 4.93537e-40 -4.92317e-40 -4.9475e-40 4.91309e-40 4.92855e-40 4.91536e-40 -4.93518e-40
-4.91545e-40 4.94883e-40 4.9285e-40 -4.94237e-40 -4.94521e-40 4.91089e-40 -4.91096e-40 4.90632e-40
-4.92287e-40 -4.94291e-40 -4.92343e-40 4.93617e-40 4.90526e-40 4.91213e-40 4.91419e-40 4.90854e-40
4.9199e-40 -4.94122e-40 4.94255e-40 4.93778e-40 -4.99166e-40 4.91128e-40 4.92527e-40 -4.9441e-40
-4.92219e-40 -4.92231e-40 4.91106e-40 4.93756e-40 -4.92252e-40 -4.97478e-40 -4.93417e-40 -4.92453e-40
00000000: 0164 0500 ea60 0500 845b 0580 a75a 0580
00000010: ff70 0500 795c 0580 ce58 0580 335c 0580
00000020: 4c6a 0500 f85b 0500 e45f 0580 e761 0580
00000030: cf58 0580 0759 0580 e858 0500 d05b 0580
00000040: 425a 0500 5959 0580 495b 0500 bd57 0500
00000050: 9b62 0500 d957 0580 345a 0580 ab63 0580
00000060: 395a 0580 835e 0500 7362 0500 2e59 0500
00000070: d966 0500 a657 0580 6c60 0580 976e 0500
00000080: 4765 0500 0063 0500 0e60 0580 2759 0500
00000090: 6b5f 0500 9c5a 0580 2f62 0500 f359 0580
000000a0: 4758 0500 c158 0580 a85f 0580 6061 0500
000000b0: 1661 0500 2c5b 0580 c25b 0580 9a5a 0580
000000c0: 835a 0500 745b 0580 ab5e 0580 f264 0580
000000d0: 0960 0580 0062 0580 1959 0580 8860 0580
000000e0: 4c5b 0580 825c 0580 915e 0580 ce6b 0500
000000f0: 7b62 0500 9759 0500 225c 0580 495d 0500
00000100: 2c5c 0580 9462 0500 ee62 0580 2061 0500
00000110: 3558 0500 a55b 0580 7459 0580 f15e 0580
00000120: a05e 0580 fa5b 0500 795c 0500 a162 0580
00000130: d95a 0500 e861 0500 b17a 0500 7959 0500
00000140: ff5b 0500 335e 0580 7b62 0580 2162 0580
00000150: b362 0580 3c5f 0500 4d60 0580 2159 0580
00000160: fb5f 0500 6c5a 0580 7b64 0500 c164 0500
00000170: 8857 0500 2260 0500 3163 0500 ea61 0580
00000180: d559 0580 705f 0500 4357 0500 f359 0500
00000190: d25b 0500 525c 0580 1462 0580 1c73 0580
000001a0: 2762 0580 5e5b 0500 1565 0580 905a 0580
000001b0: d260 0500 4d62 0500 c962 0500 c359 0580
000001c0: 3d5c 0500 1c59 0580 7e5e 0500 7f62 0500
000001d0: 2962 0580 f059 0580 5de1 0580 a564 0580
000001e0: 9f5c 0500 745d 0500 3b58 0580 b95d 0500
000001f0: 0d7c 0580 a761 0580 f85e 0500 5f60 0580
00000200: 4a62 0580 8e57 0500 ea6d 0580 bd5d 0580
00000210: ec71 0580 d461 0580 cb60 0500 185c 0500
00000220: 215a 0500 5a5d 0580 0769 0580 7459 0580
00000230: 935b 0580 915c 0500 1760 0580 4b5e 0500
00000240: 825f 0500 af57 0500 ec69 0580 8361 0500
00000250: e161 0500 725a 0580 375d 0500 c359 0500
00000260: 315e 0580 7458 0580 0763 0580 2933 0680
00000270: 945c 0500 3460 0500 536b 0580 9462 0580
00000280: 9960 0500 b859 0500 5a5a 0500 5e5a 0580
00000290: 9b5d 0580 695e 0500 d1ad 0600 ea5f 0580
000002a0: b858 0580 b262 0580 2663 0500 7e5f 0500
000002b0: 4d62 0580 a558 0500 485c 0580 ff5d 0500
000002c0: b077 0580 185d 0580 b859 0500 596d 0500
000002d0: f15c 0580 025d 0580 f75c 0580 e66c 0500
000002e0: 155d 0500 4b57 0580 c05b 0580 4360 0580
000002f0: 9a5c 0500 3f58 0580 ef61 0580 ed5c 0500
00000300: 3761 0580 435c 0580 8e61 0500 f857 0580
00000310: 9c5d 0500 745c 0500 6d5c 0580 e257 0500
00000320: 425e 0580 a463 0580 9c5d 0500 dc68 0500
00000330: f057 0500 df5a 0580 ec57 0580 135b 0500
00000340: 3361 0500 dd58 0500 5e5b 0500 bf5c 0500
00000350: d571 0500 be57 0580 a760 0500 f263 0500
00000360: 485f 0500 c85f 0500 615c 0580 2963 0580
00000370: 9259 0500 e15d 0500 345a 0500 ba5f 0580
00000380: 3a5a 0580 8863 0500 de5d 0500 bb61 0580
00000390: 8662 0580 f558 0500 fa58 0580 af57 0500
000003a0: 4c5c 0580 e261 0580 745c 0580 0160 0500
000003b0: 6357 0500 4d59 0500 e059 0500 4d58 0500
000003c0: 785b 0500 6961 0580 c861 0500 7460 0500
000003d0: 796f 0580 1159 0500 f75c 0500 3762 0580
000003e0: 1b5c 0580 245c 0580 0159 0500 6460 0500
000003f0: 335c 0580 c46a 0580 725f 0580 c25c 0580

attn_qpos_to_qvel.in_proj_bias f4 [384]
0.0 0.0 0.0 0.0 0.0 0.0 0.0 0.0
0.0 0.0 0.0 0.0 0.0 0.0 0.0 0.0
0.0 0.0 0.0 0.0 0.0 0.0 0.0 0.0
0.0 0.0 0.0 0.0 0.0 0.0 0.0 0.0
0.0 0.0 0.0 0.0 0.0 0.0 0.0 0.0
0.0 0.0 0.0 0.0 0.0 0.0 0.0 0.0
0.0 0.0 0.0 0.0 0.0 0.0 0.0 0.0
0.0 0.0 0.0 0.0 0.0 0.0 0.0 0.0
0.0 0.0 0.0 0.0 0.0 0.0 0.0 0.0
0.0 0.0 0.0 0.0 0.0 0.0 0.0 0.0
0.0 0.0 0.0 0.0 0.0 0.0 0.0 0.0
0.0 0.0 0.0 0.0 0.0 0.0 0.0 0.0
0.0 0.0 0.0 0.0 0.0 0.0 0.0 0.0
0.0 0.0 0.0 0.0 0.0 0.0 0.0 0.0
0.0 0.0 0.0 0.0 0.0 0.0 0.0 0.0
0.0 0.0 0.0 0.0 0.0 0.0 0.0 0.0
0.0 0.0 0.0 0.0 0.0 0.0 0.0 0.0
0.0 0.0 0.0 0.0 0.0 0.0 0.0 0.0
0.0 0.0 0.0 0.0 0.0 0.0 0.0 0.0
0.0 0.0 0.0 0.0 0.0 0.0 0.0 0.0
0.0 0.0 0.0 0.0 0.0 0.0 0.0 0.0
0.0 0.0 0.0 0.0 0.0 0.0 0.0 0.0
0.0 0.0 0.0 0.0 0.0 0.0 0.0 0.0
0.0 0.0 0.0 0.0 0.0 0.0 0.0 0.0
0.0 0.0 0.0 0.0 0.0 0.0 0.0 0.0
0.0 0.0 0.0 0.0 0.0 0.0 0.0 0.0
0.0 0.0 0.0 0.0 0.0 0.0 0.0 0.0
0.0 0.0 0.0 0.0 0.0 0.0 0.0 0.0
0.0 0.0 0.0 0.0 0.0 0.0 0.0 0.0
0.0 0.0 0.0 0.0 0.0 0.0 0.0 0.0
0.0 0.0 0.0 0.0 0.0 0.0 0.0 0.0
0.0 0.0 0.0 0.0 0.0 0.0 0.0 0.0
00000000: 0000 0000 0000 0000 0000 0000 0000 0000
00000010: 0000 0000 0000 0000 0000 0000 0000 0000
00000020: 0000 0000 0000 0000 0000 0000 0000 0000
00000030: 0000 0000 0000 0000 0000 0000 0000 0000
00000040: 0000 0000 0000 0000 0000 0000 0000 0000
00000050: 0000 0000 0000 0000 0000 0000 0000 0000
00000060: 0000 0000 0000 0000 0000 0000 0000 0000
00000070: 0000 0000 0000 0000 0000 0000 0000 0000
00000080: 0000 0000 0000 0000 0000 0000 0000 0000
00000090: 0000 0000 0000 0000 0000 0000 0000 0000
000000a0: 0000 0000 0000 0000 0000 0000 0000 0000
000000b0: 0000 0000 0000 0000 0000 0000 0000 0000
000000c0: 0000 0000 0000 0000 0000 0000 0000 0000
000000d0: 0000 0000 0000 0000 0000 0000 0000 0000
000000e0: 0000 0000 0000 0000 0000 0000 0000 0000
000000f0: 0000 0000 0000 0000 0000 0000 0000 0000
00000100: 0000 0000 0000 0000 0000 0000 0000 0000
00000110: 0000 0000 0000 0000 0000 0000 0000 0000
00000120: 0000 0000 0000 0000 0000 0000 0000 0000
00000130: 0000 0000 0000 0000 0000 0000 0000 0000
00000140: 0000 0000 0000 0000 0000 0000 0000 0000
00000150: 0000 0000 0000 0000 0000 0000 0000 0000
00000160: 0000 0000 0000 0000 0000 0000 0000 0000
00000170: 0000 0000 0000 0000 0000 0000 0000 0000
00000180: 0000 0000 0000 0000 0000 0000 0000 0000
00000190: 0000 0000 0000 0000 0000 0000 0000 0000
000001a0: 0000 0000 0000 0000 0000 0000 0000 0000
000001b0: 0000 0000 0000 0000 0000 0000 0000 0000
000001c0: 0000 0000 0000 0000 0000 0000 0000 0000
000001d0: 0000 0000 0000 0000 0000 0000 0000 0000
000001e0: 0000 0000 0000 0000 0000 0000 0000 0000
000001f0: 0000 0000 0000 0000 0000 0000 0000 0000
00000200: 0000 0000 0000 0000 0000 0000 0000 0000
00000210: 0000 0000 0000 0000 0000 0000 0000 0000
00000220: 0000 0000 0000 0000 0000 0000 0000 0000
00000230: 0000 0000 0000 0000 0000 0000 0000 0000
00000240: 0000 0000 0000 0000 0000 0000 0000 0000
00000250: 0000 0000 0000 0000 0000 0000 0000 0000
00000260: 0000 0000 0000 0000 0000 0000 0000 0000
00000270: 0000 0000 0000 0000 0000 0000 0000 0000
00000280: 0000 0000 0000 0000 0000 0000 0000 0000
00000290: 0000 0000 0000 0000 0000 0000 0000 0000
000002a0: 0000 0000 0000 0000 0000 0000 0000 0000
000002b0: 0000 0000 0000 0000 0000 0000 0000 0000
000002c0: 0000 0000 0000 0000 0000 0000 0000 0000
000002d0: 0000 0000 0000 0000 0000 0000 0000 0000
000002e0: 0000 0000 0000 0000 0000 0000 0000 0000
000002f0: 0000 0000 0000 0000 0000 0000 0000 0000
00000300: 0000 0000 0000 0000 0000 0000 0000 0000
00000310: 0000 0000 0000 0000 0000 0000 0000 0000
00000320: 0000 0000 0000 0000 0000 0000 0000 0000
00000330: 0000 0000 0000 0000 0000 0000 0000 0000
00000340: 0000 0000 0000 0000 0000 0000 0000 0000
00000350: 0000 0000 0000 0000 0000 0000 0000 0000
00000360: 0000 0000 0000 0000 0000 0000 0000 0000
00000370: 0000 0000 0000 0000 0000 0000 0000 0000
00000380: 0000 0000 0000 0000 0000 0000 0000 0000
00000390: 0000 0000 0000 0000 0000 0000 0000 0000
000003a0: 0000 0000 0000 0000 0000 0000 0000 0000
000003b0: 0000 0000 0000 0000 0000 0000 0000 0000
000003c0: 0000 0000 0000 0000 0000 0000 0000 0000
000003d0: 0000 0000 0000 0000 0000 0000 0000 0000
000003e0: 0000 0000 0000 0000 0000 0000 0000 0000
000003f0: 0000 0000 0000 0000 0000 0000 0000 0000

attn_qpos_to_qvel.out_proj.weight f4 [128, 128]
-0.0087202955 0.0130446935 0.034968093 -0.050160713 -0.007957107 0.04477867 -0.014383996 -0.003748535
-0.06671318 0.04061186 0.002222374 0.0026031435 0.0013363492 0.03688624 0.07186476 0.07066521
0.06177052 -0.011604001 -0.037905607 0.0056143184 -0.052569285 -0.06839634 -0.017284334 0.011415558
0.09539629 -0.043256577 -0.11341997 -0.0010665139 -0.06882171 -0.06562566 0.019107778 -0.021864768
0.03909917 0.032077413 -0.014716586 0.012355316 0.08347391 -0.067369096 -0.010734477 -0.018390758
-0.065984115 -0.0029825084 0.00069952355 -0.0148161575 0.019814976 -0.009865229 -0.023185322 -0.030888285
0.036808472 -0.05488927 0.053554527 0.065516755 -0.07474671 -0.08104259 -0.06101349 -0.031843048
-0.050933436 -0.058006275 -0.011990892 -0.06146633 0.005213284 0.041287687 -0.047740072 -0.027462726
-0.048564944 0.04090668 0.017487764 -0.0511932 0.032590654 -0.023765318 -0.050489716 -0.03382362
0.030186487 0.04197875 -0.009987007 -0.015649173 -0.017105047 -0.03371083 -0.0031360115 -0.058165897
0.042157356 -0.01622579 -0.0050594667 0.031557705 0.030032825 0.050477132 -0.08140473 -0.042470563
-0.031248128 0.01941081 -0.010534685 0.006929154 0.008508581 0.05728166 -0.010154271 -0.093700975
0.04152966 -0.035004787 -0.052952368 0.054516178 0.027641566 -0.050178546 -0.056533054 -0.03088375
0.049914185 -0.075336225 0.046346296 -0.012883721 0.049582407 0.047565244 0.016803352 -0.011185817
0.004855209 0.008580003 -0.078357846 -0.0665632 -0.03918752 0.009227813 -0.056355134 -0.023752425
-0.0389867 0.031972878 0.1019533 -0.03352449 -0.019251488 -0.046542346 0.03346663 0.004601325
-0.06326121 0.019231353 -0.051447973 -0.029827567 0.037252262 -0.05602328 0.030262064 0.061685275
0.04783672 0.03090714 -0.04395541 0.032511905 -0.03234163 -0.054113165 -0.03756226 -0.006067035
0.038295224 -0.032976963 -0.04061811 -0.016898375 0.08092462 0.037899874 -0.010138887 -0.05383612
0.0050611077 -0.07601729 -0.012154697 -0.015448467 0.0839022 -0.05536806 -0.0402712 -0.02109905
-0.02516071 -0.042348135 0.056276526 0.076329716 -0.056245558 0.023710063 0.05394006 -0.007274526
0.061263565 -0.003257984 0.033832144 0.025301373 0.06329885 -0.04742342 0.026855249 0.013798733
-0.015331298 0.041320313 -0.037959613 0.022933336 -0.04955291 0.061472822 -0.04884205 0.048318997
0.06198208 -0.07823305 -0.0059820376 0.02802976 0.076087706 -0.047765493 -0.02975159 -0.021657508
-0.0658593 0.019113235 -0.044433434 0.051057715 0.03100447 -0.008017798 0.06955215 -0.086711355
-0.045755688 0.045144122 0.008788547 0.02446823 -0.036074705 -0.0016658235 -0.02515081 0.07720785
0.016182281 0.0050657704 0.08908492 0.030113136 -0.0012009534 0.038742945 0.053280544 0.04721662
-0.010525496 0.05791262 -0.036833826 0.07019172 -0.06076648 0.053689 -0.062389378 -0.0039688977
0.06054599 -0.052797765 0.05232956 -0.013805648 0.096936 0.03212513 -0.025809718 0.04348753
-0.05193642 0.03256633 -0.04206803 -0.07139194 -0.03721758 0.0020427238 0.07965297 0.04156904
-0.008715636 0.027459394 0.007473488 0.030285811 -0.03868538 -0.09305896 -0.01718008 0.026898475
0.021891553 -0.034464873 0.03646165 -0.094444 -0.010563377 0.016947903 0.01563145 0.023446236
00000000: 92df 0ebc 69b9 553c b43a 0f3d 5275 4dbd
00000010: 875e 02bc d769 373d daaa 6bbc fba9 75bb
00000020: eba0 88bd 9f58 263d 40a5 113b 8099 2a3b
00000030: 7028 af3a 0716 173d d52d 933d ecb8 903d
00000040: 1603 7d3d b51e 3ebc e942 1bbd 51f8 b73b
00000050: e452 57bd 6113 8cbd e097 8dbc 5208 3b3c
00000060: 215f c33d cf2d 31bd bb48 e8bd 45ca 8bba
00000070: 66f2 8cbd bf66 86bd ea87 9c3c be1d b3bc
00000080: 7426 203d 9b63 033d d61d 71bc f46d 4a3c
00000090: 5ff4 aa3d cff8 89bd a9df 2fbc 37a8 96bc
000000a0: ae22 87bd 3076 43bb 3b60 373a 78bf 72bc
000000b0: 0453 a23c c5a1 21bc 25ef bdbc 6e09 fdbc
000000c0: 7bc4 163d 92d3 60bd fe5b 5b3d a62d 863d
000000d0: ce14 99bd a8f9 a5bd 48e9 79bd db6d 02bd
000000e0: 949f 50bd fd97 6dbd 7275 44bc 1ec4 7bbd
000000f0: 32d4 aa3b 471d 293d 188b 43bd 83f9 e0bc
00000100: 09ec 46bd c38d 273d 8042 8f3c f6af 51bd
00000110: c77d 053d 7caf c2bc 4ece 4ebd a38a 0abd
00000120: a749 f73c e9f1 2b3d 8ba0 23bc b232 80bc
00000130: e21f 8cbc 5e14 0abd 8b85 4dbb 5d3f 6ebd
00000140: 31ad 2c3d f3eb 84bc e2c9 a5bb a742 013d
00000150: 6607 f63c 1cc1 4e3d 86b7 a6bd 9df5 2dbd
00000160: 13fc ffbc 6b03 9f3c ac99 2cbc f50d e33b
00000170: 9367 0b3c 2da0 6a3d 195e 26bc 4ce6 bfbd
00000180: 011b 2a3d 2e61 0fbd 95e4 58bd 5b4c 5f3d
00000190: 9170 e23c 0588 4dbd 348f 67bd ebff fcbc
000001a0: d172 4c3d e149 9abd 9dd5 3d3d 3e16 53bc
000001b0: ec16 4b3d c6d3 423d 2fa7 893c b844 37bc
000001c0: 7218 9f3b 2493 0c3c 147a a0bd 4952 88bd
000001d0: 1883 20bd 4130 173c a4d4 66bd 7294 c2bc
000001e0: 85b0 1fbd fef5 023d e4cc d03d fa50 09bd
000001f0: 4cb5 9dbc 30a3 3ebd 4e14 093d b6c6 963b
00000200: 188f 81bd 128b 9d3c 1cbb 52bd f158 f4bc
00000210: d495 183d ab78 65bd 26e8 f73c b3a9 7c3d
00000220: 70f0 433d f830 fd3c 970a 34bd 342b 053d
00000230: a878 04bd c4a5 5dbd e2da 19bd facd c6bb
00000240: 74db 1c3d da12 07bd 2d5f 26bd 766e 8abc
00000250: cfbb a53d e63c 1b3d 931d 26bc 4383 5cbd
00000260: a6d7 a53b f4ae 9bbd 7f24 47bc 911b 7dbc
00000270: ebd4 ab3d 9ec9 62bd 6af3 24bd ead7 acbc
00000280: d51d cebc 3d75 2dbd 3782 663d c152 9c3d
00000290: be61 66bd 9b3b c23c 41f0 5c3d 265f eebb
000002a0: 81ef 7a3d e783 55bb 9393 0a3d d344 cf3c
000002b0: d4a2 813d 0f3f 42bd 8aff db3c 1514 623c
000002c0: 2030 7bbc 7d3f 293d 8a7b 1bbd b1de bb3c
000002d0: fef7 4abd edca 7b3d 9a0e 48bd 24ea 453d
000002e0: ece0 7d3d a638 a0bd f804 c4bb ab9e e53c
000002f0: dfd3 9b3d c0a5 43bd 9bb9 f3bc 166b b1bc
00000300: 3ee1 86bd 5c93 9c3c d5ff 35bd e521 513d
00000310: 16fd fd3c 155d 03bc 5c71 8e3d b995 b1bd
00000320: 516a 3bbd 0be9 383d d6fd 0f3c 9971 c83c
00000330: 12c3 13bd c357 daba 1209 cebc 261f 9e3d
00000340: b490 843c c3fe a53b 2872 b63d d3af f63c
00000350: 4f69 9dba ecb0 1e3d b33c 5a3d 3766 413d
00000360: 2173 2cbc c935 6d3d 11df 16bd adc0 8f3d
00000370: 46e6 78bd ffe8 5b3d 018c 7fbd 870d 82bb
00000380: 12ff 773d 7842 58bd 8557 563d 1631 62bc
00000390: 6286 c63d a495 033d e76e d3bc fb1f 323d
000003a0: 49bb 54bd 4664 053d 874f 2cbd f035 92bd
000003b0: 7671 18bd 38df 053b 1921 a33d 4c44 2a3d
000003c0: 07cc 0ebc 86f2 e03c 29e4 f43b f319 f83c
000003d0: 9074 1ebd b295 bebd 3dbd 8cbc 315a dc3c
000003e0: ea55 b33c 0a2b 0dbd d058 153d db6b c1bd
000003f0: 0412 2dbc 54d6 8a3c 870d 803c 5212 c03c

attn_qpos_to_qvel.out_proj.bias f4 [128]
0.053783484 -0.12744628 0.024779694 0.053949956 -0.024175331 0.015252273 -0.000104655686 -0.09330883
0.010299649 -0.02220491 -0.01651811 -0.0011539352 0.0059517105 0.06661915 -0.035137147 0.015302935
-0.04272796 -0.09620982 0.096259005 0.0985144 -0.1078287 0.042760663 0.010219718 0.02263262
-0.020293025 -0.034418423 -0.003241183 -0.070748605 0.0036783132 0.015181886 0.020771312 -0.001808437
-0.02992718 0.08792359 0.00775301 0.024791166 -0.07436476 -0.10048498 0.034168635 -0.02801223
-0.13648753 -0.058972035 0.0014478232 0.005184096 -0.09805483 -0.06641087 -0.07365858 -0.014506311
0.0041256384 -0.06496729 -0.05997181 0.014760163 -0.0044480553 0.04740602 -0.103555165 -0.075492896
-0.0018895711 -0.061339077 0.01841941 0.05277704 -0.000119011405 0.030537998 0.027904706 -0.04496321
-0.076550476 -0.06234129 -0.031529833 -0.07880098 -0.06926402 -0.08646682 -0.055726644 0.040337645
-0.015489746 0.071197 0.0042230445 -0.031262744 -0.00827643 -0.071310714 0.016538829 -0.02000534
-0.07508704 0.017399931 -0.03610637 -0.046556592 -0.053838026 -0.02022205 -0.05953758 0.028491125
0.053909432 -0.04993958 -0.040940844 -0.0047688475 0.062256455 -0.023519233 -0.015033248 -0.10960774
-0.038050216 -0.0013147177 -0.021287633 0.022810865 -0.012356779 -0.08381461 0.005475794 0.03414905
0.018128153 -0.012732555 -0.07054142 -0.0224701 -0.0731468 -0.021936493 -0.015762404 0.066003844
-0.0056766104 0.0072650164 0.09960267 0.016907834 -0.004336129 -0.03753897 -0.0065655634 0.018174844
0.061274897 -0.11833693 -0.043055203 -0.02333311 0.01719367 0.075724036 -0.022589799 -0.04074836
00000000: 124c 5c3d 4781 02be c9fe ca3c a1fa 5c3d
00000010: 580b c6bc abe4 793c 987a dbb8 b318 bfbd
00000020: dcbf 283c 12e7 b5bc fd50 87bc a43f 97ba
00000030: 9106 c33b 9f6f 883d f8eb 0fbd 29b9 7a3c
00000040: 8303 2fbd a709 c5bd 7123 c53d ebc1 c93d
00000050: 4bd5 dcbd ce25 2f3d 9b70 273c 0b68 b93c
00000060: 8f3d a6bc 55fa 0cbd 076a 54bb a5e4 90bd
00000070: db0f 713b 72bd 783c 9928 aa3c 1409 edba
00000080: d829 f5bc 4811 b43d f60c fe3b d816 cb3c
00000090: 8d4c 98bd 12cb cdbd 69f4 0b3d e779 e5bc
000000a0: 63c3 0bbe a98c 71bd e3c4 bd3a 59df a93b
000000b0: f9d0 c8bd 6c02 88bd 4fda 96bd e1ab 6dbc
000000c0: 5d30 873b 920d 85bd 00a5 75bd 9cd4 713c
000000d0: fec0 91bb d12c 423d bb14 d4bd 059c 9abd
000000e0: 7cab f7ba af3e 7bbd 4de4 963c bd2c 583d
000000f0: c395 f9b8 d32a fa3c 6998 e43c 582b 38bd
00000100: 7fc6 9cbd 9559 7fbd 6d25 01bd 6862 a1bd
00000110: 4bda 8dbd 8415 b1bd 9f41 64bd 1639 253d
00000120: b4c8 7dbc bccf 913d 7761 8a3b 5d0d 00bd
00000130: dd99 07bc 5a0b 92bd 707c 873c 3de2 a3bc
00000140: 3cc7 99bd 4d8a 8e3c 46e4 13bd 20b2 3ebd
00000150: 4385 5cbd b6a8 a5bc addd 73bd 3866 e93c
00000160: 23d0 5c3d 728d 4cbd 96b1 27bd fe43 9cbb
00000170: a000 7f3d 68ab c0bc 034e 76bc 067a e0bd
00000180: 8bda 1bbd 9b52 acba 6763 aebc dadd ba3c
00000190: 1674 4abc ffa6 abbd 4a6e b33b e0df 0b3d
000001a0: 7e81 943c 359c 50bc 0578 90bd 3713 b8bc
000001b0: fdcd 95bd 29b4 b3bc 2820 81bc 062d 873d
000001c0: dc02 babb 600f ee3b 7cfc cb3d 4c82 8a3c
000001d0: 1616 8ebb 77c2 19bd f023 d7bb 69e3 943c
000001e0: 63fb 7a3d a25a f2bd a75a 30bd 1425 bfbc
000001f0: bdd9 8c3c 3415 9b3d 3e0e b9bc c1e7 26bd
